concepts/reinforcement-learning/dqn/checkpoint.pth (torch, 22630 bytes, 6 tensors)

fc1.weight f4 [64, 8]
0.07512974 -0.39805967 -0.8641909 -0.0069339424 0.1525552 0.3399574 0.26433346 0.469491
-0.521997 -0.18161201 -0.6898474 -0.40235242 -0.37559995 -0.9770054 -0.66555786 -0.0329695
-0.02563232 0.23423697 -0.30702963 -0.27116093 0.48500982 0.88786757 -0.12136376 0.31348538
0.60722166 -0.39929506 0.91848594 0.046107586 -0.9652508 -0.29440612 -0.19342804 0.4893509
-0.009264651 -0.31508806 -0.49385998 -0.29782864 0.23257942 0.4849843 0.36640546 0.38780048
0.41700584 -0.2807694 0.33287615 0.08366347 -0.56990725 -0.14627133 0.3082888 0.05256241
0.17620516 -1.7385403 -0.13935095 0.8285975 -0.13424776 0.0010490221 0.59586257 -0.086524405
0.6105076 -0.8437995 -0.25376776 -1.0667909 0.5065287 -0.023850692 -0.14937249 0.06361121
0.07444765 1.1814526 0.16403554 0.29040104 -0.015979325 0.8636912 -0.556075 -0.12996301
0.052940123 0.8597635 0.45878994 1.4511759 -0.75248355 -0.39183465 0.09324569 0.20701343
0.23302719 0.6168757 1.2933384 -1.8850461 -0.7014335 -0.5234986 0.2239113 -0.18226707
-0.14281335 0.09019515 0.085790135 -0.6261604 0.62542516 0.64525276 0.4306496 -0.54753673
-0.07527345 0.48865515 -0.21744607 -0.6574034 0.5734634 0.778447 -0.41263026 -0.7445179
-0.83048433 -0.8260202 -0.71416545 -0.8501857 -0.2560202 -0.06537151 0.1356696 0.13779132
-0.28448758 -0.16806544 0.26293948 -0.66236645 -2.311371 0.05616367 0.1341329 0.57878524
-0.27749875 -0.37854537 -0.37663555 -0.044295255 -0.42086345 -0.9428896 -0.65854436 -0.21544372
-0.2021508 -0.18627964 0.48463237 -0.69862294 -0.34316865 0.030347422 0.3367475 0.04211808
0.3498749 0.19307117 0.1970701 0.06111627 0.052983206 0.8771297 0.43839967 -0.1714118
-0.40460065 -0.97861046 0.14274831 -1.1982974 0.47682402 -0.30371064 0.07611172 -0.026325023
-0.13148521 -0.06640313 1.5717312 -1.4796621 1.3987269 -0.3534058 0.36917105 0.063842714
0.26321274 -0.8016466 -0.3160221 -1.1494257 0.2500201 0.0063372594 0.13403723 -0.017132286
-0.27459237 -0.26511016 -0.11745511 -0.71409047 0.61280745 0.06876997 0.075407326 0.49339354
-0.21386993 -0.6713724 0.4550647 -0.628701 -0.24104908 -0.14909399 0.29842624 0.22779705
0.4867779 -0.20738241 0.094196066 0.30182338 -0.49279425 0.1324729 0.3592661 0.30060723
-0.7747207 -0.49416855 -0.7542752 -1.0560921 -0.25433597 -0.06406357 0.035151064 -0.03769302
0.18190004 1.8833798 -0.6763004 -0.48453686 0.25828302 0.6301041 -0.18942685 0.17365742
-0.3426456 -0.14306733 0.26254705 -0.80183023 0.067855164 -0.06447063 -0.38576457 0.2877738
0.6255202 -0.773142 0.61093926 -1.0231273 0.53415054 0.37735125 -0.016291777 -0.15946236
-0.13183464 -0.22355027 -2.063689 -1.0603683 0.18263288 0.021765543 0.17423332 0.19450232
-0.0362465 0.035106733 1.9611666 -0.6584349 0.7166408 -0.4934447 0.2484833 0.27774224
0.1313972 -0.08530833 -0.006774263 0.109382264 -0.4538673 -0.8536651 0.25032434 0.22471595
0.1416121 -0.11022495 -0.35972092 -0.33961412 2.1093736 -0.26071423 -0.2858046 -0.034007546
00000000: 9fdd 993d 7ace cbbe 9d3b 5dbf 2036 e3bb
00000010: 6e37 1c3e e50e ae3e b756 873e 2061 f03e
00000020: 98a1 05bf 80f8 39be d799 30bf 2301 cebe
00000030: a34e c0be 071d 7abf 0062 2abf 070b 07bd
00000040: dffa d1bc d1db 6f3e fd32 9dbe 9bd5 8abe
00000050: 3553 f83e 4a4b 633f 908d f8bd 2881 a03e
00000060: e172 1b3f 6770 ccbe e521 6b3f 4fdb 3c3d
00000070: ad1a 77bf 66bc 96be 0012 46be 338c fa3e
00000080: c3ca 17bc 3953 a1be 37db fcbe ff7c 98be
00000090: 4d29 6e3e dd4f f83e 7f99 bb3e c98d c63e
000000a0: ca81 d53e 02c1 8fbe be6e aa3e c157 ab3d
000000b0: 71e5 11bf 27c8 15be 08d8 9d3e ae4b 573d
000000c0: 206f 343e 7d88 debf 04b2 0ebe f71e 543f
000000d0: 3f78 09be 577f 893a 738a 183f b533 b1bd
000000e0: 3a4a 1c3f 3e03 58bf d9ed 81be 9b8c 88bf
000000f0: ddab 013f 8762 c3bc 1af5 18be 9846 823d
00000100: 0278 983d d739 973f eff8 273e 72af 943e
00000110: 13e7 82bc de1a 5d3f ee5a 0ebf 0615 05be
00000120: bed7 583d 7619 5c3f 84e6 ea3e 22c0 b93f
00000130: c3a2 40bf 8d9e c8be 99f7 be3d 54fb 533e
00000140: ae9e 6e3e 91eb 1d3f 1d8c a53f 3149 f1bf
00000150: 2591 33bf 0104 06bf 0149 653e 38a4 3abe
00000160: aa3d 12be 3cb8 b83d bdb2 af3d 0c4c 20bf
00000170: dd1b 203f 492f 253f 1b7e dc3e 5e2b 0cbf
00000180: f728 9abd 0231 fa3e 2faa 5ebe 974b 28bf
00000190: 7fce 123f 4d48 473f 4644 d3be ba98 3ebf
000001a0: 9f9a 54bf 0f76 53bf 8cd3 36bf c5a5 59bf
000001b0: 1415 83be 80e1 85bd f9ec 0a3e 2b19 0d3e
000001c0: 5ba8 91be 5919 2cbe 01a0 863e d990 29bf
000001d0: 81ed 13c0 e00b 663d 235a 093e 452b 143f
000001e0: 5114 8ebe b3d0 c1be 60d6 c0be f16e 35bd
000001f0: 6a7b d7be 3661 71bf 5d96 28bf 479d 5cbe
00000200: 9f00 4fbe 17c0 3ebe bc21 f83e f4d8 32bf
00000210: cdb3 afbe 289b f83c 2b6a ac3e 0284 2c3d
00000220: ce22 b33e 73b4 453e bfcc 493e 0e55 7a3d
00000230: eb04 593d 928b 603f ec75 e03e 9386 2fbe
00000240: d127 cfbe 3786 7abf 9d2c 123e cf61 99bf
00000250: 4722 f43e f67f 9bbe 76e0 9b3d 93a7 d7bc
00000260: 0fa4 06be 5dfe 87bd 7d2e c93f 9165 bdbf
00000270: 7c09 b33f 9bf1 b4be fd03 bd3e f8bf 823d
00000280: d2c3 863e b638 4dbf a6cd a1be 6220 93bf
00000290: a202 803e c9a8 cf3b 0e41 093e 0259 8cbc
000002a0: 5f97 8cbe 85bc 87be 4e8c f0bd a2ce 36bf
000002b0: f3e0 1c3f 45d7 8c3d 286f 9a3d 149e fc3e
000002c0: b800 5bbe 10df 2bbf 3efe e83e 8cf2 20bf
000002d0: 92d5 76be 18ac 18be 53cb 983e a143 693e
000002e0: f43a f93e 0e5c 54be dee9 c03d 9888 9a3e
000002f0: 874f fcbe faa6 073e baf1 b73e 31e9 993e
00000300: 1954 46bf a903 fdbe 2e18 41bf 072e 87bf
00000310: 5338 82be c333 83bd 90fa 0f3d ff63 1abd
00000320: 0144 3a3e 9712 f13f 0622 2dbf 3715 f8be
00000330: ac3d 843e 814e 213f 1df9 41be 40d3 313e
00000340: 3e6f afbe 3e80 12be 916c 863e bf44 4dbf
00000350: a6f7 8a3d 2d09 84bd ef82 c5be 1657 933e
00000360: 1822 203f a2ec 45bf 8466 1c3f d6f5 82bf
00000370: 17be 083f 2f34 c13e 5576 85bc 1a4a 23be
00000380: a9ff 06be 5dea 64be 7b13 04c0 26ba 87bf
00000390: 1d04 3b3e a74d b23c 386a 323e 9e2b 473e
000003a0: 3677 14bd 14cc 0f3d 8207 fb3f 318f 28bf
000003b0: c575 373f c9a4 fcbe 6872 7e3e 3b34 8e3e
000003c0: fd8c 063e 22b6 aebd a3fa ddbb cf03 e03d
000003d0: 4b61 e8be cc89 5abf 832a 803e f01b 663e
000003e0: c302 113e 9ebd e1bd 572d b8be e7e1 adbe
000003f0: faff 0640 567c 85be fb54 92be 7f4b 0bbd

fc1.bias f4 [64]
-0.4210289 -0.36456764 -0.18908589 -0.27712905 -0.2471623 -0.28261727 0.6655127 -0.13313289
-0.15857503 0.31476414 0.2198976 0.13935149 -0.27870634 -0.2962899 0.019480426 -0.20861498
-0.04331611 -0.35136735 0.6948392 0.046577685 -0.44062456 -0.2560773 -0.31204218 -0.2331845
-0.057323206 0.14551492 -0.37593502 -0.11024135 0.18750083 -0.066542774 0.070697896 0.059594985
-0.4307685 -0.14718793 -0.4668787 -0.52602994 -0.15795644 0.05226919 -0.33543846 -0.21453752
0.2293354 -0.61070484 0.14227125 0.45811665 0.36246368 0.9090806 0.09629519 -0.043628845
-0.046672877 -0.41172358 -0.13641751 0.9715801 -0.04231246 0.10149174 -0.2641502 0.029681945
0.5426919 0.001974113 -0.10320253 -0.05307045 -0.20472507 -0.3073607 -0.054582585 0.46597356
00000000: 1a91 d7be 9ca8 babe bb9f 41be dce3 8dbe
00000010: 1d18 7dbe 36b3 90be 0a5f 2a3f fd53 08be
00000020: 7e61 22be c428 a13e d62c 613e 28b2 0e3e
00000030: 99b2 8ebe 4fb3 97be 6a95 9f3c 2a9f 55be
00000040: 3c6c 31bd 6ce6 b3be fbe0 313f 3ec8 3e3d
00000050: 8b99 e1be 901c 83be fec3 9fbe ebc7 6ebe
00000060: bdcb 6abd dd01 153e 8e7a c0be 38c6 e1bd
00000070: 3800 403e 9447 88bd 0fca 903d df19 743d
00000080: b08d dcbe 6fb8 16be ba0a efbe e6a9 06bf
00000090: 55bf 21be 3818 563d 97be abbe b9af 5bbe
000000a0: e6d6 6a3e 2757 1cbf 8eaf 113e 448e ea3e
000000b0: d794 b93e 82b9 683f 6a36 c53d 29b4 32bd
000000c0: 0f2c 3fbd 6fcd d2be 08b1 0bbe 79b9 783f
000000d0: d44f 2dbd e7da cf3d b23e 87be 8d27 f33c
000000e0: dbed 0a3f 1f60 013b d95b d3bd 6660 59bd
000000f0: 73a3 51be 625e 9dbe fd91 5fbd 1694 ee3e

fc2.weight f4 [64, 64]
-0.1271175 -0.011979294 -0.24561003 0.4670405 0.0353638 -0.06050186 0.29175368 0.18239981
-0.37847146 1.0040904 0.38031495 0.54609334 -0.54798543 0.18660992 0.012023546 -0.093109675
-0.40210116 0.38058612 -0.29252595 -0.3554784 -0.008389388 -0.2913937 0.29387358 0.31227773
-0.22610159 -0.19312888 0.590958 0.6159279 -0.8786507 -0.28126138 0.10176165 -1.7335492
-0.2305969 -0.4677638 -0.083546884 -0.023322582 -1.4380683 0.5147083 0.04433936 0.9952864
0.14752506 -0.041117724 0.7650298 0.6946782 0.20808928 -0.26819056 0.47376886 -0.07416818
0.47599635 -0.36291558 0.46721593 0.032788157 0.10645523 -0.79328436 0.6865428 0.027638042
-0.13715509 0.09299148 -0.06840639 -0.12005346 -0.27887622 -0.41214547 0.08001756 -0.15029572
0.034700047 0.29755315 0.087492 -1.3105559 -0.11191854 1.0447145 -0.36770785 0.24656147
0.212214 0.26234302 0.89001256 0.60502785 0.38590714 0.030965801 -1.4805479 0.67593366
0.464581 0.875925 -0.2562883 -1.4220055 0.34490567 -0.25321382 0.7053975 -0.0287935
0.49126893 0.58422315 -1.4811233 0.15646097 -0.027756492 -2.0498056 0.04789574 -0.32838812
-0.01503019 0.011077089 0.06419412 0.7744033 -0.36384416 -0.43644145 0.085601404 -0.123939164
0.5812166 0.34485474 -0.050081834 0.62450683 0.7660725 0.66250503 -0.5452274 -1.1653674
-0.9050747 0.18847154 -0.9691017 0.61789197 1.3079501 -1.7677069 0.9963246 0.06884925
0.02627411 -1.0923725 -2.0469306 -0.75195473 0.074122526 0.19476615 -2.0126286 -1.6235458
0.41875386 0.36753154 -0.15903535 0.6305927 0.68249965 0.6837098 -0.26335326 -0.030156594
-1.4843988 -0.18464793 0.5964011 -0.62913376 -0.030119058 0.53975314 0.46281725 0.16739522
0.5055943 0.027919745 -0.09344006 0.20014952 0.67717314 0.34197724 1.0419037 0.33079123
0.53181285 -0.517422 0.6431621 0.51698303 -0.24355176 0.3217657 0.05078676 -0.6583282
0.43939942 -1.290719 0.2846911 -0.513276 -1.2070415 -0.018729646 0.09910545 0.9008634
0.11215459 0.5552107 0.44876486 -0.5646768 -0.73062044 -0.9623732 -0.08525302 -0.18268771
-0.45893726 0.2412131 -0.13791403 -0.25218478 0.061628524 0.137984 0.54946524 0.41317996
-0.027566887 0.28472996 0.11160461 0.58506495 0.29189554 0.10658139 0.5267233 0.18655625
0.27026966 0.7413445 0.40945628 0.386137 0.33419374 0.28528622 -0.08804508 0.38051835
-0.30981058 0.44444028 0.13244514 0.45888042 0.17565536 0.6835924 -0.27794307 0.70616704
0.03272881 0.26601198 -0.20520252 -0.71593606 1.1203607 0.15740782 0.14562227 0.21784712
1.1719176 0.20357808 0.68662566 0.29122335 -0.2616407 -0.42245674 0.15125448 -0.8778544
0.18415503 -0.6992228 0.3904879 0.39569706 -1.427605 0.89457846 0.12429814 0.64483106
0.3038059 0.8250956 0.30546293 -0.31006196 -0.28154948 -0.19240035 0.87612385 -0.07474067
-0.09038689 0.64173293 0.06680419 0.18609549 0.72448045 -0.16730909 0.7863234 0.5198394
0.12797971 0.060252838 -0.11368106 -0.58798444 0.21405393 0.0069865673 -0.4945016 -0.26665422
00000000: 172b 02be cd44 44bc 3281 7bbe ef1f ef3e
00000010: a2d9 103d ccd0 77bd bd60 953e 04c7 3a3e
00000020: 03c7 c1be 0986 803f a4b8 c23e c6cc 0b3f
00000030: c648 0cbf ac16 3f3e 68fe 443c 49b0 bebd
00000040: 34e0 cdbe 2fdc c23e f6c5 95be 4401 b6be
00000050: a573 09bc 8e31 95be 9976 963e dee2 9f3e
00000060: 2d87 67be 94c3 45be 0649 173f 73ad 1d3f
00000070: 41ef 60bf 7e01 90be 6968 d03d f1e4 ddbf
00000080: 9821 6cbe bd7e efbe a11a abbd 000f bfbc
00000090: 9f12 b8bf ecc3 033f 309d 353d 17cb 7e3f
000000a0: cf10 173e 0f6b 28bd fed8 433f 6ed6 313f
000000b0: 5b15 553e 4650 89be d591 f23e 7de5 97bd
000000c0: cbb5 f33e 12d0 b9be ed36 ef3e e04c 063d
000000d0: 3305 da3d af14 4bbf 45c1 2f3f 2d69 e23c
000000e0: 6272 0cbe 5172 be3d a618 8cbd 97de f5bd
000000f0: ddc8 8ebe bb04 d3be 3fe0 a33d 1fe7 19be
00000100: a321 0e3d e358 983e 012f b33d 4cc0 a7bf
00000110: 8c35 e5bd 34b9 853f 3444 bcbe 9c7a 7c3e
00000120: a04e 593e d351 863e ddd7 633f 1be3 1a3f
00000130: 9f95 c53e feab fd3c 9882 bdbf fd09 2d3f
00000140: 90dd ed3e 9f3c 603f 3838 83be 4704 b6bf
00000150: 7a97 b03e 3ea5 81be ee94 343f 59e0 ebbc
00000160: 9a87 fb3e a68f 153f 7395 bdbf 4e37 203e
00000170: 9561 e3bc 0430 03c0 532e 443d 7d22 a8be
00000180: 3041 76bc ae7c 353c 3578 833d 4b3f 463f
00000190: c849 babe 4175 dfbe ca4f af3d d1d3 fdbd
000001a0: 9cca 143f cd90 b03e 9c22 4dbd aedf 1f3f
000001b0: 541d 443f ee99 293f 0694 0bbf c22a 95bf
000001c0: fab2 67bf affe 403e 0d17 78bf 2b2e 1e3f
000001d0: e96a a73f 3844 e2bf 210f 7f3f d600 8d3d
000001e0: cd3c d73c ddd2 8bbf e900 03c0 1b80 40bf
000001f0: 8dcd 973d c770 473e e8ce 00c0 59d0 cfbf
00000200: e866 d63e 182d bc3e 2ada 22be 866e 213f
00000210: 4cb8 2e3f 9b07 2f3f 3dd6 86be f60a f7bc
00000220: c800 bebf 5914 3dbe bead 183f e90e 21bf
00000230: 3ebc f6bc 432d 0a3f 62f6 ec3e a769 2b3e
00000240: a16e 013f f3b7 e43c 815d bfbd fff3 4c3e
00000250: 385b 2d3f a417 af3e 1a5d 853f 785d a93e
00000260: e324 083f c575 04bf 45a6 243f 0059 043f
00000270: a265 79be 79be a43e c705 503d 3288 28bf
00000280: f6f8 e03e 4836 a5bf 08c3 913e 0e66 03bf
00000290: 5680 9abf ea6e 99bc ccf7 ca3d fc9e 663f
000002a0: 4eb1 e53d 4a22 0e3f 82c4 e53e a98e 10bf
000002b0: f109 3bbf 175e 76bf 2399 aebd 7d12 3bbe
000002c0: d3f9 eabe 9100 773e 5639 0dbe 5d1e 81be
000002d0: 316e 7c3d ad4b 0d3e c1a9 0c3f 538c d33e
000002e0: f4d3 e1bc 20c8 913e f590 e43d d1c6 153f
000002f0: 5573 953e 5847 da3d 57d7 063f 9a08 3f3e
00000300: c960 8a3e c1c8 3d3f 41a4 d13e c0b3 c53e
00000310: 711b ab3e 0911 923e fb50 b4bd 4dd3 c23e
00000320: 7e9f 9ebe ad8d e33e b39f 073e 60f2 ea3e
00000330: 00df 333e e9ff 2e3f 8e4e 8ebe 5dc7 343f
00000340: a50e 063d b932 883e 9c20 52be 9647 37bf
00000350: fb67 8f3f 842f 213e 011e 153e 5113 5f3e
00000360: 6501 963f c676 503e b3c6 2f3f 3a1b 953e
00000370: c5f5 85be 404c d8be 74e2 1a3e 11bb 60bf
00000380: 2393 3c3e 4400 33bf 08ee c73e ce98 ca3e
00000390: c3bb b6bf 1803 653f 0690 fe3d a613 253f
000003a0: 728c 9b3e 7739 533f a365 9c3e 71c0 9ebe
000003b0: 4127 90be 9904 45be a749 603f a311 99bd
000003c0: c31c b9bd 9c48 243f a3d0 883d d18f 3e3e
000003d0: 8d77 393f 1353 2bbe 7e4c 493f 3214 053f
000003e0: 1d0d 033e aecb 763d 9ed1 e8bd 2686 16bf
000003f0: f430 5b3e 93ef e43b 502f fdbe e786 88be

fc2.bias f4 [64]
0.24612808 0.553417 -0.36746648 0.10277156 -0.050443035 -0.19074963 0.13912328 -0.122792356
-0.0037301406 0.075819455 -0.06285663 -0.07594212 -0.52908605 -0.10179705 -0.062465716 0.6078456
-0.20140205 0.38832623 -0.2724045 -0.031081956 -0.096456505 -0.045127034 -0.046424873 0.11660382
-0.31690192 -0.13034934 -0.46028957 -0.27493122 0.16326027 -0.28071332 0.09446905 0.63903505
-0.23962474 0.3871706 -0.32224092 -0.11663582 -0.045129336 0.15358455 -0.2322021 0.19608715
-0.23043737 0.06485988 0.16721515 0.28462613 -0.3485719 0.067046076 0.28318956 -0.021585185
-0.08817971 0.13287456 -0.36345482 0.06152603 0.67315894 0.44348383 -0.39014563 -0.15844192
0.07095466 -0.43304625 -0.11377539 0.02082867 -0.268487 -0.28233996 0.7972006 0.022022557
00000000: 0009 7c3e bdac 0d3f 9124 bcbe e579 d23d
00000010: 5b9d 4ebd df53 43be 5576 0e3e 8f7a fbbd
00000020: 6075 74bb 3b47 9b3d faba 80bd 8b87 9bbd
00000030: 2f72 07bf f97a d0bd 0ddc 7fbd c59b 1b3f
00000040: 573c 4ebe b2d2 c63e 9a78 8bbe 969f febc
00000050: fd8a c5bd 20d7 38bd 0228 3ebd fccd ee3d
00000060: f840 a2be 4c7a 05be 13ab ebbe c9c3 8cbe
00000070: b32d 273e a8b9 8fbe fd78 c13d cd97 233f
00000080: 3060 75be 3a3b c63e c3fc a4be c3de eebd
00000090: 8ad9 38bd 4545 1d3e 63c6 6dbe 12cb 483e
000000a0: c6f7 6bbe 42d5 843d 733a 2b3e 84ba 913e
000000b0: 0478 b2be 744f 893d 39fe 903e 6ad3 b0bc
000000c0: 9097 b4bd 4510 083e c016 babe b802 7c3d
000000d0: 2554 2c3f 5010 e33e 2bc1 c7be 993e 22be
000000e0: ad50 913d 3db8 ddbe 1203 e9bd e3a0 aa3c
000000f0: 2177 89be dd8e 90be 5715 4c3f a668 b43c

fc3.weight f4 [4, 64]
-0.7934804 -0.9683297 -0.82247657 -0.52542543 -0.35857552 -0.27532163 2.412038 -0.5334199
-0.07573736 -0.10438977 -0.45555696 0.093800604 -0.70067006 -0.588523 -0.07977971 1.7727971
-0.2263903 -1.4274399 -0.43763983 -0.3901707 -0.6191758 0.055631742 1.8148729 -1.4376816
-0.26563454 0.10071702 -0.4452472 -0.4379077 -0.79100525 -0.38975456 0.059130866 1.6163329
-0.3887444 0.20627096 -0.9631783 -0.09695648 0.013502212 -0.233481 -0.26237598 -0.6502764
-0.31953952 0.5439115 0.2705569 -0.27081427 0.17689785 -0.032703206 -1.0372217 -0.05557679
-0.4722403 -0.16212748 -0.78172296 -0.28220794 1.7193 0.63352394 -0.8514849 0.020224744
-0.7286529 -0.47921982 -0.45677298 -0.41909048 -0.36359808 -0.84365827 1.3359852 -0.4724098
-0.0003995532 -1.5346638 -0.40215486 -0.41018444 -0.49766317 -0.43301338 2.2068627 -0.48280165
0.13154583 -0.44458964 -0.4754324 0.0014075317 -0.53098834 -0.46447906 0.10674355 1.9433348
-0.2894234 -1.3386937 -0.27485117 -0.43517208 -0.30729297 0.10010564 2.1986437 -0.7840395
-0.5362893 0.070061505 -0.3171163 -0.23961072 -0.82258487 -0.50725526 -0.011228014 1.459496
-0.43705928 -0.2922662 -0.46019813 0.12477073 -0.100444466 -0.7946031 -0.35616255 -0.2290729
-0.4203843 0.7836238 0.28325883 -0.13060868 -0.48104733 -0.004085548 -0.9252125 -0.059597768
-0.39548287 -0.6114741 -0.45836547 -0.3042894 1.5673219 0.37171462 -0.5205525 -0.044895776
-0.6356623 -0.40354475 -0.0827642 -0.49849123 -0.4811436 -0.3710906 1.6335534 -0.411676
-0.8622221 -1.3254167 -0.73491347 -0.39242432 -0.2458764 -0.30403885 2.3928611 -0.57050174
0.07057095 0.61638784 -0.3164549 0.989537 -0.5846281 -0.548503 -0.05481183 1.7867991
-0.77450395 -1.2523543 -0.6431241 -0.5716577 -0.2754617 0.08172481 1.1995648 -0.23843455
-0.49142227 0.10866578 -0.9045693 -0.66994274 -0.41453078 -0.32093874 -0.05194122 1.8055824
-0.21530902 0.5866655 -0.43993652 -0.05058533 0.09649011 -0.66424644 -0.32376564 -0.24550001
-0.61498535 -1.4771707 -1.6669084 -0.069547385 -0.18200442 0.01272792 -1.2086903 -0.108399
-0.41997406 -0.84892994 -0.6473738 -0.54454505 1.5341073 -1.5487685 -0.548868 0.012620013
-0.43937948 -0.836662 -1.2281222 -0.34240526 -0.107426494 -0.6123574 1.4256333 -0.55442005
-0.6140809 -0.7773992 -0.1327428 -0.64008826 -0.36565432 -0.3380269 2.3277874 -0.58270097
0.0025668284 -0.05493616 -0.42102283 0.1976203 -0.4220202 -0.5640247 0.085378736 1.7441034
-0.48060733 -0.9501835 0.26876402 -0.52645284 -0.5853003 -0.08585587 2.077676 -1.2495722
-0.41394907 0.07801423 -0.17188418 -0.29838148 -0.36190614 -0.3910654 0.10358009 1.3175328
-0.17111708 0.23136297 -0.45026198 -0.07586983 0.046381082 -0.69537777 -0.39278385 -0.44052997
-0.39608854 -0.3028814 -0.07489177 -0.65101415 0.2971888 -0.11884415 -1.2447624 -0.019827588
-0.32221428 -0.7007268 -0.7572147 -0.43444604 1.7786044 1.2709489 -0.7176544 -0.008211141
-0.30471474 -0.81981575 -0.55318165 -0.51169 -0.30812877 -0.3622702 1.4180664 -0.40684533
00000000: 8821 4bbf 75e4 77bf d38d 52bf 4882 06bf
00000010: 3697 b7be f5f6 8cbe d55e 1a40 358e 08bf
00000020: 301c 9bbd 4eca d5bd c33e e9be 881a c03d
00000030: 1d5f 33bf 71a9 16bf 8b63 a3bd 04eb e23f
00000040: dcd2 67be 5ab6 b6bf 5412 e0be 74c4 c7be
00000050: 4e82 1ebf 1cde 633d c14d e83f f305 b8bf
00000060: 4001 88be ba44 ce3d 71f7 e3be 7035 e0be
00000070: 527f 4abf e98d c7be 3533 723d ffe3 ce3f
00000080: 8209 c7be b238 533e da92 76bf 1e91 c6bd
00000090: 6238 5d3c a515 6fbe 2556 86be 8478 26bf
000000a0: af9a a3be c93d 0b3f 6f86 8a3e 2ba8 8abe
000000b0: b624 353e ccf3 05bd aec3 84bf 7da4 63bd
000000c0: 7bc9 f1be bf04 26be ff1e 48bf 8f7d 90be
000000d0: 0612 dc3f a02e 223f eafa 59bf 5dae a53c
000000e0: ff88 3abf 4d5c f5be 26de e9be 0793 d6be
000000f0: 8729 babe fdf9 57bf 9001 ab3f b3df f1be
00000100: 1f7b d1b9 dd6f c4bf 3ee7 cdbe b203 d2be
00000110: b5cd febe eeb3 ddbe 3d3d 0d40 c731 f7be
00000120: f3b3 063e 41a1 e3be e06b f3be ed7c b83a
00000130: daee 07bf 33d0 edbe 5d9c da3d 32bf f83f
00000140: 4e2f 94be 515a abbf 4bb9 8cbe e0ce debe
00000150: 8155 9dbe 3004 cd3d 94b6 0c40 d0b6 48bf
00000160: 414a 09bf 687c 8f3d 115d a2be 835c 75be
00000170: ec94 52bf 7bdb 01bf b4f5 37bc c4d0 ba3f
00000180: 3cc6 dfbe eaa3 95be 179f ebbe cc87 ff3d
00000190: d4b5 cdbd 1c6b 4bbf f05a b6be 1692 6abe
000001a0: 9c3c d7be 929b 483f 4d07 913e 48be 05be
000001b0: d64b f6be 10e0 85bb bada 6cbf ca1c 74bd
000001c0: bb7c cabe 9189 1cbf e1ae eabe d2cb 9bbe
000001d0: 019e c83f 6151 be3e ee42 05bf a2e4 37bd
000001e0: c4ba 22bf 6b9d cebe 4780 a9bd 3e3a ffbe
000001f0: 7458 f6be 96ff bdbe 4718 d13f 32c7 d2be
00000200: 96ba 5cbf 41a7 a9bf 4a23 3cbf d7eb c8be
00000210: 06c7 7bbe fbaa 9bbe a324 1940 670c 12bf
00000220: 8187 903d 98cb 1d3f 6006 a2be 4c52 7d3f
00000230: 30aa 15bf b16a 0cbf 5f82 60bd d5b5 e43f
00000240: e445 46bf 254d a0bf c8a3 24bf 2958 12bf
00000250: 5109 8dbe 565f a73d 578b 993f 3028 74be
00000260: b39b fbbe 2a8c de3d db91 67bf 5e81 2bbf
00000270: 613d d4be 1552 a4be 51c0 54bd 531d e73f
00000280: f879 5cbe b62f 163f 5c3f e1be 9032 4fbd
00000290: 9b9c c53d 0e0c 2abf 9cc4 a5be 5b64 7bbe
000002a0: ae6f 1dbf ee13 bdbf 415d d5bf dc6e 8ebd
000002b0: 5e5f 3abe c488 503c 5db6 9abf 4b00 debd
000002c0: d706 d7be 7953 59bf 4aba 25bf 4e67 0bbf
000002d0: a15d c43f 0c3e c6bf 9d82 0cbf 2cc4 4e3c
000002e0: 59f6 e0be 7b2f 56bf 1c33 9dbf be4f afbe
000002f0: 6c02 dcbd 74c3 1cbf 277b b63f 79ee 0dbf
00000300: 6834 1dbf a203 47bf bbed 07be d3dc 23bf
00000310: 0b37 bbbe dd11 adbe 78fa 1440 e42b 15bf
00000320: 3c38 283b bd04 61bd 4e90 d7be fa5c 4a3e
00000330: 0813 d8be ec63 10bf 0cdb ae3d c83e df3f
00000340: 2a12 f6be 3a3f 73bf 709b 893e 9dc5 06bf
00000350: 3ed6 15bf 34d5 afbd a5f8 0440 fbf1 9fbf
00000360: 22f1 d3be edc5 9f3d 6802 30be 75c5 98be
00000370: c34b b9be b939 c8be cc21 d43d eaa4 a83f
00000380: 5139 2fbe 6aea 6c3e bd88 e6be a461 9bbd
00000390: 17fa 3d3d 4704 32bf f71a c9be 258d e1be
000003a0: 1ecc cabe 4513 9bbe db60 99bd dda8 26bf
000003b0: 2129 983e 9064 f3bd 6054 9fbf 776d a2bc
000003c0: 45f9 a4be d562 33bf d3d8 41bf b66f debe
000003d0: 4fa9 e33f 74ae a23f 33b8 37bf 0688 06bc
000003e0: 9203 9cbe 72df 51bf 509d 0dbf 1efe 02bf
000003f0: 0ec3 9dbe 7b7b b9be 3383 b53f 084e d0be

fc3.bias f4 [4]
0.37001982 0.12638675 0.39569247 0.17714722
00000000: 3d73 bd3e 876b 013e 3498 ca3e 1566 353e
