concepts/reinforcement-learning/blackbox-algorithms/checkpoint.pth (torch, 1905 bytes, 3 tensors)

fc1.weight f4 [16, 2]
-0.49251345 0.94885737 2.0717797 0.23260878 1.3203914 -3.0405488 -0.4223692 0.06774341
-2.2164645 -1.9687445 -0.5136095 2.2101233 1.0606837 0.031059688 0.7717703 -2.3758564
-0.23023325 -0.98663545 -0.17451802 0.115670785 -0.22100382 1.276914 0.27502745 -0.68436325
-0.054175474 0.4303376 1.8317747 0.31374642 2.4357893 -0.9675211 3.0215156 -2.3137858
00000000: b92a fcbe 51e8 723f 0a98 0440 ff30 6e3e
00000010: 9602 a93f 5a98 42c0 c740 d8be 0fbd 8a3d
00000020: 8eda 0dc0 d2ff fbbf ea7b 03bf a972 0d40
00000030: 7cc4 873f e370 fe3c bd92 453f 080e 18c0
00000040: 44c2 6bbe 2494 7cbf dab4 32be cee4 ec3d
00000050: d34e 62be eb71 a33f 66d0 8c3e 6e32 2fbf
00000060: 1ae7 5dbd 3655 dc3e 9877 ea3f 5fa3 a03e
00000070: f9e3 1b40 76af 77bf 8360 4140 1115 14c0

fc1.bias f4 [16]
-3.4297075 -2.4665978 -0.18350853 -1.6751155 -3.3407524 -3.309345 -0.9818984 -0.072356015
-2.3525288 -0.24341837 -0.6211328 -3.1181655 -1.6217524 -1.5626534 -0.51184505 -0.6352664
00000000: 5480 5bc0 bddc 1dc0 a9e9 3bbe 2f6a d6bf
00000010: e3ce 55c0 4fcc 53c0 b25d 7bbf 642f 94bd
00000020: d58f 16c0 aa42 79be 8f02 1fbf 0690 47c0
00000030: 9595 cfbf 0705 c8bf 4708 03bf d2a0 22bf

fc2.weight f4 [1, 16]
4.1075797 -0.23510712 0.019946367 -0.7011539 2.4506097 -1.3382443 -1.913554 -0.6543227
-2.8057232 0.02507611 0.22107951 1.2145658 -0.43291354 1.3343799 0.6360701 1.2610888
00000000: 4b71 8340 ecbf 70be 9066 a33c d27e 33bf
00000010: cad6 1c40 974b abbf 56ef f4bf b181 27bf
00000020: f890 33c0 6a6c cd3c ab62 623e e476 9b3f
00000030: d8a6 ddbe f6cc aa3f 7dd5 223f 5c6b a13f
