projects/malfunction-prediction-system/saved_weights/seq-length-specific-models/model_seq_len_180.pth (torch, 527448 bytes, 20 tensors)

input_projection.weight f4 [96, 38]
000000 2a 0b 23 3d ad d7 09 3d 91 d0 95 3d e7 85 c1 bd
       0.03980557 0.03365295 0.073151715 -0.09449368
000010 a4 59 a8 3d 29 1d a8 bd 89 3e 29 be 27 08 88 bd
       0.082202226 -0.08208687 -0.16527762 -0.0664218
000020 36 5b 2f bc bd 2d dc 3d 85 ad 37 bd 14 94 6e 3c
       -0.010702899 0.107509114 -0.044843215 0.014561672
000030 50 25 03 3d c5 a1 2c 3e e7 76 6a bd 60 a1 ce 3d
       0.032018006 0.16858585 -0.0572423 0.100893736
000040 a1 17 39 bd 79 ec ce bd f7 2a 33 3d f8 7b ab bc
       -0.04518855 -0.10103697 0.043742146 -0.020933136
000050 b4 73 e2 3d d2 36 4f bd d6 48 c0 3c 13 f0 83 3d
       0.11057225 -0.05058939 0.02347223 0.06442275
000060 a8 f7 f8 3d 72 c8 f4 bd b1 63 22 bc 39 d0 ed 3c
       0.12156612 -0.119522944 -0.009911464 0.029029952
000070 b4 49 0d be bb 38 f6 bd 01 2b 74 3c 7d f4 a8 3d
       -0.13797647 -0.12022539 0.014902831 0.082497574
000080 40 83 da bd 34 da 24 3e 0a 58 7a 3d 53 f5 7b bd
       -0.10669565 0.16098863 0.061119117 -0.061513256
000090 44 be cd 3c 22 8d c8 3c c2 91 e4 3d eb c0 8e bc
       0.02511514 0.02448136 0.111606136 -0.017425975
0000a0 fd a5 53 3e 21 4d a2 3c 2f 1f 99 bd 5c c6 51 3d
       0.20668788 0.019812169 -0.07476651 0.05121456
0000b0 a4 79 62 3d 84 16 db bc 62 2b 2a 3d 13 4f f3 bd
       0.055291787 -0.026744135 0.04154528 -0.118803166
0000c0 c4 52 f6 bd 42 57 e5 3d f1 fb 01 be 50 31 fd bc
       -0.12027505 0.11198284 -0.12693764 -0.030907303
0000d0 05 e0 53 bd 0e 0d 9c bc 3e c3 94 3d ca 3b 18 bb
       -0.051727314 -0.019049194 0.07263802 -0.0023228996
0000e0 8b e1 1a 3e 9d 75 15 3e ae f2 e3 3d dc 5e da bd
       0.151251 0.14595647 0.11130272 -0.10662624
0000f0 46 5d 7e bd 95 4e 9d 3c b2 f7 d4 3c ee ff 8a 3d
       -0.06210067 0.01920251 0.025997017 0.06787096
000100 30 65 2d 3d f5 79 ae 3d 16 35 d9 bd 73 45 1a 3e
       0.042332828 0.08519355 -0.106058285 0.15065555
000110 6b 09 b9 3d 9f f4 fb 3d 80 23 73 3d 8d 8d 33 3e
       0.090349995 0.12302517 0.059360027 0.17534466
000120 c6 ce 32 be 2a 7b 42 be 73 eb b5 bd d8 ac 1a bc
       -0.1746169 -0.18992296 -0.08882799 -0.009440623
000130 70 7a 1e 3e ed e9 3a 3e e3 1c a8 ba f6 5b 98 bc
       0.15476394 0.18253298 -0.0012825992 -0.018598538
000140 ef b1 34 bb 44 a8 9e 3d aa ca 00 3e 9f de 9f bd
       -0.0027571877 0.07746938 0.1257731 -0.078061335
000150 00 8c b9 bd 8f 58 0a be 91 a0 1e 3d 89 3c 02 3c
       -0.09059906 -0.13510345 0.038727347 0.007949003
000160 3e 6e 11 be dc 1d 22 3e df 9e b3 bd 88 1d 1a 3d
       -0.1420221 0.15831703 -0.08770537 0.03762582
000170 64 1e 39 bd 5e 45 15 bc e4 93 83 bd fa 77 e5 bc
       -0.045195 -0.009110777 -0.06424692 -0.02801131
000180 c4 fb 54 3d 9a 3a 08 3e 52 ef 56 bc 8d 6f c7 3c
       0.051997915 0.13303605 -0.013118582 0.024345184
000190 b0 b6 98 bd e0 d5 8a 3d 66 a3 d7 3d 58 97 dc 3d
       -0.0745672 0.06779075 0.10529213 0.10771054
0001a0 5d 38 c9 bc 37 82 30 3e 33 04 b9 bd 46 f0 23 3e
       -0.024563009 0.17237173 -0.09034004 0.16009626
0001b0 a1 a1 79 3d da 7c ef 3d d3 9b 9d bc e1 1a 14 be
       0.060945157 0.116937354 -0.019239342 -0.14463378
0001c0 c4 a2 05 be 5c de c8 3d e0 75 7c bd d0 61 f7 3d
       -0.13050371 0.09808037 -0.06163585 0.12079203
0001d0 fd 7c 14 3e 5f 87 3d 3e 1b 28 fb 3c 8f 9f a0 bd
       0.14500804 0.18508671 0.030658772 -0.078429334
0001e0 64 4f 6f bb ce b4 1c bd 44 b8 6f bd a0 e1 3f bc
       -0.0036515826 -0.038258366 -0.05852534 -0.011711508
0001f0 db cf 46 bd f4 5c 12 3d 2d 6b 29 be cb 5e c5 3d
       -0.04853807 0.03573318 -0.1654479 0.09637221
000200 be 23 26 bd f3 47 86 3d f7 28 36 bd 4d d2 9a bd
       -0.04056143 0.06556692 -0.04447266 -0.07559643
000210 b8 9c 20 3e 20 62 19 3d 43 39 c6 bc e2 33 21 3e
       0.15684783 0.037447095 -0.024197226 0.15742448
000220 cf 56 0e 3e f4 a0 d2 3b 9d 8f 00 3e 80 a2 14 3d
       0.13900302 0.0064278785 0.12554784 0.036287785
000230 af 61 0c be e1 6c 9c bd 37 72 28 be 45 25 4d bd
       -0.13709138 -0.076379545 -0.1644982 -0.05008437
000240 be 8a 90 3c 10 57 13 3d 63 04 52 3d 84 55 ef 3d
       0.017644282 0.0359717 0.051273715 0.11686233
000250 57 2e b5 bd a1 2a 7a bd 11 3d 1a be b5 a5 93 3c
       -0.08846729 -0.06107581 -0.15062357 0.018023351
000260 3b 4e c5 3d e4 f9 9d bd f0 95 00 3e e2 6e 34 be
       0.09634062 -0.077136785 0.12557197 -0.17620423
000270 ab 75 b1 bd ec e3 97 bd 2e e6 f0 bd 71 d9 2d be
       -0.086650215 -0.074165195 -0.11762653 -0.16977479
000280 2e 39 a5 3c 2c 72 38 bd 30 7f 69 3d 78 64 0c 3d
       0.020168867 -0.045030758 0.05700606 0.034275502
000290 80 1c 19 bb 68 28 be bd 88 ec 2d be 8e 61 25 bc
       -0.0023362935 -0.09285051 -0.16984761 -0.01009406
0002a0 38 e2 97 bd 34 c4 88 3c 49 85 23 3e eb 71 78 bd
       -0.07416195 0.01669512 0.15968813 -0.060655516
0002b0 15 05 36 3d 51 ff 4b 3d 34 7f ca bc d5 01 78 bd
       0.04443844 0.049804036 -0.024718858 -0.060548622
0002c0 a2 c7 10 be 8d e7 4d bc 9b 9b c1 bd 8f 80 93 3c
       -0.14138654 -0.012567413 -0.094535075 0.018005637
0002d0 b9 86 1c 3e 37 01 41 be 71 f8 e5 bb 51 11 ea bd
       0.15285768 -0.1884812 -0.007018142 -0.11429084
0002e0 99 5f a0 3d 11 cb a9 bc 2c 44 f7 bd 4f a3 4b 3d
       0.07830734 -0.020726712 -0.1207355 0.04971629
0002f0 71 b9 35 bd ee 20 03 3e cc 04 ff 3c 61 69 4e 3d
       -0.044366304 0.1280553 0.031130217 0.050393466
000300 b4 55 11 bd e2 82 8a bd 4f 44 2d 3e 90 52 8f 3c
       -0.035482123 -0.06763245 0.16920589 0.017495424
000310 41 a2 ae 3d 49 24 da 3d 93 c3 81 3d 48 f5 c8 bc
       0.08527041 0.10651452 0.06336131 -0.024531022
000320 84 d2 0e be fd a3 aa 3d 9c 1d 70 3e 7c 9f b1 3d
       -0.13947493 0.083320595 0.23448795 0.08672997
000330 44 90 20 3b 7c 71 be 3d 40 ea 16 be cb 39 7c 3d
       0.0024500052 0.09298989 -0.14737797 0.061578553
000340 b1 fe d5 3b 1a 14 d7 3d b3 17 98 bc 2e 0a 06 3d
       0.0065306057 0.10501881 -0.018565988 0.03272455
000350 fd 93 87 bd 10 c0 dd 3c 6d 4c 6d 3c 59 06 10 3e
       -0.066200234 0.027069122 0.014483553 0.14064921
000360 be e3 53 3d e3 6f 9c ba 63 e1 b6 3c fc 39 0a 3e
       0.051730864 -0.00119352 0.02232427 0.13498682
000370 fa de 4d 3c 2a e4 f4 bc 99 21 11 be 95 5c 24 3b
       0.012565369 -0.029893953 -0.14172973 0.0025079597
000380 28 33 e7 bc 38 cf 8a bd 9f 14 10 bc a4 cc ec 3c
       -0.028222635 -0.06777805 -0.008793979 0.028906174
000390 83 64 23 3d 8f 5c 8e bd eb bc e1 bd 48 ef b7 3d
       0.039890777 -0.06951248 -0.11022361 0.08981186
0003a0 e9 b0 c4 3d cb 5a 1c 3e 45 aa f8 bc 17 07 fb 3c
       0.096040554 0.1526901 -0.030354628 0.03064303
0003b0 22 54 13 3e 3a f0 9a 3d 45 9d 8b bc 99 bb e5 3d
       0.14387563 0.07565351 -0.017042765 0.11217422
0003c0 6a d9 5b 3e 47 65 85 3d 16 d9 c3 3b 17 d6 ce 3d
       0.21469656 0.06513458 0.0059768064 0.10099428
0003d0 7e 03 27 be e4 1a 2f 3e 2d 75 29 3d 31 36 95 bd
       -0.16309926 0.17100102 0.041371513 -0.07285727
0003e0 d9 7a c9 3d e4 08 1d be 86 2e 98 bb 1e cb e9 3a
       0.098378845 -0.15335423 -0.004644218 0.0017837023
0003f0 07 bf 07 3e bc 20 66 3d d9 c2 3a 3c 0e 1d 96 3c
       0.13256465 0.05618356 0.011398994 0.018324401

input_projection.bias f4 [96]
000000 dd d3 c6 3d 70 b1 c3 bc 7b eb 4c be b0 21 27 be
       0.097083785 -0.02388832 -0.20011704 -0.16321445
000010 be 28 30 3e 63 8b 52 3b 3a be 13 3e 35 a2 31 bd
       0.17203042 0.0032126538 0.14428034 -0.043367583
000020 6e 6f 5c bb 6e 9b 6c 3d aa 97 0a 3e 88 07 d9 3d
       -0.0033635753 0.057765417 0.13534418 0.105971396
000030 ea e1 ea bd 34 ed ce bd 9a 1d 62 3d 8b a5 98 bd
       -0.11468871 -0.10103837 0.05520401 -0.0745345
000040 0f 3b 13 bc 59 50 89 3d 58 fc 14 be 43 45 33 bc
       -0.008986249 0.06704778 -0.14549387 -0.010941806
000050 a2 bf 67 bd 42 99 b2 3d e6 13 f1 bc 01 79 73 3a
       -0.05657924 0.08720638 -0.029428434 0.00092877453
000060 6e c2 53 bd 53 ed 37 3c c9 60 22 be 1b 4a 30 be
       -0.051699094 0.011226016 -0.15857233 -0.17215769
000070 fc 97 81 3d 66 e0 40 be 74 47 14 be 2e 14 ff bc
       0.06327817 -0.18835601 -0.14480382 -0.031137552
000080 0d 5a 19 bd 12 fe 49 3c ee e1 88 3c ce f5 86 bd
       -0.037439395 0.0123286415 0.016709294 -0.06589852
000090 4c 2f b0 3d ec 5a 07 be f2 93 d6 bd 3f c7 02 bd
       0.08602771 -0.13218278 -0.10477437 -0.031928297
0000a0 20 8b fa bd c5 2e a1 3d 95 70 14 3e 47 56 87 3d
       -0.12233567 0.07870249 0.14496072 0.06608253
0000b0 49 61 7f bd 20 75 81 3c 0b ba c1 3a 16 31 b6 3b
       -0.062348638 0.01580292 0.0014780177 0.0055600507
0000c0 45 25 ed bd 15 7c 21 be 47 cb b6 3c 80 3f c5 ba
       -0.11579374 -0.1576999 0.022313727 -0.0015048832
0000d0 ca 21 b1 3c e6 89 b8 bd 6c 5c db bd d2 57 92 bd
       0.021622557 -0.09010677 -0.107109874 -0.07145657
0000e0 6d ee f0 3d c1 d7 d4 3c 10 9d a5 3c d9 8c 0f bd
       0.11764226 0.025981786 0.020216495 -0.035046432
0000f0 62 b3 84 bd d4 a5 a1 bd 44 bd d4 bd c0 0c 6c 3b
       -0.06479527 -0.07892957 -0.10387662 0.0036018342
000100 85 b4 5a bc 8d 4d cb bc a5 a2 48 bd 74 d9 bd bd
       -0.013348703 -0.024817253 -0.048983235 -0.092699915
000110 fe 47 64 3c c9 c0 ec 3d c9 e5 16 3e d9 5c 89 bd
       0.01393318 0.11560208 0.14736094 -0.067071624
000120 2e b0 95 3d e6 78 1a be 0e 54 05 3e a1 2a a4 bd
       0.07308994 -0.15085182 0.13020346 -0.08015943
000130 90 28 85 bd bf b0 54 bd b9 bb 01 be c7 9e ab bc
       -0.06501877 -0.05192637 -0.12669267 -0.020949734
000140 76 63 52 3e 4d b3 91 3c 3f a6 62 3c 39 d4 e1 3d
       0.20545754 0.017785693 0.0138335815 0.110268064
000150 97 8b 9f bd b5 1d 65 3c f5 ff 1a bc 18 5b 15 3d
       -0.077902965 0.0139841335 -0.009460439 0.036463827
000160 83 06 82 bd 9d e5 9a bd 60 21 af 3d e7 a8 6a 3d
       -0.06348898 -0.075633265 0.08551288 0.057289984
000170 f3 93 28 bc 66 cb 37 3e 43 70 21 3e dd a5 fc 3c
       -0.01028918 0.17948684 0.1576548 0.030840809

transformer_encoder.layers.0.self_attn.in_proj_weight f4 [288, 96]
000000 f4 65 99 bd f0 3b 20 be ca 11 36 bc fa fe 0c bd
       -0.07490149 -0.15647864 -0.01111264 -0.034422852
000010 15 96 df bd 66 15 9e 3c ea bf 68 3e 62 2b 1f 3d
       -0.10917298 0.019297313 0.2272946 0.038859732
000020 08 c4 6f 3d 1e 86 1a 3c 13 1c 09 bd 3c 23 1d 3d
       0.05853656 0.00943139 -0.03347404 0.03836368
000030 3c e8 e5 bc bf af 1e 3e 65 03 5e bb d3 68 c8 3d
       -0.02806484 0.1549673 -0.0033876535 0.09785619
000040 08 fe ad 3c ed 4b 01 be 8a 55 42 3d 04 5b 10 be
       0.021239296 -0.1262662 0.047444858 -0.1409722
000050 74 5d f8 3d d7 05 9c 3d f7 a2 8d bc 10 5e e5 bc
       0.121272 0.07618301 -0.017289622 -0.027998954
000060 98 09 d6 3d f2 75 85 bd 14 bb 43 3d e7 57 36 be
       0.104510486 -0.06516637 0.047785833 -0.1780697
000070 52 0c 42 3e 6b 52 28 bc 52 1e dc bd ab 61 41 3d
       0.18950012 -0.010273556 -0.10747971 0.047212284
000080 a3 68 1b be d2 00 be 3d 43 32 02 bd dc fc b0 3d
       -0.15176634 0.092775 -0.031786215 0.08641979
000090 3b 4c 63 3a fe 01 9a bd 12 46 4e 3d c4 9b c4 bd
       0.0008670722 -0.07519911 0.050359793 -0.096000224
0000a0 80 be fe bd 90 b1 b4 3d 75 7c fd bc b0 7c cf 3c
       -0.12438679 0.0882293 -0.030943135 0.02532801
0000b0 e7 2b d0 3d 08 60 fa 3c b8 42 06 3e db d9 3e 3e
       0.10164624 0.03056337 0.13111389 0.18637793
0000c0 25 2c a2 3d cf d4 3c 3e 8f da da bd 37 04 7d 3b
       0.07918576 0.18440555 -0.10686218 0.0038607249
0000d0 80 b2 2b 3d 55 bf a6 3d ea 62 51 3d 76 ad 7c 3c
       0.041918278 0.081419624 0.051119722 0.015422216
0000e0 28 42 99 3d 28 ec ec 3d 63 23 aa bd f5 a3 cd 3c
       0.074833214 0.11568481 -0.08307531 0.025102595
0000f0 b5 b5 11 bd 94 96 0d bd d5 aa 0c bd 39 89 f3 3d
       -0.03557368 -0.03456743 -0.034342606 0.118914075
000100 f8 66 e4 bd ba f2 c5 bc 39 3e df 3d 0d e0 f7 3d
       -0.11152452 -0.024163593 0.1090054 0.12103281
000110 bf e5 89 3d 04 33 b1 bd 11 fc e8 3d fd e0 a9 3c
       0.06733274 -0.086523086 0.11376203 0.020737166
000120 39 5f 13 be 68 3c d2 bc 0f ac 8d bd b0 36 4d 3d
       -0.14391793 -0.02566357 -0.06917583 0.050100982
000130 2b 97 02 3c 07 89 b3 bd f5 bb d6 3d f6 af d9 bd
       0.007970612 -0.0876637 0.10485069 -0.10629265
000140 fd e9 80 3b 3c 87 85 bd e6 5f 4d bd 04 31 eb 3d
       0.0039341436 -0.065199345 -0.050140284 0.11483958
000150 8d 58 1f 3d 5e 23 1f bd d1 c1 2e be ae 49 41 3d
       0.038902808 -0.03885209 -0.17066123 0.047189407
000160 57 fa 3f 3d 48 b3 c0 3c 75 5a 4c bd d4 09 c4 3d
       0.046869602 0.023522988 -0.049890954 0.09572187
000170 1a d9 9e 3c 76 0c 9a 3c c3 b1 87 3c 96 b8 dc bd
       0.019390631 0.01880477 0.016564256 -0.107773945
000180 c9 46 06 bd 88 ed 6b bd 71 56 e2 3c f3 10 e8 3c
       -0.03278235 -0.057599574 0.02762911 0.028328395
000190 31 21 22 3e ee 40 4b be 35 7f 10 bd 01 6f e4 3c
       0.15832974 -0.19848987 -0.035277564 0.027884962
0001a0 87 5a 3b be 5d 53 3e be 16 6c 36 3e 7a 62 3e 3c
       -0.18296252 -0.18586488 0.17814669 0.011620158
0001b0 72 2d 15 be 61 4c 1a 3d 86 85 bf 3d 6b 4d 30 be
       -0.14568117 0.037670497 0.093516394 -0.17217033
0001c0 3f 29 af 3a aa f6 ec 3d 12 ed f0 bc 9a ab f9 3d
       0.0013363733 0.11570485 -0.029409919 0.121909335
0001d0 6c 96 04 be e9 b4 81 3d b7 59 d9 3c cb 81 20 3e
       -0.12948006 0.06333334 0.026532037 0.15674512
0001e0 3a b4 f7 3d c5 0d 14 bd 18 a7 6c bc d4 8b e7 3d
       0.12094922 -0.036145944 -0.014444135 0.11305967
0001f0 f3 fe 6e be 6c 18 3d 3d 92 72 66 3d 02 ce 49 be
       -0.23339443 0.04616587 0.056261607 -0.19707492
000200 59 72 10 3d 90 1d 03 3c 51 5a d9 3d e6 c4 87 bd
       0.0352653 0.008002654 0.106129296 -0.06629352
000210 79 c3 a9 bc 07 0e be 3c 06 39 ce bc ea c7 1e bd
       -0.020723091 0.023200048 -0.025173675 -0.03876487
000220 14 b6 30 3e 5f 55 7d bd 1e fb 1c 3e 66 56 8b 3c
       0.17256957 -0.061848994 0.15330169 0.017008971
000230 ed f6 c4 3d f5 0a 4b bd af 28 ef bd d1 a3 10 be
       0.0961741 -0.049570996 -0.11677682 -0.14124991
000240 13 a7 a4 bd 24 19 e1 bd 72 e3 18 3e 0d ac 1d 3d
       -0.080396794 -0.10991123 0.14930514 0.03849416
000250 70 7b cb bd 7d 91 c4 bc e5 5a af 3d cc b2 85 3c
       -0.09935653 -0.023995155 0.08562259 0.016320609
000260 1d f2 0a 3d 68 aa cf bb da 70 37 bd 00 73 cc 3d
       0.033922303 -0.0063374527 -0.044785358 0.09982872
000270 f7 3b 21 3d e0 e2 13 3d 34 50 e9 3d 84 a6 7b bd
       0.039363828 0.036105037 0.11392251 -0.0614381
000280 c4 d7 21 3e f9 b6 df bd 13 ac 0d be 64 e6 a9 3c
       0.15804964 -0.10923571 -0.13835172 0.020739742
000290 01 86 0d 3e b5 41 08 bd 48 9c a5 bd 67 9d e9 3d
       0.1382065 -0.033265788 -0.08086449 0.11406975
0002a0 17 c4 0b 3b b2 64 7e bd 02 21 12 3e f1 eb 05 bd
       0.0021326595 -0.06210775 0.14270404 -0.032695714
0002b0 af b6 d7 3d 50 d2 df bc 5d cc 10 3d ca b2 0c 3d
       0.10532891 -0.027321965 0.035351146 0.034350194
0002c0 73 6d 24 3e f4 62 e3 3d bf 34 fd 3c d3 49 77 bd
       0.16057377 0.11102858 0.03090894 -0.06037314
0002d0 f1 06 33 be 0c cb 42 bd 07 4b 51 3e 79 20 a1 bc
       -0.17483117 -0.04755692 0.20438777 -0.019668804
0002e0 8f a6 17 be 95 46 0a 3d ef 67 a6 3d eb c5 5c bd
       -0.14809631 0.03375872 0.081252925 -0.053899687
0002f0 cb b9 f0 3c d3 29 3e 3d 45 3c e3 3c 5f e8 82 3d
       0.029385468 0.046426605 0.0277387 0.063919775
000300 b9 91 ee 3c b8 1e ac 3c 07 5a 77 bd 19 84 d5 3c
       0.02912222 0.021010742 -0.06038859 0.026063966
000310 9a 03 89 bd b2 b2 ca 3d aa f5 6e 3c 86 3e 17 be
       -0.0669014 0.09897365 0.014584938 -0.14769945
000320 78 c6 40 3e d9 69 d5 bc 18 b2 b3 bd 7c 5f 86 3c
       0.1882571 -0.026051449 -0.08774203 0.016402952
000330 a9 8e 29 3e 5d f3 27 3d 28 36 d7 bc 2e ac 27 3e
       0.16558327 0.041003574 -0.02627094 0.16374275
000340 27 54 bb 3d 86 ad 00 3e 50 75 1b bd 03 4b d7 bc
       0.0914691 0.12566194 -0.037953675 -0.026280886
000350 0c b9 00 3d 8d 55 89 bc 6e 16 ba bd ee a8 76 bc
       0.031426474 -0.016764427 -0.090863094 -0.015054924
000360 ab 6f bf 3d 68 fd 21 bc f4 fd a5 3c be e8 0e be
       0.09347471 -0.009887077 0.020262696 -0.13955972
000370 09 1f 8f 3d 42 bf a4 3d 75 98 a7 3d db 18 02 3e
       0.06988341 0.08044292 0.08183376 0.12704794
000380 0d b1 03 be bd 0b 6c 3d d1 68 b1 bd 3e 87 7e bd
       -0.12860508 0.057628382 -0.0866257 -0.062140696
000390 61 7e 6d bd cf 2b 57 bd 32 51 5c bc 1b da e6 3d
       -0.057981852 -0.052532014 -0.013447093 0.11272069
0003a0 97 6e 11 be 48 3a 6b bd a0 8b e6 bc b6 63 fb 3d
       -0.14202343 -0.05742863 -0.02814275 0.12274878
0003b0 4f b4 7f 3d 8c 52 30 3d 0c ed 82 3d 90 22 09 3e
       0.062427815 0.043047473 0.06392869 0.13392091
0003c0 c2 e7 82 bd 8b aa ba 3d 02 1e 90 3d 87 b7 03 3e
       -0.063918605 0.0911456 0.070369735 0.12862979
0003d0 29 10 b1 3d 4c 20 56 3d 93 25 54 bd 38 14 40 3c
       0.086456604 0.052276894 -0.051793646 0.0117235705
0003e0 c9 8f 62 3b 50 73 3c bd b0 17 7d 3d 2c bb 72 3c
       0.0034570566 -0.046008408 0.06179017 0.014815133
0003f0 6d 03 43 be 9d 7a a2 bc 9c 96 ee 3c 77 1f e5 bd
       -0.19044276 -0.019833857 0.02912455 -0.11187642

transformer_encoder.layers.0.self_attn.in_proj_bias f4 [288]
000000 db 54 ae 3c ab a8 00 3b 68 4c 94 bb 1f b2 6b 3c
       0.021280697 0.0019631784 -0.00452571 0.014385729
000010 b0 80 1c 3c ea 00 73 3c a4 f0 75 bc ca cf 1a bb
       0.009552166 0.014831761 -0.0150109865 -0.0023622387
000020 8a d8 72 bc 98 62 12 bc ce a9 98 3c d3 9e 98 3b
       -0.014822135 -0.008934639 0.018635657 0.004657605
000030 ca 18 9f bc 4e 79 0e bc 3a 48 b3 3b f0 90 9f bc
       -0.019421 -0.0086959135 0.0054712566 -0.019478291
000040 26 42 92 bc 51 08 1d bd c8 31 bd bb a0 58 70 3c
       -0.017853808 -0.03833801 -0.0057737567 0.014669567
000050 47 a2 ca 3c 31 ed f9 3b 36 24 53 bc 44 4b ee bc
       0.024735583 0.0076271524 -0.012887051 -0.029088624
000060 70 af 38 3d ca f8 14 bd f1 77 b3 3c 85 fd 1e 3c
       0.045089185 -0.036370076 0.021907778 0.009703998
000070 27 9c 09 3c 41 e0 c3 bc 09 33 0e bd 0b a3 c0 3c
       0.008399046 -0.023910644 -0.03471664 0.023515245
000080 0a 43 04 bc 2a 7b 8b bc 8b 8d c6 bc a8 29 9e bc
       -0.008072624 -0.017026503 -0.024237415 -0.019306973
000090 21 72 b4 3c 6b bc 40 3c b9 9d 5f 3d 6e 9a 62 bb
       0.022027077 0.011763672 0.054593775 -0.003457691
0000a0 05 96 1d bc 56 2d f3 3c 70 b0 c0 3c e3 4c 2b 3d
       -0.009618287 0.029684704 0.023521632 0.04182137
0000b0 af 74 89 bc 41 3e 86 3c 33 52 8a 3c 7c 63 df bb
       -0.016779272 0.016387107 0.016884899 -0.0068172794
0000c0 a0 b8 b7 3c fb 52 55 3d 14 bf f9 bc 58 92 51 bd
       0.022426903 0.05208109 -0.030486621 -0.051164955
0000d0 e1 77 e9 bc 7e 56 08 bd e9 ee 15 bc e3 89 2f bc
       -0.028499546 -0.03328561 -0.009151199 -0.010714027
0000e0 77 b1 a0 bc 0c 17 d7 3c 60 a8 80 3b ad 68 ba 3c
       -0.019615872 0.026256107 0.003926322 0.022754991
0000f0 ca af 14 3d 6f 6a e8 ba f2 27 a1 bb 48 7a 2d bd
       0.036300458 -0.0017731915 -0.004918092 -0.042352945
000100 17 90 84 bc 9a dd 00 3d 53 77 7e 3d 3f e8 9a bc
       -0.016181989 0.031461336 0.062125515 -0.018909572
000110 c5 2c 99 3c 73 56 53 bd 7d d5 44 bc 26 2f a6 3c
       0.018698106 -0.051596116 -0.01201379 0.020286154
000120 68 fe 57 bd 2d ed 1c 3d d1 45 10 3d 29 e9 89 3c
       -0.052732855 0.038312126 0.035222832 0.016834812
000130 e1 19 f8 bd d3 bb ef bc 41 2e 03 3d e3 0c 3c 3d
       -0.12114311 -0.029264366 0.032026533 0.045910727
000140 3c 7b 2d bd 46 b1 0a bd 0d 7f 5d 3c f7 a3 10 3d
       -0.042353854 -0.033860467 0.013519061 0.03531262
000150 39 77 b3 3c 44 6f eb 3c 4d 58 ea bc 50 fa 2d bc
       0.021907436 0.028739579 -0.028606558 -0.010618761
000160 c6 0d ca 3c 2e 5b 56 3b 5d 3a a2 bc 5e ca b1 bc
       0.02466477 0.0032708156 -0.01980322 -0.021702942
000170 15 5b 35 3d ec 8d 13 3d 1e 07 5d bc 44 af 17 3d
       0.044276316 0.03602402 -0.013490466 0.03703238
000180 ba 7f 8e bc a1 71 9f 3c 52 93 b4 3a 89 26 02 bb
       -0.01739489 0.019463362 0.0013776815 -0.0019859395
000190 72 e1 5f 3c 09 c9 f7 bb ce 7d 6f 3c 51 99 0f bd
       0.01366459 -0.007561807 0.0146173965 -0.035058323
0001a0 39 b2 ae 3c 8b 39 4c 3c 29 c4 9d 3b b9 3c 56 3c
       0.021325218 0.012464891 0.004814644 0.013076001
0001b0 36 a0 9c bc fd 07 69 3b 10 0d a9 bc 15 20 88 bc
       -0.019119363 0.003555774 -0.020636111 -0.01661686
0001c0 f2 be 9f bb ef 2b fd 3b 2b 0f 5e 3c 3b 28 67 3b
       -0.0048750574 0.0077261846 0.013553421 0.0035271782
0001d0 83 e8 8c bc 95 ff fe bc 10 10 12 bb f7 a8 bb bb
       -0.017200714 -0.03112773 -0.0022287406 -0.0057269293
0001e0 69 65 91 3c 79 ea 83 bc 11 a5 74 3d 19 f4 7a bd
       0.017748551 -0.016103016 0.059727732 -0.061267946
0001f0 52 09 29 bd f5 77 1c bd 76 71 a6 bd 81 ad 10 3d
       -0.041268654 -0.038200337 -0.0812711 0.035321716
000200 81 6f e3 bc d5 09 ed bc 39 5e 89 bd 5f f3 1a bd
       -0.02776313 -0.028935352 -0.06707425 -0.037829753
000210 07 12 0d 3d 17 11 0f 3d 6d 79 2e 3d d2 da 45 bd
       0.03444102 0.034928408 0.04259627 -0.048304386
000220 b7 98 12 bd 07 3d e9 3b 5a db 16 3d dd cf 7a 3d
       -0.03579017 0.0071178707 0.036830284 0.06123339
000230 60 7b 25 3d d3 f6 33 3d e3 2b 1c 3d ea 7e 0f bc
       0.040400863 0.04393656 0.03812779 -0.008758286
000240 91 c3 a9 3b fe 1b 44 3d cb ca 22 bd 02 f1 8b bd
       0.005180784 0.047878258 -0.03974418 -0.06833078
000250 e6 91 8d 3d df 1a 7b bd a0 71 0f bd 8c eb 4c 3d
       0.069125935 -0.061304923 -0.03502047 0.050029323
000260 df 24 88 bc d5 7a 2e 3d 7c 58 f1 bb 1a 8e 37 3d
       -0.016619144 0.04259761 -0.0073652845 0.044813253
000270 fd 53 fb 3c 05 fe 8f 3d 1d ff 1a bd 9a 0a 70 3d
       0.030679697 0.07030872 -0.03784095 0.05860386
000280 f4 d8 75 3d 77 71 27 3d bf 81 3a 3d 0a 46 2a bd
       0.060021356 0.040879693 0.04553389 -0.0415707
000290 71 e7 55 3c 45 c8 63 bd 7f b3 1b bc 11 95 56 bd
       0.013055668 -0.055610914 -0.009503244 -0.052388255
0002a0 a4 97 68 bd 5a 7e 9c 3c 13 f6 24 3d f0 c2 8e 3c
       -0.05678524 0.019103218 0.040273737 0.017426938
0002b0 76 cf fc bb d2 bf 41 3d 99 a6 80 3d 74 1b 2b 3d
       -0.007715161 0.047302075 0.06281776 0.04177423
0002c0 08 79 52 bd 00 d0 03 bd ee a2 4a bd e3 c0 c0 3c
       -0.051384956 -0.032180786 -0.049471788 0.023529476
0002d0 db f6 00 3d 59 0a 3a 3c 8a 4d 85 bd ab fd 79 3b
       0.03148542 0.011355006 -0.0650893 0.0038145583
0002e0 1f 55 da bc 90 29 66 bc 3c e9 3c bc d0 2f c8 bb
       -0.026651917 -0.014047995 -0.011530217 -0.0061092153
0002f0 88 ea a1 3c 0c 4b 14 3d f5 18 fe bc c8 bc 11 3d
       0.019765154 0.036204383 -0.03101776 0.035580426
000300 91 a9 57 bd 05 ca 91 3d 1e 57 ae 3c 79 a1 1a 3d
       -0.052651946 0.0711861 0.021281775 0.03775165
000310 d8 8a f5 3c 39 50 8f 3d 73 32 20 bd a5 f5 23 bb
       0.029973432 0.06997723 -0.039110612 -0.0025018242
000320 23 5c 69 3d fa 50 40 3c 31 17 20 3d f6 ae 3b bd
       0.056972634 0.011738056 0.039084617 -0.045821153
000330 0e 39 8c 3d f5 82 96 bc 7c 65 dc bc 9d 56 93 bd
       0.0684682 -0.018372992 -0.02690386 -0.071942545
000340 eb 82 30 bc b2 e0 e4 3c de 6a 81 bd 9e 82 e9 bc
       -0.010773401 0.027939174 -0.063192114 -0.028504666
000350 d9 81 7a bd cd 80 a4 3c bc e3 43 bd b2 8d 88 3d
       -0.06115899 0.020080948 -0.047824606 0.06667651
000360 72 21 e5 bc 1e e6 b5 bd e9 2d 19 bd 6b ee 0f bd
       -0.02797005 -0.08881782 -0.0373973 -0.035139482
000370 12 63 c5 3a ec a2 84 3d 13 8a 9f 3c 64 5c ae 3d
       0.0015059432 0.064763874 0.019475019 0.08513716
000380 ee 0b c4 bd 8d 37 ac 3d 37 cd d5 bc ff bb 1e 3c
       -0.09572588 0.08409033 -0.02609883 0.009688376
000390 fa a2 98 3d a3 96 b8 3c 9c 2c d4 bd 96 af 85 bd
       0.0745296 0.022532767 -0.10360071 -0.06527631
0003a0 c8 03 98 bd bd f9 b4 bd 12 b4 41 bd a3 64 99 3d
       -0.07422596 -0.08836696 -0.04729087 0.07489898
0003b0 6e a9 3c bb d1 58 1d bd a5 ce 93 3d 11 4c 8a bd
       -0.0028787511 -0.03841478 0.07217149 -0.0675279
0003c0 77 cf b0 3b 6f 72 a4 3d 7c 4f e9 3c 48 e3 ef 3c
       0.0053958255 0.08029639 0.028480284 0.02928318
0003d0 31 d7 99 bc bb 15 83 3a 7b fa 52 3d e8 6b d0 3b
       -0.01877937 0.0010000983 0.051508408 0.0063605197
0003e0 26 31 9a 3d a0 c8 89 bd c3 0b 80 3d b0 4f a9 ba
       0.075289056 -0.06727719 0.06252243 -0.0012917425
0003f0 d7 ad 4d 3d 02 c1 70 bd 3e 63 46 bd 74 42 8f 3d
       0.050214615 -0.058777817 -0.04843449 0.06995097

transformer_encoder.layers.0.self_attn.out_proj.weight f4 [96, 96]
000000 ec ae 80 3d e9 63 57 3c 7c fd c2 bd bc 2e 11 3d
       0.06283364 0.013146379 -0.095210046 0.03544496
000010 11 c1 83 3c 3a cc a7 3d 75 ad b9 bd 2b d7 73 3d
       0.016083272 0.0819325 -0.090662874 0.059531372
000020 12 83 12 bd 05 81 ab bc a9 5e 3a bd 8c 19 8a 3d
       -0.03576953 -0.020935545 -0.04550043 0.06743154
000030 d2 da 25 bc 5d 80 96 bd 7a ed 62 3c 56 d0 05 3e
       -0.010122972 -0.07348702 0.013850564 0.13067755
000040 f5 f8 e9 bb 71 5b 72 3d 8b ea 94 3d 65 41 e0 bd
       -0.0071402737 0.059169237 0.07271298 -0.10949973
000050 06 ca 4c 3d 53 7a 08 be 6c 7a 52 bd 84 8d d5 3d
       0.049997352 -0.13327913 -0.05138628 0.104273826
000060 30 4b bd bd fa fc d7 3d 02 87 2a 3c 88 bc 48 3d
       -0.092428565 0.10546298 0.010408165 0.049007922
000070 e7 27 10 3d e6 09 15 3c 2f 81 64 3d 16 71 af 3c
       0.035194304 0.009096598 0.05578726 0.021416228
000080 3c f6 32 3c c3 f2 e3 bc 71 79 08 3e 82 5e 3e bd
       0.010922965 -0.027825719 0.13327576 -0.04647685
000090 7f b6 91 bd a1 e0 20 3b d0 c5 a1 3d 26 3c a0 bd
       -0.071148865 0.0024547952 0.07899058 -0.078239724
0000a0 a8 78 42 bd 21 9e 09 3e f0 6a ba b8 6c 8b e4 bd
       -0.047478348 0.13439228 -8.88909e-05 -0.11159405
0000b0 5c 71 10 be 5d 28 d9 bc f7 19 6d bd 82 1e 48 3d
       -0.14105743 -0.026508505 -0.05788609 0.04885722
0000c0 ed 63 d7 bb e7 4f 4a 3d 75 01 10 3e 73 05 f5 bd
       -0.0065731914 0.049392607 0.14063056 -0.1196393
0000d0 5e 5d 1b be 77 d6 03 be 9c 29 aa 3d d4 2a fb bc
       -0.15172336 -0.1287478 0.083087176 -0.03066007
0000e0 f8 4f 32 bd 6e 92 bd 3c 57 03 48 3d 4e 1e a2 bd
       -0.043533295 0.023141112 0.04883131 -0.079159364
0000f0 d2 d6 1f be d9 63 d4 bd 0c 15 a1 bd d3 ca 15 3d
       -0.15609291 -0.10370607 -0.078653425 0.03657038
000100 b7 f1 1e 3d 00 0a 00 3d b5 71 23 bd 3c fc 18 be
       0.038804736 0.031259537 -0.03990336 -0.1493997
000110 a5 23 8a bc 38 c1 14 3e d4 57 93 bc 3e ea 1b bd
       -0.0168627 0.14526832 -0.017986216 -0.038065188
000120 06 e8 b5 bc be a9 bc bd 9b bb de 3c 67 2b 37 3d
       -0.022205364 -0.09212063 0.027189067 0.044719126
000130 78 62 e1 bd ea 84 50 bd f0 ce 9a bc 09 82 15 3c
       -0.110051095 -0.050908007 -0.018897504 0.009125241
000140 0f 59 2f 3e 64 c7 c7 bd d8 24 b6 3c c5 8d 4e bd
       0.17123817 -0.097548276 0.022234365 -0.05042817
000150 42 39 f2 3d a0 0d 80 bd 62 25 dd 3c db 45 a1 3d
       0.11827327 -0.06252599 0.026995365 0.07874652
000160 fa de ef 3c ec 18 aa bc 0a 47 16 be ce de 33 3d
       0.029281128 -0.020763837 -0.14675537 0.043913655
000170 02 60 c1 3b 3b ef 1f bd 2c 60 f9 bd 8c c8 98 bd
       0.0059013376 -0.039046507 -0.121765465 -0.07460126
000180 7b 38 95 3c 52 13 69 39 82 a9 1b be b2 cd 07 3d
       0.018215409 0.00022227809 -0.15201381 0.03315515
000190 0d b0 12 bc 95 19 dd 3c 31 d4 44 3d ea fb 94 bc
       -0.008953107 0.026989738 0.048053924 -0.018186528
0001a0 0e df 69 3d 89 6c 8d 3d 8f fe 1c 3d da 51 45 ba
       0.057097487 0.06905467 0.038328703 -0.00075271504
0001b0 fa c0 0e bc 77 2c dd 3d d3 26 02 3e d7 47 d5 3d
       -0.008713001 0.107994966 0.12710123 0.10414093
0001c0 4b e9 8f bb 52 1b 39 bc fd a4 5f 3d 32 c5 ec 3c
       -0.0043918244 -0.011298018 0.054600704 0.028902624
0001d0 b9 a8 65 bc 7c 8e 13 be 37 51 e9 3b 20 1a 65 3d
       -0.014017277 -0.14409822 0.0071202773 0.055933118
0001e0 c6 a4 d3 bb e8 ed 9a 3d 64 f3 92 bb 67 5f ee 3c
       -0.0064588515 0.07564908 -0.004484581 0.029098226
0001f0 b5 52 98 3d 43 29 83 bc 61 4a bf 3b 78 e5 be bd
       0.0743765 -0.016010886 0.005837724 -0.093211114
000200 b1 fc ec 3b 16 31 6f 3d 91 ed a5 3d d2 51 3a bc
       0.0072322716 0.05839642 0.08101953 -0.011372047
000210 c2 77 b5 bd 59 c7 dd 3d 2d 44 f5 3d fb ae 8a 3d
       -0.088607326 0.10829038 0.11975894 0.06771656
000220 31 c6 d5 3d 62 b3 71 3a 32 2d 8f bc 5a 05 df 3b
       0.10438193 0.00092201505 -0.017477605 0.006806058
000230 a5 17 b8 bc a3 b8 b5 3d d0 a2 2c 3d 6b b3 16 bd
       -0.022472212 0.08873107 0.042147458 -0.0367922
000240 83 25 3e bd 44 bc 06 bd c6 4d 6b bd 01 a6 2b be
       -0.046422493 -0.032894388 -0.057447217 -0.16762544
000250 39 05 04 be df 11 8b bd 86 49 c7 3c 94 f6 8a bd
       -0.12892617 -0.06790518 0.02432705 -0.06785312
000260 4a 60 97 bc ca ca cb 3d 3f bb 16 bd 45 9c b8 bd
       -0.018478531 0.09950788 -0.036799666 -0.09014181
000270 23 55 f1 bb 43 4f ee 3c 5a 2d c0 3c 7f 67 9c bd
       -0.0073648854 0.02909053 0.023459125 -0.07636928
000280 3e d6 df 3d d2 d3 20 bc 11 f6 ae bd 02 15 35 3c
       0.10929535 -0.009816127 -0.08543027 0.011052372
000290 76 e5 0f 3d 76 fe a5 3c 75 71 2c bd 98 9e 03 bd
       0.03513094 0.020262938 -0.04210039 -0.03213367
0002a0 e8 ac 92 bd 92 c9 23 bd 05 ab 18 bc 1a 28 e1 3d
       -0.071618855 -0.039987154 -0.009318118 0.10993977
0002b0 17 e3 d3 bd 66 7d 8f 3c 87 0b 65 bd 77 6b 93 3d
       -0.10346048 0.01751585 -0.055919196 0.07198232
0002c0 73 2c a0 bb 7e 49 71 bd 41 98 f2 bc 34 50 4c 3d
       -0.0048881113 -0.05890798 -0.029613616 0.049881175
0002d0 9d cb af bd a9 a7 f8 3d 4c 99 d1 bd 46 84 98 bd
       -0.08583758 0.12141354 -0.10234317 -0.07447104
0002e0 a7 6f ca 3c b1 bc 08 bd b5 bb ad 3c fe 75 ae bd
       0.024711443 -0.033383075 0.02120767 -0.08518599
0002f0 42 32 28 3c 2e c1 aa bd 63 c3 a1 bd 20 49 28 bc
       0.010265889 -0.08337627 -0.07898595 -0.010271341
000300 8e b5 af bd bd 58 88 bd bd 8f 8e 3d c3 0f bc bc
       -0.08579551 -0.066575505 0.0696101 -0.022956735
000310 8b e3 bb 3d 06 5b 4c b9 b3 3d aa 3d 9c 9b 0a bd
       0.0917426 -0.00019488865 0.083125494 -0.033839807
000320 fe a6 2c bc 03 7f 26 bd d1 27 e1 bd 6a 14 db bd
       -0.010537861 -0.04064847 -0.109939225 -0.10697253
000330 05 74 67 bd 04 00 72 3d a5 98 1f 3c 13 d6 d5 bc
       -0.05650713 0.059082046 0.009740983 -0.026103055
000340 74 0e a6 bc 98 69 d9 3c 4e c4 37 bb de e3 76 bd
       -0.020270564 0.026539609 -0.002804059 -0.060275905
000350 b1 a1 0a 3d 23 5a d5 bd 2b 5f 3b bd 9d ba 81 bd
       0.033845607 -0.10417583 -0.045745056 -0.06334422
000360 34 8d 82 3c 74 b9 1c bd 90 8a 4f bd 58 bc 0f bd
       0.015936472 -0.0382628 -0.050669253 -0.035091728
000370 5a 3c 26 bd d4 9b 8b bd 79 83 1e 3d 02 08 64 bd
       -0.0405849 -0.06816831 0.0386996 -0.0556717
000380 c7 22 3d bd c0 79 32 bd c5 f7 08 bd 36 6c 69 3c
       -0.046175744 -0.04357314 -0.033439416 0.014246991
000390 51 67 d5 bd 12 d2 99 bc cf a8 2d 3d ca 6c e8 bc
       -0.10420097 -0.018776927 0.042397317 -0.028372187
0003a0 16 c6 a6 3d 59 6e 94 3c e4 89 18 3d da 25 00 bd
       0.08143251 0.018119024 0.037240878 -0.031286098
0003b0 85 f4 9f bd 37 64 05 bd 7b 25 4e 3c 7f f6 1d 3c
       -0.0781031 -0.032566275 0.012582178 0.009641289
0003c0 b9 90 2a 3d 6c c7 e3 3d ff 53 1b bd 93 08 56 bd
       0.041641925 0.11122021 -0.0379219 -0.05225427
0003d0 ef da 3c 3d 02 df 98 3d 00 73 41 3d 68 76 74 3c
       0.04610723 0.0746441 0.047228813 0.014920808
0003e0 98 cb d8 bd 8c bc 79 3c 5b 6e af bd 97 4d 30 bd
       -0.105857074 0.015242707 -0.085659705 -0.043042745
0003f0 d4 69 05 be 6c 3d b5 3d 82 fc e1 3d c1 66 43 bc
       -0.13028651 0.08849606 0.1103449 -0.011926354

transformer_encoder.layers.0.self_attn.out_proj.bias f4 [96]
000000 18 74 8c bd 90 02 a5 bd 5c 0c 73 bd e2 28 cd bd
       -0.068580806 -0.080571294 -0.05933796 -0.100175634
000010 62 46 8a 3d 04 21 7f bc b7 3e 22 3d 2d c2 88 3d
       0.06751706 -0.015571836 0.03961059 0.06677661
000020 68 97 16 bc f6 e5 74 bc 9a 06 99 3d e6 5d 4c 3d
       -0.0091913715 -0.014947405 0.07471962 0.049894236
000030 3a 80 dc bd 40 9a a1 3c 28 ec 45 3b 89 f9 e8 3c
       -0.10766645 0.019726872 0.0030200575 0.0284393
000040 57 f5 0e 3d 84 98 21 bd 7a 4a 06 be be 2b f0 bc
       0.034901943 -0.03945209 -0.13114348 -0.029317733
000050 b4 64 4a bc a2 e5 0b bd fc a3 86 3d fa ab a5 bc
       -0.012353111 -0.03415454 0.06574246 -0.020223606
000060 f8 23 9a 3d ee 78 6f 3d 34 27 04 be 90 ff 79 3c
       0.07526392 0.058464937 -0.1290558 0.015258685
000070 85 a4 d1 bc 01 9b 5c bd cc 0a 01 bd 05 82 ba 3d
       -0.025591144 -0.05385876 -0.031504437 0.091068305
000080 4a 79 b8 3d 6f b8 b5 bd 9b 41 71 bb 03 ad b9 bc
       0.09007509 -0.088730685 -0.0036812786 -0.022665506
000090 49 c5 54 3c 86 21 be bd 27 92 bf bc 4e bd b9 bd
       0.01298649 -0.09283738 -0.02338512 -0.0906931
0000a0 7e 2e 2f 3d d9 75 8f 3d 39 00 22 3d 58 c2 d7 3d
       0.042768948 0.070048995 0.039550994 0.10535115
0000b0 f3 74 08 bd 8e fe 4b bd ea 9a 80 bd f4 62 28 bd
       -0.033314656 -0.04980331 -0.062795475 -0.041109994
0000c0 24 1e a3 bb 8a 58 b5 bb 26 a9 19 3c 5e d3 25 bd
       -0.0049779583 -0.0055342363 0.009378707 -0.04048478
0000d0 7d 41 6a bd 53 2b 64 bd c2 02 a3 bc 7c ed 60 bc
       -0.05719136 -0.05570538 -0.019898776 -0.013728496
0000e0 c3 22 ab 3d 97 00 6a 3d 64 c2 3b bd f5 82 8e 3d
       0.0835624 0.05712947 -0.045839682 0.06958572
0000f0 3e 3e a1 bc 77 91 b5 3d 5c 5e ff 3c a6 36 33 bd
       -0.019683 0.08865636 0.031172924 -0.04375329
000100 14 8c 00 3c 30 f7 32 bd 98 d4 09 be 3c 97 d7 3c
       0.007845897 -0.043692768 -0.13460004 0.026317231
000110 9b d3 c0 3d da b1 0f 3c 74 9d 80 bc 9d dc ae bd
       0.094153605 0.00877043 -0.01570008 -0.085381724
000120 09 f2 e3 3d 12 ef a5 bd 47 b4 5e 3d 16 30 61 3d
       0.11130149 -0.0810224 0.054371145 0.0549775
000130 db 25 4f 3d 7c a6 bc 3d 60 15 75 3d c8 0b c9 bc
       0.05057321 0.09211442 0.059834838 -0.02454175
000140 1c 79 b6 3d d4 55 b5 bc 90 44 8c 3b 51 70 8a 3c
       0.089098185 -0.022135653 0.004280634 0.01689926
000150 c1 c5 a2 bb bc fa c8 3d 20 66 5e 3d 4d 5b db bd
       -0.0049674218 0.09813449 0.054296613 -0.107107736
000160 37 cf d1 3c 0d 4f e2 3d 76 bf 96 3d d9 d5 e8 3c
       0.025611503 0.11050234 0.07360737 0.028422283
000170 06 2f bc bc 39 fe a4 3d d8 98 4e 3d 98 ed bc 3a
       -0.022971641 0.080563016 0.050438732 0.001441407

transformer_encoder.layers.0.linear1.weight f4 [384, 96]
000000 bd 66 7f 3c 1b a1 85 3b 14 6b d9 bb ff 98 d3 3d
       0.01558846 0.004078043 -0.006635079 0.10331916
000010 fa ec 90 3b eb d0 ff bc a3 76 7f 3b b2 5e c2 3d
       0.004422781 -0.03122755 0.0038980625 0.09490718
000020 93 09 1c bd 76 2c c7 bd 57 af 55 3d db 38 58 3d
       -0.03809507 -0.09725277 0.05216917 0.052788597
000030 87 64 c9 bd cc 72 e1 3d f6 f4 57 bd 84 2f 29 3d
       -0.09833627 0.11008224 -0.052723847 0.04130508
000040 19 89 bf 3b 0f 86 b1 3b b6 3e 5a 3d cd 04 b8 bd
       0.0058452007 0.0054175924 0.053282462 -0.08985291
000050 cc 27 9d 3d c7 b1 b6 3d de e3 81 3d 8e 56 9d bc
       0.07673606 0.08920627 0.0634229 -0.019206312
000060 4a 86 c9 bb d3 f5 6a bd 69 26 2f 3e d4 c9 f2 bd
       -0.0061500417 -0.057363342 0.17104496 -0.11854902
000070 47 2d 85 bd ff 6d 4f 39 fc 5c 9d 3d 87 39 b2 bd
       -0.065027766 0.00019782035 0.07683751 -0.08702379
000080 7b aa 8f 3b 19 de ac 3d b5 ca 20 be 33 79 dd bb
       0.0043843365 0.08440799 -0.15702327 -0.006758833
000090 c7 63 8f 3c f3 dd 82 3d 22 b5 0d be c7 0b 9e bc
       0.017503632 0.0638999 -0.13838628 -0.019292725
0000a0 17 6e 15 3d ec 76 0e 3c b8 d3 a0 bd 69 96 3d bd
       0.036481943 0.008695345 -0.07852882 -0.04628602
0000b0 5f b9 e4 bd bf 24 0e be 21 26 f5 bc 71 85 91 bd
       -0.11168169 -0.13881205 -0.029925408 -0.0710553
0000c0 c7 53 d6 bc f6 55 b4 bd 89 55 24 3e 04 d3 e6 3b
       -0.026162995 -0.08805458 0.16048254 0.007044198
0000d0 cb 10 ac 3c a1 f6 98 3d 9f c7 3e bd 57 f2 66 3d
       0.021004101 0.07468916 -0.046577092 0.056383457
0000e0 4a 59 c0 bd 54 8d 9e 3c 7f b5 53 3d da 36 c0 bd
       -0.093920305 0.0193545 0.05168676 -0.09385462
0000f0 a3 ad 93 3c f6 00 f1 bd 68 92 7e bd 14 9a 2b 3c
       0.018027132 -0.117677614 -0.062151343 0.010473747
000100 6f 28 81 3d 6c b8 24 3c 7a 54 a5 3d 37 80 62 3b
       0.0630654 0.010053735 0.08072753 0.0034561285
000110 63 b3 ac 3d e4 db 39 3d e4 2b 0e 3e df 02 20 3e
       0.08432653 0.04537572 0.1388393 0.15626095
000120 d2 c6 72 bd 02 ca ac bb 5b 2d 0b 3e ae 8f 88 3d
       -0.05927164 -0.0052731046 0.1359152 0.0666803
000130 2c 10 ab bd 43 27 16 be d8 99 33 bd 92 a9 91 3d
       -0.08352694 -0.14663415 -0.04384789 0.07112421
000140 03 7f da bd b6 4d 65 3d 64 38 dc bd f9 87 89 bd
       -0.10668757 0.055982314 -0.10752943 -0.06715388
000150 51 b9 53 3d ea 79 e9 bc c9 25 b8 bd ad 16 91 3d
       0.051690403 -0.028500516 -0.08991582 0.07084403
000160 61 c4 aa bc 12 a3 0a 3c 13 f3 02 be 24 03 11 bd
       -0.020845594 0.008461731 -0.12788038 -0.035403386
000170 20 93 50 3d 9d 8e b1 bd b4 8b ed bd 2d f2 e5 3d
       0.05092156 -0.086697794 -0.11598912 0.11227832
000180 f4 9b 3c bc 53 fe 64 3d 8c ff 89 3b 4f f2 2a bc
       -0.0115117915 0.055906605 0.0042113718 -0.010433747
000190 5d 26 53 bc 2e cf cc bb 6e 0d f6 3d c5 86 48 3c
       -0.0128875645 -0.0062502837 0.1201428 0.012239163
0001a0 8a 2a aa 3d 17 3a 05 3d 82 47 01 bd 04 dc 1c 3d
       0.08308895 0.032526102 -0.031562336 0.03829576
0001b0 a4 e4 58 3d cf e0 58 bd 5c 3c 08 bd dc 06 c4 3d
       0.052952424 -0.05294877 -0.03326069 0.09571621
0001c0 c5 60 17 3d 66 3b 1e bd ed e9 0d 3e f3 82 d9 3d
       0.03695752 -0.038630866 0.13858767 0.1062068
0001d0 7f 50 83 bc 23 13 f7 3d 5f 06 98 3d 38 41 1b 3d
       -0.016029594 0.12064197 0.0742309 0.037903994
0001e0 85 53 2f bb 39 4a b9 3d b1 f2 6d 3d db de 9b 3d
       -0.0026752662 0.0904736 0.058092777 0.07610866
0001f0 24 c2 de 3d 13 bb c8 3d 48 58 09 bc da 96 9a 3d
       0.10876873 0.098013066 -0.008382864 0.07548304
000200 32 a2 c0 3c a7 0c 73 3d 11 8b 89 3d 10 cd b8 bc
       0.02351484 0.059338238 0.06715978 -0.022558719
000210 06 b2 c8 bd 5f ea 13 3e 82 0d 2a bd ab 5d cc bb
       -0.0979958 0.14444874 -0.04151679 -0.006236752
000220 02 e1 17 bd 77 19 f5 3d 4f ad e5 bd e3 b1 92 bd
       -0.03707982 0.11967748 -0.112146966 -0.071628354
000230 cc ea 7a bd e7 41 16 3e 93 4b 9c bd 2b 51 07 b9
       -0.061259076 0.14673577 -0.07631602 -0.0001290484
000240 db 0e 26 bc a9 51 d3 3d cb f4 7c 3d 50 d2 57 bd
       -0.010135378 0.1031831 0.06175689 -0.052690804
000250 18 69 96 bd 29 05 54 3d 74 4e dd 3c 1b 0d b0 bc
       -0.07344264 0.051762734 0.027014948 -0.021490624
000260 6d c3 c4 bd 93 6b 2c be 88 4a e0 bd c5 3c 07 bd
       -0.09607587 -0.16837911 -0.10951716 -0.03301694
000270 79 a6 55 3d 28 a3 5d bd 68 52 5f 3d 01 fe 6e bd
       0.052160714 -0.054110676 0.054521948 -0.058347706
000280 a0 bd 5d 3d 3d c0 89 bc 04 ef d7 3c 96 b3 7f 3c
       0.05413592 -0.0168153 0.026359089 0.0156067815
000290 1c e5 40 3d 6f db 29 3d 30 37 d5 3d 7d 31 3d 3d
       0.047093496 0.041469034 0.10410917 0.046189774
0002a0 20 16 39 bd 9a 4c 0b bd 75 a6 71 bd 2a 3e 6a bd
       -0.045187116 -0.0340086 -0.058996636 -0.05718819
0002b0 00 93 0e bd a1 c3 8e bd 92 7e 09 3c 40 c0 d3 bd
       -0.03480816 -0.06970907 0.008391993 -0.10339403
0002c0 7c 32 29 bd 8a 02 88 bc 8a b7 22 3d 2c ec b7 bd
       -0.04130791 -0.016602773 0.039725818 -0.08980593
0002d0 50 10 10 3d d8 74 f2 bc 2f 26 37 bd f1 2e 44 3d
       0.035171807 -0.029596731 -0.04471415 0.04789633
0002e0 19 21 20 bd 8d 1a c8 bd 30 51 97 3d d5 42 1c 3d
       -0.039094064 -0.09770689 0.07388532 0.038149673
0002f0 fc 7e 6c bd e7 b0 2a bc 96 75 bb bc 1c 6f 0d bd
       -0.05773829 -0.010418153 -0.022883218 -0.03452979
000300 b8 69 0d bd 61 40 96 bd 42 cb d5 bd a7 68 46 3d
       -0.03452465 -0.07336498 -0.10439159 0.048439648
000310 dd b5 0c be 95 96 7d bc 0c d4 5a bc cf 58 06 3e
       -0.1374125 -0.015477796 -0.01335622 0.13119815
000320 81 a9 a0 bd ad c9 b4 bd 99 0d 87 3c 44 c0 35 bd
       -0.0784483 -0.08827529 0.016485976 -0.044372812
000330 e4 4d ab 3c 78 3c 9d 3d 58 df cd bd 61 d9 f3 3c
       0.020911165 0.07677549 -0.10052365 0.02976674
000340 a3 59 b6 bd 7d 07 29 3d 42 91 45 3e 94 5d 3a 3d
       -0.089038156 0.041266907 0.19293693 0.0454994
000350 a9 dc 05 3d 09 11 91 3c 2c 4a 72 3d 6e ef 0f 3d
       0.03268114 0.017708318 0.059152767 0.035140447
000360 e0 45 53 bd 9f 6f c2 3d 1a 27 ba 3d b2 cc 00 3d
       -0.05158031 0.09493946 0.09089489 0.031445213
000370 af 8c 57 bd df b1 9b bc 80 7a 04 3d 87 ee c4 bd
       -0.0526244 -0.019005714 0.032343388 -0.09615808
000380 1d 4b 5a 3d 0e 2d 8a bd 20 94 07 3d 8e 33 bc bd
       0.05329429 -0.06746875 0.033100247 -0.09189521
000390 de 62 84 bd 3c 19 87 bc b1 07 75 3d 2a 55 33 3d
       -0.0646417 -0.016491525 0.05982179 0.04378239
0003a0 fd bf 8d bd 48 19 f2 3d b8 ad 57 3c d1 1b 2d 3d
       -0.069213845 0.11821228 0.013163976 0.042262856
0003b0 0e 23 1d 3c a9 18 8b bd 34 24 fc bd 68 1e da ba
       0.009590877 -0.06791813 -0.12311593 -0.0016641142
0003c0 73 01 de 3b cf 2e c9 bd 19 6e b0 3d 2c 3d d3 bd
       0.006775075 -0.09823381 0.086147495 -0.10314402
0003d0 c6 89 83 bd b8 e5 5c bc 3d ae 6b 3d ef a3 7f 3c
       -0.064227626 -0.013482504 0.057539213 0.01560305
0003e0 f3 67 01 bd 3e 1c db bc 4f d2 c4 bd c4 13 8c bd
       -0.031593274 -0.026746865 -0.09610426 -0.068397075
0003f0 00 68 a4 3c 88 b1 89 bd 40 2c 84 3c 16 ec 39 3d
       0.020069122 -0.067233145 0.016134381 0.045391165

transformer_encoder.layers.0.linear1.bias f4 [384]
000000 70 e7 47 bd 7c a9 9c bc 11 00 14 be b9 bc 12 bd
       -0.0488047 -0.019123785 -0.1445315 -0.03582451
000010 de ff 39 3d 5a 55 0b be 6a 9d 0d 3d 44 85 51 bc
       0.04541003 -0.13606778 0.03457395 -0.012788121
000020 e6 1d 27 3d 58 4c f8 bc 9c fe 66 bd 72 81 39 3d
       0.040799998 -0.030309841 -0.05639516 0.045289464
000030 fc b5 23 be dd 18 0c be cc 49 6f 3c 2e f2 10 3d
       -0.1598739 -0.1368136 0.014604997 0.03538721
000040 1a 40 0e be 29 35 d9 bd ce fb 62 bd 16 4a 8d bd
       -0.1389164 -0.106058426 -0.05541592 -0.068988964
000050 63 4b 29 bd 97 81 08 3d f5 02 05 be 66 ac 19 3c
       -0.04133166 0.03332671 -0.1298941 0.009379482
000060 66 f5 88 bd b2 5b a9 bd c5 36 fe bd fa 84 c6 bd
       -0.06687431 -0.082694426 -0.1241279 -0.09693332
000070 4b 40 26 bc 59 99 37 bd 31 10 40 bd f1 70 6a bd
       -0.010147165 -0.044823978 -0.04689044 -0.057236616
000080 a1 9a d6 3c a4 32 b2 3b bd c7 e8 bd 45 56 78 3b
       0.02619678 0.0054381657 -0.11366222 0.0037893218
000090 d4 f9 47 be 26 ad 15 be ae 73 30 3c 24 04 f9 bd
       -0.19528896 -0.14616832 0.010769768 -0.12158993
0000a0 da 45 1c 3d 28 5f 1b bd 7c 84 2b 3c 91 ba 0a be
       0.038152553 -0.037932545 0.010468598 -0.13547732
0000b0 a0 82 34 be 26 b4 b4 bc 71 2a 2b be c2 8f 1a 3c
       -0.17627954 -0.022058558 -0.16715409 0.009433689
0000c0 b0 c4 cb bd f2 6d 27 3d 9f bd 35 bd 11 f8 57 bd
       -0.099496245 0.040876336 -0.04437029 -0.05272681
0000d0 97 77 98 bd e6 73 09 be 25 8d 53 3d 3f 59 90 bb
       -0.07444685 -0.13423118 0.051648278 -0.00440517
0000e0 a5 17 2f 3b 35 6d 5f bd 93 f8 fe 3c f0 51 f3 bc
       0.0026716974 -0.054547507 0.031124389 -0.029702157
0000f0 74 f4 32 3c 48 08 66 bb 08 a4 cb 3c a8 44 4e 3d
       0.01092254 -0.003510015 0.02485849 0.050358444
000100 83 b4 87 39 5e b5 bc bd fa c3 8d 3d 80 fb a1 bd
       0.00025883698 -0.092142805 0.06922145 -0.07909298
000110 df 22 5a bd 82 d1 34 3d ce a5 ee 3b d1 23 b1 bd
       -0.053255912 0.044145115 0.007282949 -0.086494096
000120 f5 0e ff 3c 80 ad 39 be b0 96 e0 bd 80 ca 1f bc
       0.031135062 -0.18132591 -0.10966241 -0.00975287
000130 2a d8 e8 bd 35 9f 81 bc 18 6f 30 bc 62 7b 7f bc
       -0.11369355 -0.015822986 -0.010768674 -0.015593382
000140 87 94 a6 bd a7 c8 0a be 17 82 3d be 6b 7d 33 3d
       -0.08133798 -0.13553105 -0.18506657 0.04382078
000150 e4 3a 02 3d fe 65 3c be 68 2e 2f be 8a 93 f9 bb
       0.031794444 -0.18398282 -0.17107546 -0.007616465
000160 41 2b bf bd a5 43 0f bd 04 36 a2 3c 1c 6a 66 bc
       -0.09334422 -0.03497662 0.019801147 -0.014063384
000170 75 5d 06 bd b8 73 c1 bd 9b aa 09 3d f5 94 8a bd
       -0.03280397 -0.094459 0.033609968 -0.067666925
000180 2a e4 bc bc f0 cd b1 3c dc 59 3e be d5 be 89 bd
       -0.023058016 0.021704644 -0.18588966 -0.067258514
000190 38 22 a9 bd a6 40 24 be 01 d0 40 be 66 93 70 bb
       -0.0825848 -0.16040286 -0.18829347 -0.003670895
0001a0 a4 0c 1c bd 3e ee c8 bd 2a fb d1 bd 12 f7 2b 3d
       -0.038097993 -0.09811066 -0.10252984 0.04198367
0001b0 f0 93 98 bc a8 93 1c bc 4b 3b 61 be 88 08 16 be
       -0.01862523 -0.009556688 -0.21995275 -0.14651692
0001c0 b4 9a 9e bd e1 62 37 be 23 93 d9 bd af e3 da bd
       -0.07744351 -0.17908813 -0.10623767 -0.106879584
0001d0 46 3f 0c 3d 1a 3c 4c bd b8 9a 25 be ce ec cb bd
       0.03424003 -0.049862005 -0.16172302 -0.09957276
0001e0 72 57 7e bd aa 93 b6 bc f1 18 bd bd eb b0 1d be
       -0.062095113 -0.022287209 -0.09233273 -0.1539952
0001f0 ff 24 d6 3d 0d cb 50 bd 7e 5b c3 bd ef a7 82 bd
       0.10456275 -0.050974894 -0.09538935 -0.06379687
000200 c1 02 4e be 4d 53 1e 3c 5c 8f 58 bc b6 61 0a be
       -0.20118238 0.009663415 -0.013217773 -0.13513836
000210 80 f9 3c bd cb 67 33 bd 2c 3b 20 bc 01 d6 f0 bd
       -0.04613638 -0.043800157 -0.009779733 -0.11759568
000220 b4 f0 48 be 68 cb 00 be ac a0 64 be 9c 73 fc bd
       -0.19623071 -0.12577593 -0.22326916 -0.12326738
000230 32 36 80 bc 8a ab ca bd 1a a3 cd bd b8 29 4c be
       -0.015650842 -0.09896 -0.10040875 -0.1993779
000240 47 d2 84 bd 8b 7d 0f bd 4b 82 c5 bd 16 06 2f bd
       -0.0648542 -0.035031836 -0.09643992 -0.042730413
000250 9d 8e 2b be a1 b7 bc bd c9 52 3f 3d 5e 76 4a be
       -0.16753621 -0.09214712 0.04670981 -0.19771716
000260 e0 33 6e 3d 82 b0 ac ba e1 cc 00 be 36 e3 ff bd
       0.05815494 -0.0013175162 -0.12578155 -0.12494509
000270 3d e7 fc bc 11 c5 55 be cd 29 81 bd bd 18 c6 3c
       -0.030871982 -0.20875956 -0.06306801 0.024181718
000280 4c 00 9f bd a1 68 73 3d 03 ba 5b be e5 dd 77 3c
       -0.077637285 0.059425954 -0.21457677 0.015128587
000290 46 e0 5d bd f2 ea 14 be 8b 38 a3 bd 36 97 fe bd
       -0.054168962 -0.1454275 -0.07969769 -0.12431185
0002a0 33 07 07 be ea 05 77 bd 62 f3 8d bd f5 ad 9b bd
       -0.1318634 -0.060308374 -0.06931187 -0.07601539
0002b0 66 34 98 3b 7d e9 14 bd 0e 04 bc bd c2 48 35 be
       0.0046449183 -0.036355484 -0.09180461 -0.17703536
0002c0 ca 44 45 be 6b ef c4 bd 0e 6b e0 bd 8b 3a ab bd
       -0.19264522 -0.09615978 -0.10957919 -0.083607756
0002d0 d1 69 95 bd ff 6d 6c 3d e7 23 ff bd 51 cb b9 bc
       -0.072955735 0.057722088 -0.1245802 -0.022679957
0002e0 49 0f 11 be 91 e0 91 3c c0 4b da bd dd 92 a4 bd
       -0.14165987 0.017807277 -0.106589794 -0.080358244
0002f0 3c b9 bb bc ed 41 52 be d6 11 12 be 6a 1a a7 bd
       -0.022915475 -0.20532961 -0.14264616 -0.08159335
000300 b3 79 14 be ce 49 74 bc b1 18 c8 bc 97 70 2c bd
       -0.1449955 -0.0149101745 -0.024425836 -0.04209956
000310 7f c1 ec bd bc 8d d6 bc 4d c7 50 be 54 0d a8 bd
       -0.11560344 -0.026190631 -0.20388527 -0.08205667
000320 15 09 5a bd 07 89 5c bd 18 f7 a8 bc 57 9a f2 bd
       -0.053231318 -0.053841617 -0.020625636 -0.11845844
000330 9a d8 8a bc 1f a0 d5 3c 6a 02 f3 3b a1 a4 4c bd
       -0.016948987 0.026077328 0.0074160593 -0.04996169
000340 1c 98 91 bd d2 f9 0f be 5a ff f9 bd 7f de 10 3d
       -0.07109091 -0.14060143 -0.122069076 0.03536844
000350 82 b2 f7 bd bc 28 41 be de f7 98 bc 9d a0 f5 bd
       -0.120945945 -0.18863195 -0.01867288 -0.11993525
000360 a9 5f 0d 3d 84 86 b2 bd af 10 83 bd 57 cc 6a be
       0.034515057 -0.08717063 -0.063996665 -0.22929512
000370 03 02 03 be d6 9a 1e be cf 9d ee bd 1b bc 7b bc
       -0.12793736 -0.15488753 -0.11651193 -0.015364672
000380 70 60 3e bd 69 86 f9 bd 85 8e be bd 34 15 14 3d
       -0.04647869 -0.1218384 -0.09304527 0.036153033
000390 80 a0 8b bd 5e 33 82 bd f9 05 3e bc cc 1b 95 bc
       -0.06817722 -0.06357454 -0.011598104 -0.018201731
0003a0 30 e8 44 bd 1e 07 8c 3d b6 36 33 be 14 63 b5 bd
       -0.048072994 0.06837295 -0.1750134 -0.08856788
0003b0 37 d0 ef bd 97 69 1a be d1 72 cf 3a 1d e3 eb 3a
       -0.11709636 -0.15079342 0.0015827065 0.0017996762
0003c0 92 e2 5a 3c a5 39 25 be 2f 6e c2 bd 19 21 4b be
       0.013359683 -0.16135271 -0.09493672 -0.19836845
0003d0 1d 6f a8 bc 6c f2 01 be 93 84 90 bc a9 de 95 bd
       -0.020560795 -0.12690133 -0.017641341 -0.0731786
0003e0 4f d4 c6 bd 13 fa 90 bd f2 ca 2e bd 17 2d 1e bd
       -0.097084634 -0.07078948 -0.042674012 -0.03861722
0003f0 b9 82 1d bc 50 71 af bd 50 06 23 be cb f7 df bd
       -0.009613686 -0.085665345 -0.15920377 -0.10935935
