projects/malfunction-prediction-system/saved_weights/seq-length-specific-models/model_seq_len_90.pth (torch, 375998 bytes, 20 tensors)

input_projection.weight f4 [64, 38]
000000 ce 14 e1 bd 0d a9 c3 bb 35 c8 ce 3d fe 87 d1 3d
       -0.10990296 -0.00597108 0.1009678 0.102310166
000010 10 e1 1d be b9 ac 31 bd 3f ab 4e 3d f6 96 68 3d
       -0.15417886 -0.04337761 0.05045628 0.056784593
000020 a5 61 a0 bd 45 6f 46 3d 76 19 bb 3c 94 2c c0 3d
       -0.07831124 0.04844596 0.02283929 0.093835026
000030 43 6c 54 be 4d 26 a5 bc e3 a8 76 be 06 95 7f ba
       -0.20744424 -0.020159865 -0.24087863 -0.0009749684
000040 46 07 0e be d0 ee e4 bd cc 0b f3 bd 22 b7 b7 bd
       -0.13869962 -0.11178362 -0.118674845 -0.08970477
000050 49 79 37 bd a0 d3 80 3d dc a4 14 be 5a 0f 50 be
       -0.0447934 0.06290364 -0.14516014 -0.20318356
000060 33 c4 d9 bc da 84 83 3c 62 7c 19 3e 03 6b 56 be
       -0.026582813 0.01605456 0.14988855 -0.20939259
000070 86 d3 7e bd d8 49 db 3d 0f 6d c9 bd 4d b5 f9 3b
       -0.062213443 0.10707444 -0.098352544 0.0076204897
000080 a8 be ba 3d cb 21 1b 3d 4f a0 cb 3d 43 f3 81 bd
       0.09118396 0.037874024 0.09942686 -0.063452266
000090 c7 4c f7 b7 14 0c 06 3d fe c1 a1 3d ea ce a2 bc
       -2.9480447e-05 0.032726362 0.07898329 -0.019874055
0000a0 19 12 4b bd 43 3d 5e bd 0d 2f af bd 85 8f d1 3d
       -0.049577806 -0.054257642 -0.08553896 0.10232452
0000b0 d4 b3 74 3c 84 a9 b3 3d 63 2d 57 be bf bf 1a be
       0.0149354525 0.08772567 -0.21013407 -0.15112208
0000c0 58 10 0b 3e 24 7a 9b bd ac 6a ec bd bf 04 04 3e
       0.13580453 -0.07591656 -0.115437835 0.12892435
0000d0 15 fd 72 bc 2b b0 01 3e 56 4d 90 3d bc ce ba bd
       -0.014830847 0.12664859 0.07046001 -0.09121463
0000e0 35 d1 0a be 01 5c 6b bc 32 cc 84 3d 05 f2 3f 3d
       -0.13556369 -0.014365197 0.0648426 0.046861667
0000f0 3e 2f 0f 3d ca 56 cb 3d f5 10 71 3d cc d6 01 bc
       0.034957163 0.09928663 0.058854062 -0.007924747
000100 11 37 f5 bc 02 27 2a 3d 94 09 27 bd 86 d3 05 3e
       -0.029933484 0.041541107 -0.04078062 0.13068971
000110 78 62 a9 3d 0c e3 e7 bd 4b 6b 62 bd 46 43 35 be
       0.082707345 -0.11322603 -0.055278104 -0.17701444
000120 a8 b8 a3 bc 26 ea b8 3d e2 c4 f3 3d 91 41 40 bd
       -0.019985512 0.09029035 0.11902787 -0.04693753
000130 6a 61 85 3c a9 b7 b1 bb a1 6a 15 be 8b 13 0b bd
       0.016281802 -0.0054235053 -0.14591457 -0.033954185
000140 b2 d0 02 3e 62 25 53 bd fb b1 81 bd 9b ea d8 3d
       0.12774923 -0.051549323 -0.06332775 0.105916224
000150 bf 66 2f 3e 3c cb 01 3e 0d c2 be bc a9 be 05 be
       0.17129038 0.12675184 -0.02328589 -0.13061012
000160 db e3 1b bd 3a 6d c3 3d 48 cd d8 3c 70 4d 17 3e
       -0.038059097 0.09542318 0.026465073 0.14775634
000170 c8 87 aa 3a e7 3a 0e 3e 5a ff c5 3d 27 05 e0 bd
       0.0013010437 0.13889657 0.09667845 -0.10938483
000180 8b fd ec 3c 96 c4 9c bd 38 ea 0f 3c 84 23 09 3e
       0.028929492 -0.07654683 0.008783869 0.13392454
000190 93 89 a4 bd e1 2f ce bc ff 5f ea 3d 21 e9 05 be
       -0.08034053 -0.025169315 0.11444091 -0.13077213
0001a0 77 79 09 be f4 da db 3d c3 7b a0 bb 22 9c ea 3d
       -0.13425241 0.10735121 -0.004897566 0.11455561
0001b0 03 ac f2 bc 91 01 f0 bd 59 c5 66 3d 9d 09 62 3e
       -0.029623037 -0.11719049 0.05634055 0.2207398
0001c0 0b 03 13 3d 8a 46 c6 3d 1b c1 8d bc fd 41 e3 bd
       0.035891574 0.09681423 -0.017303994 -0.11096571
0001d0 82 e2 3e 3e f2 51 94 3c 38 4f 26 3e e8 91 d4 3c
       0.18641093 0.01810548 0.16241157 0.02594848
0001e0 85 ad 4f be f2 68 8b 3c d1 57 b6 3d 22 be 43 3e
       -0.20281036 0.017017815 0.089034684 0.19115499
0001f0 e1 ec c5 3d e3 55 81 bd a7 9c 2c 3d 71 d9 13 3e
       0.09664322 -0.0631521 0.042141583 0.14438416
000200 0f 43 fc 3d c5 67 23 be a0 fb 83 bb 98 ae 68 3e
       0.12317478 -0.15957554 -0.004027799 0.22722852
000210 87 96 fb 3d f1 22 51 bd ac 29 a3 bc 0c e1 a8 3a
       0.1228457 -0.051058713 -0.019917332 0.0012884452
000220 5a bd f2 3d e5 d2 04 3e 8a 17 40 3d a7 f3 97 bd
       0.11852522 0.12971075 0.04689745 -0.0741952
000230 bf 11 33 be d3 1f ac bd 22 29 15 be e2 fb 89 bd
       -0.17487238 -0.084045075 -0.14566472 -0.06737496
000240 7d 3b 0d bc 46 68 da 3d b4 36 16 3d 2a da a6 3d
       -0.00862014 0.1066442 0.036673263 0.0814708
000250 f8 8b 65 bc 52 fa 1a be 02 23 6c 3d 54 40 95 3d
       -0.014010422 -0.15134552 0.057650574 0.0728766
000260 3e 23 30 bb c7 d4 44 bc 5e 2f 30 be 58 38 9a bc
       -0.0026876475 -0.012013621 -0.17205569 -0.018825695
000270 58 8f 15 be f1 e0 1f be 03 5f 85 3c 38 c4 12 bd
       -0.14605463 -0.15613152 0.016280657 -0.03583166
000280 0e 27 82 bd 4c a9 ff 3c 83 af 0b 3e ab 31 29 be
       -0.06355105 0.031208657 0.13641171 -0.16522853
000290 88 4a 7b be 45 d8 2e bb 96 a5 ce bb fa fa 35 3d
       -0.2454015 -0.00266792 -0.0063063605 0.044428803
0002a0 40 1c c7 3d 29 4b 18 3d 45 6c 9e 3d 08 31 e8 bd
       0.09722185 0.037181053 0.077354945 -0.11337477
0002b0 1f d8 bc 3b 13 b6 17 bd 1e 1f ca 3d 69 8f 3d be
       0.0057630683 -0.037038874 0.098692164 -0.18511738
0002c0 a8 83 e0 bd 69 91 18 be 01 53 d7 bd 5d 26 bf bd
       -0.109626114 -0.1489922 -0.105138786 -0.09333489
0002d0 1b be f3 bd 3b 77 c8 bd 04 46 39 3d b2 a0 12 be
       -0.11901494 -0.097883664 0.045232788 -0.14319113
0002e0 90 50 b3 3c c0 21 16 3c 8b 7c d7 3c ce b5 33 3e
       0.021889001 0.00916332 0.026304504 0.17549822
0002f0 5b 05 ea 3d 61 47 0d bd fc c5 48 bd 1f b6 c9 bc
       0.11426803 -0.0344919 -0.049016938 -0.024622975
000300 87 a2 15 3e bc b9 c5 3c 98 c6 33 3d a8 72 22 bd
       0.1461278 0.024136417 0.043890566 -0.039660126
000310 0b b7 d9 3c 79 c7 cd 3d fd 4f 67 bd fa 39 31 3d
       0.02657654 0.10047812 -0.056472767 0.04326818
000320 4e a8 41 3d 78 b2 c7 bd bc 59 28 be dc 05 97 bd
       0.04727965 -0.09750837 -0.16440481 -0.073741645
000330 76 b3 8a 3d 2b 87 e0 bd a9 1f c8 3d 4e 7e 21 3e
       0.06772511 -0.10963281 0.09771664 0.15770838
000340 c4 59 7b 3d d7 c0 e3 bd 5a 0d e3 3d b7 01 02 3e
       0.061364904 -0.11120766 0.11086531 0.12695967
000350 ef 5d 85 3d e0 f7 9c bd 28 84 43 be 52 a4 9b bb
       0.06512057 -0.07664466 -0.19093382 -0.004749813
000360 d7 99 0a 3d 57 8b 85 3d 6e 4d 86 bd 99 46 c6 3d
       0.03383812 0.065207176 -0.06557737 0.09681434
000370 de a9 18 bc a5 a4 92 be 06 04 93 3c 57 40 fe 3c
       -0.009317843 -0.2864124 0.017946254 0.031036539
000380 7a 79 30 3d c7 8c 4f 3d 26 ab 0c 3e 7d 94 02 be
       0.0430846 0.050671365 0.13737163 -0.12751956
000390 14 6e 82 3c 5b 7b dd 3b c7 ae 34 3e 59 bd da bd
       0.01592163 0.00675909 0.17644797 -0.106806464
0003a0 dc b9 bd 3d af 79 df 3a 8f dd d0 b9 99 da ab 3c
       0.092639655 0.0017049814 -0.00039837926 0.020978259
0003b0 27 d8 58 3d 55 b7 82 bc e4 e0 19 3c 09 de 26 bd
       0.052940514 -0.01595656 0.009391997 -0.040739093
0003c0 ef eb 1d 3d 6b 16 7b bd 5e 1e 59 bc 73 da 10 be
       0.038555082 -0.061300676 -0.013251869 -0.14145832
0003d0 1b d8 42 3d ae 12 f5 3d 8b 61 29 3d 93 21 e5 3d
       0.047569375 0.119664535 0.04135279 0.111880444
0003e0 2a 0d 1e be d9 8a 90 bd c5 bd c1 bd 26 c0 8e bd
       -0.15434709 -0.07057733 -0.09460024 -0.06970243
0003f0 db 1b cc 3c 7a 60 c2 3d bc d3 ac bd 14 c7 b9 bd
       0.024915626 0.09491058 -0.084388226 -0.09071174

input_projection.bias f4 [64]
000000 b8 5f 06 3d ce da 4e 3d 32 d5 44 3e 72 6b a1 3d
       0.03280613 0.050501637 0.19221953 0.07881822
000010 0a 77 05 3d cb 41 d9 3c 5d ae 8a 3b d0 5c 71 3d
       0.032584228 0.02652063 0.0042322115 0.058926404
000020 ac 37 06 3e b9 f1 2b 3e 34 0f 2d be de 0d 0f be
       0.13107175 0.16791429 -0.16900331 -0.13970134
000030 9a 3a f0 3a 1b ef c3 3d 2a 7b b6 3c 3d 8b f5 bd
       0.0018328012 0.0956709 0.022275526 -0.11989448
000040 3a c3 49 bb 67 43 27 be 6b 3b dd 3d bf d2 c8 3d
       -0.003078653 -0.16334306 0.10802349 0.098058216
000050 e0 59 a8 3d d0 e1 5a bd ae ad be bd 86 7a ba bd
       0.08220267 -0.053438008 -0.093104705 -0.09105401
000060 c8 ad 02 3e 64 66 54 ba 14 e4 97 3d e8 24 ea 3c
       0.12761605 -0.00081024156 0.07416549 0.028582051
000070 6a 5f ea bd e8 f3 cf bd fc 70 bc 3d d9 ab c0 3c
       -0.1144398 -0.10153943 0.092012376 0.023519443
000080 83 46 2b 3e 5e 2c 3b 3e a4 85 f2 3d 25 42 04 3d
       0.16726117 0.18278643 0.11841896 0.032289643
000090 79 96 88 3c 62 39 90 bb 3a 30 fc 3d f1 19 bc 3d
       0.016673313 -0.004401372 0.12313886 0.091846354
0000a0 d1 8b c2 bd 6e c9 cd 3d 59 11 e5 3d df 47 b3 3c
       -0.09499324 0.10048185 0.111849494 0.021884857
0000b0 2c 9b 3a 3d 19 ed f7 bd aa c9 d9 3d cc 75 2d be
       0.04555814 -0.1210577 0.106341675 -0.16939467
0000c0 c0 f9 00 bd 6b fd dc 3d ac a4 d1 bc d5 7f dc 3d
       -0.03148818 0.10790523 -0.025591217 0.107665695
0000d0 15 4b 11 bd a2 c6 15 be 48 5a 4e be 08 df d1 bd
       -0.035471994 -0.14626554 -0.20151627 -0.10247618
0000e0 27 91 ca 3c 18 11 e7 bd 9c b6 79 bb ff 3d 17 3e
       0.024727417 -0.11282557 -0.0038103228 0.14769743
0000f0 fc 9c 7a bd 08 87 9f ba a6 e5 c2 3d c0 5e c6 3d
       -0.06118487 -0.001217098 0.09516458 0.09686041

transformer_encoder.layers.0.self_attn.in_proj_weight f4 [192, 64]
000000 79 fa 03 be d6 a5 a8 3c 03 1f 4e 3e 47 81 e8 3c
       -0.12888516 0.02058689 0.20129018 0.028381957
000010 b8 57 91 bd 9a af 58 bc e6 47 a0 3d 32 7e b4 3c
       -0.07096809 -0.01322546 0.078262135 0.02203283
000020 63 0a 39 bd 78 a7 27 be c5 26 8c 3d 2b 52 13 3e
       -0.04517592 -0.16372478 0.06843332 0.14386813
000030 06 32 d1 3d 26 b3 46 bd 22 b5 73 be 94 b8 ea 3d
       0.10214619 -0.048510693 -0.23799565 0.11460987
000040 12 6e 45 3e e8 dd af bd 10 b5 65 be a9 16 75 3e
       0.1928027 -0.08587247 -0.22432351 0.23934425
000050 67 cc 23 be 20 74 0d 3e 1b e4 f1 bd db ae 0f 3d
       -0.15995942 0.1381383 -0.11811086 0.035078865
000060 d0 6c 08 3d 57 05 62 be 87 41 05 3e e3 a0 76 be
       0.033306897 -0.2207235 0.13013278 -0.24084811
000070 cb ba 4b 3d 02 48 3a be d2 3c c2 bd 1a 35 82 bd
       0.049738687 -0.18191531 -0.09484257 -0.063577846
000080 ac 6f 27 3e 2b 06 82 bd 81 b9 db 3d d8 38 06 3e
       0.16351193 -0.06348833 0.107287414 0.13107622
000090 67 a1 8d 3b d2 ee 99 bd 40 3b 27 ba 4e fe 85 bd
       0.004322219 -0.075162545 -0.00063793734 -0.065426454
0000a0 d8 91 87 bd 17 bc 3d bd ce 11 c1 bd 9f 32 12 3d
       -0.06619614 -0.046321955 -0.09427224 0.035692807
0000b0 36 17 98 bb f6 63 c4 3b ad 05 b6 bd 6e fb 8e bd
       -0.004641439 0.0059933616 -0.08887801 -0.0698155
0000c0 de 9c 85 bc b9 af 94 3c b9 70 42 bd 29 11 0c 3e
       -0.016310152 0.018150197 -0.047470782 0.13678421
0000d0 10 67 63 bd 0e 3f 05 be 5c ff 5e 3e d1 30 c0 bd
       -0.05551821 -0.13012335 0.217771 -0.09384311
0000e0 19 cd 24 bd d4 01 15 be af db 01 be 7a 69 af bb
       -0.04023466 -0.14551479 -0.12681459 -0.00535315
0000f0 56 75 44 be 10 f8 0b 3c de ba f6 bd 0c 9d 27 3c
       -0.19185385 0.008543029 -0.12047361 0.010230314
000100 25 14 ca 3d 06 dd d4 3c 43 a0 57 3e 20 e2 c9 3d
       0.098671235 0.025984298 0.21057229 0.09857583
000110 5a 08 3f be 42 68 6b be e9 4c da bd af 2d ee bc
       -0.1865553 -0.2298899 -0.10659201 -0.029074518
000120 b1 2e 21 3d 65 44 8f 3c d7 c7 21 3e 45 f8 1e 3d
       0.03935117 0.017488668 0.15798889 0.038810987
000130 f3 b4 9f 3e a4 3d 5e be 9a 39 f8 bd 0b 31 32 3d
       0.3119274 -0.21703202 -0.121203616 0.043503802
000140 bb 04 75 3e c1 e3 03 be 94 8c f5 3c 1f 7a be 3e
       0.23927586 -0.1287985 0.02997426 0.37202546
000150 86 33 21 be 7f 4d a0 bd 40 76 90 be 4f 4c 8f be
       -0.15742311 -0.07827281 -0.28215218 -0.27987906
000160 f9 0c 99 3d d0 76 52 be 9d 6c 96 bc b5 4b 17 be
       0.074731775 -0.20553136 -0.018362338 -0.14774974
000170 ef 0f a5 3e df b1 92 bc f5 b8 95 3e b3 30 00 3e
       0.3223872 -0.017907081 0.29242674 0.12518577
000180 61 45 77 3e 30 80 c4 3d 95 3e a9 3d 84 26 23 3e
       0.2414756 0.09594762 0.0826389 0.15932661
000190 8a 8a c0 3d bf 9f 06 3e ff ee 19 3e f5 4d 46 3e
       0.09401424 0.13146876 0.15032576 0.19365676
0001a0 0f 59 f0 bc cb 89 08 3e 7c 48 db 3d 59 32 13 3e
       -0.029339341 0.13333814 0.10707185 0.14374675
0001b0 6f bc f9 3d e3 fc f1 bc 3e 30 e4 3d 06 5a 32 bd
       0.12194144 -0.029539531 0.11142014 -0.043542884
0001c0 3f 91 38 3d 09 b0 f8 3d a8 1a 35 3d bf b9 d1 3c
       0.045060392 0.12142951 0.044214875 0.025601266
0001d0 d5 44 de bd 77 64 af 3d a0 f7 af bc 1b e7 61 3e
       -0.108529724 0.08564084 -0.021480381 0.22060816
0001e0 3c fc f8 3d 04 06 50 bc d1 5e 4f 3a 3a 59 21 3d
       0.12157485 -0.012696747 0.0007910552 0.039391734
0001f0 91 c5 f5 3d 6a 8d 4f bc 73 f0 0a 3e be 89 c6 3d
       0.120005734 -0.012667993 0.13568287 0.09694241
000200 4c 38 7e bd 83 a5 04 bd 21 86 ae 3c e1 db ca bd
       -0.062065408 -0.032384407 0.021304192 -0.0990522
000210 13 e3 e6 bd a3 f0 28 3e 2b 67 78 3d 1f f1 17 be
       -0.1127378 0.16498046 0.060645264 -0.14838074
000220 f4 60 e2 3c e8 f8 aa 3d 77 ce aa bd e7 ab ad 3d
       0.027634121 0.08348256 -0.08340161 0.084800534
000230 4e 1b ef 3d 7d 29 45 bd 2b 25 be 3d 48 26 a3 3d
       0.1167513 -0.04813527 0.09284433 0.07966286
000240 9a 2f f8 bd e4 cf 6c 3e 67 a2 1c 3d 5c a1 49 be
       -0.12118454 0.23126179 0.038240816 -0.1969046
000250 a8 04 d0 3c 5c 3a 90 3d c2 08 6f 3e 95 61 f3 3d
       0.025392845 0.07042381 0.23343185 0.11883847
000260 fa d0 b3 bd 2f 90 0d 3e b8 1f 41 bd f8 02 8a 3e
       -0.087800935 0.13824533 -0.04714939 0.2695539
000270 d8 56 7d bd 8a 44 b5 bb 8f 80 b6 bd d0 a7 c9 3d
       -0.0618504 -0.005531852 -0.08911239 0.09846461
000280 c2 dc 08 bc fd 2a 13 3e 80 4b 13 be 86 27 9f bd
       -0.008353414 0.14371867 -0.1438427 -0.0777121
000290 bf 2e 35 bd 0f c4 49 3e e6 6b 0d be 3a bd f7 3d
       -0.044234034 0.19703697 -0.13810691 0.12096639
0002a0 ae e2 f6 3c 2f dc 88 3c 99 69 ce 3b f5 6c 3e 3c
       0.030137386 0.016706554 0.0062992093 0.011622657
0002b0 36 0f 84 3d 0e 53 81 3c 9b cc 0b 3d eb 91 11 bd
       0.06448214 0.015786674 0.034130674 -0.03553955
0002c0 49 33 2f b9 b1 22 6d bc 1a b9 99 3d 5c 44 b8 3d
       -0.00016708406 -0.014473603 0.075060084 0.089974135
0002d0 68 79 29 bd af 84 29 3d 99 5d 44 bd cf d3 07 bd
       -0.041375548 0.041386303 -0.047940824 -0.03316098
0002e0 b5 01 86 bd 11 5f 5b 3e 04 61 c1 3c 1c ec c7 bb
       -0.06543294 0.21422984 0.023605831 -0.0061011445
0002f0 fd dc ec 3c 78 7c 40 3d 64 1e 38 3e 69 0c 36 3e
       0.02891397 0.046993703 0.17980343 0.17778172
000300 78 34 42 be bf 90 d8 3d d6 42 91 bc e7 22 82 3d
       -0.18965328 0.10574483 -0.017732065 0.06354313
000310 02 09 c0 bd 9b 40 0b be 8e 1c d9 3d ec 0c b8 3d
       -0.09376718 -0.13598864 0.106011495 0.0898684
000320 47 0b 44 3d 85 48 7c be 33 f2 c1 3d 02 ae b4 3d
       0.047862317 -0.24637039 0.09470024 0.08822252
000330 53 81 f7 3d 9e ec 4f bd d7 f0 12 be 58 68 e4 3d
       0.120852135 -0.050762765 -0.14349686 0.111527145
000340 8d 14 47 3e 08 38 56 be 0f 54 40 be ce 75 9e 3e
       0.19441433 -0.20919812 -0.18782066 0.30949253
000350 53 8c 52 be 79 c8 a6 ba 5e 15 c6 bd 7a 34 39 be
       -0.20561342 -0.001272454 -0.09672044 -0.18086424
000360 62 06 e2 bd 04 f6 87 be 4f 9f c7 3d c9 a3 11 bc
       -0.11036374 -0.26554883 0.097471826 -0.008889147
000370 5a 2f 6d 3e 65 14 5d be 2c e7 60 3e 94 4d 54 3d
       0.23162594 -0.21589811 0.21963185 0.051831797
000380 6d 0f 09 3d ca 07 a2 3d 29 5c 45 3e 82 76 d0 bd
       0.033461977 0.07911642 0.19273438 -0.101788536
000390 fb 4a 8c 3e b9 f0 10 bd 33 01 84 bd c4 6a 1a bc
       0.27400956 -0.03538582 -0.06445541 -0.009424869
0003a0 9b 8e a6 bd 13 a1 46 3c 15 cc b6 3d d1 27 f8 3d
       -0.081326686 0.012123364 0.08925644 0.121169694
0003b0 92 3f 1a 3e 63 70 b6 bd 55 e7 29 3e 16 ed 2f 3e
       0.15063313 -0.08908155 0.16592152 0.17180285
0003c0 19 ee a1 3d ae 49 20 bc 19 4e 12 3e 3e eb 94 3d
       0.07906742 -0.009783192 0.14287604 0.072714314
0003d0 08 d6 d9 bd c1 bb 68 3e 8e 97 32 3e 43 bc 37 3c
       -0.10636526 0.22727872 0.17440626 0.011214319
0003e0 2d 4d 4b 3e 51 ca 54 bc cc 61 5d be 75 38 1e 3e
       0.19853659 -0.012987689 -0.21619338 0.15451224
0003f0 cc 1f c3 3d 19 36 a5 bd d0 ba 00 3e bd 69 62 3e
       0.09527549 -0.08066959 0.12571263 0.22110648

transformer_encoder.layers.0.self_attn.in_proj_bias f4 [192]
000000 bc 1f 8b 3b 35 a3 a9 3d 7e 43 66 3d a4 99 9a 3d
       0.0042457264 0.082830824 0.05621671 0.07548836
000010 da 19 97 bd 88 ec bf bd 9b b9 4f bd 83 9f 81 bd
       -0.07377978 -0.09371287 -0.050714117 -0.063292526
000020 ae 66 e6 3d 26 4c 90 3c a9 e8 0f 3d ca f5 d7 bb
       0.11250053 0.017614435 0.03513399 -0.0065905796
000030 ff 70 29 bd 24 bd a4 3d e0 3e 9a 3d 6d 58 da bb
       -0.041367527 0.08043888 0.07531524 -0.006663373
000040 da 3b 0f be 1a 4b 76 3c d0 1c d0 bc b4 51 c4 bd
       -0.13987675 0.015032554 -0.025404364 -0.09585896
000050 cf fb 8b 3d 6c cb 18 3d b9 7c 58 bc be 17 92 bc
       0.06835138 0.037303373 -0.01321333 -0.017833587
000060 96 2a 15 be 81 cb bb 3d 27 63 ba bd aa a4 aa 3d
       -0.14567026 0.09169675 -0.09100943 0.083321884
000070 00 14 57 3d 02 dc 8f bb bc 49 fc 3c 7b a8 f1 bd
       0.052509308 -0.0043902406 0.030796878 -0.11799713
000080 d3 ae 94 bd 4a 49 a4 bd 10 26 83 3d b8 e3 35 bb
       -0.072599076 -0.08021791 0.06403744 -0.002775414
000090 9a 49 09 3c 77 a1 39 3d ee 3d 95 bd 0b 03 ed bc
       0.008379364 0.04532 -0.07287203 -0.028932115
0000a0 4e d9 88 3c 35 ca 68 3c 3d c5 87 3d d4 e7 1e 3c
       0.016705181 0.014208366 0.06629417 0.009698827
0000b0 ee 13 bf 3d b3 2e b5 bc d3 8b 50 3c 96 10 76 bb
       0.09329973 -0.022116994 0.012728649 -0.0037546507
0000c0 38 39 ca bd c3 c4 0c 3b 49 d6 d7 bd c2 52 54 3c
       -0.09874195 0.0021479584 -0.105389185 0.012959184
0000d0 ae 19 75 3d 22 64 f1 3d 14 07 82 bd aa 01 a7 bc
       0.059838943 0.11786677 -0.06349006 -0.020386536
0000e0 44 20 30 3d ef 41 3e 3c 1f 28 ed 3d ca 6a 93 3d
       0.04299952 0.0116123995 0.11579918 0.07198103
0000f0 79 99 b2 bb 7f f1 01 bd bf bb 00 bd e3 ed ce 3d
       -0.0054504243 -0.03172445 -0.03142905 0.10103967
000100 95 bc ca bd 93 0b 67 3d f1 c2 77 3d 05 bc 39 bd
       -0.098992504 0.056407522 0.060488645 -0.045345325
000110 1d 9d e0 bd 25 cf b8 bd 7b 33 11 bd 10 83 8b 3d
       -0.10967467 -0.09023885 -0.035449486 0.068121076
000120 d7 b5 7a 3d d4 65 ec bd 8d 08 62 3d 41 cd d4 3d
       0.061208572 -0.1154286 0.055183936 0.103907116
000130 2d 4c e8 bd de 84 c3 3d ad 56 82 3d 96 f7 10 3d
       -0.113426544 0.09546827 0.06364188 0.035392366
000140 bd 21 c5 bb 8c 5a a3 3d 5d ca 41 3d ca 33 c6 bb
       -0.006015985 0.07976255 0.04731213 -0.006048654
000150 ba d3 0e bb 03 7e 80 3d 44 9f 38 bc 75 6e 53 bc
       -0.002179368 0.06274035 -0.011268441 -0.012904753
000160 ed dd 7c 3c ae ee 94 3c a7 21 60 bc ca 41 84 3b
       0.015433771 0.018180218 -0.013679898 0.004036163
000170 dc 26 04 bc 81 d0 71 bc 72 63 09 bc 54 44 4b bc
       -0.008065905 -0.014759184 -0.008385526 -0.012406427
000180 8e 3d 70 bd 59 c9 8c bc 35 df 2a 3d 65 a8 14 3d
       -0.058652453 -0.017185854 0.041716773 0.036293406
000190 11 24 b1 3d e3 59 1f 3c 06 e4 25 3c 75 0e 23 3b
       0.08649457 0.0097260205 0.010125166 0.0024880443
0001a0 c7 ab bd 3c 06 7e 2d bd 51 0e cf 3c b2 c4 c3 3c
       0.023153199 -0.042356513 0.025275381 0.023897503
0001b0 3f 30 46 3c f6 60 2f bd 7b 39 3a bc 2e 0c 85 bc
       0.012096464 -0.04281708 -0.0113662435 -0.01624116
0001c0 8e 57 3c 3e 6a 50 86 bd 04 34 80 3d 1b e3 2f bd
       0.18392774 -0.065583065 0.06259921 -0.042941194
0001d0 e5 30 ff bc d4 f6 36 bd 87 38 a2 3c 95 a5 0c 3d
       -0.031151244 -0.044668987 0.019802345 0.0343376
0001e0 05 f9 9a bd 03 dd 0a bd e9 92 cd bd 06 f0 3a bd
       -0.07567028 -0.03390218 -0.100377865 -0.04563906
0001f0 3e 7c 2b bd 52 ea b4 3d 71 35 d0 3d 05 c2 6a bd
       -0.041866533 0.088337556 0.10166443 -0.057313938
000200 18 3d 06 3d 97 48 58 3d e6 58 df 3c 7e db e9 3c
       0.032773107 0.052803602 0.02726407 0.028547045
000210 98 4a 64 bb 11 23 2a bd 62 b3 32 3d a8 b3 e5 bd
       -0.00348345 -0.04153735 0.043628104 -0.11215907
000220 f3 ac cb bc a1 62 6c bd 60 96 c4 bc ca 71 80 3c
       -0.024862742 -0.057711247 -0.023997486 0.015679259
000230 85 e2 49 bd 53 e3 8e 3c ec fd 25 bd 25 77 9f bc
       -0.04928829 0.017442381 -0.040525362 -0.019465992
000240 46 64 a0 3d f3 66 0d 3d a1 27 aa 3c 03 c2 0c bd
       0.07831626 0.03452201 0.02077085 -0.03436471
000250 47 4b 72 3c c0 d9 ed bc 5b 08 37 3d 16 22 33 bd
       0.014788455 -0.029034495 0.044685703 -0.04373368
000260 3c 06 36 bd c5 2f 1a 3d bf 2e 78 bc 44 8f 5b 3d
       -0.04443954 0.037643213 -0.015147864 0.053603426
000270 9a 0d 26 3c d3 ad da bc 3a 7b 15 bc be f0 f9 3c
       0.010135079 -0.026694214 -0.009123618 0.030510303
000280 2f ae a2 bd 47 04 5b 3d 86 c4 03 bc fc 54 59 bd
       -0.07943379 0.053470876 -0.00804246 -0.053059563
000290 0a b0 a7 3c 21 ff 91 3c 99 8c a4 bd f6 d3 00 3d
       0.020469684 0.01782185 -0.080346294 0.03145214
0002a0 06 af 6b 3b e0 f2 11 3d 7b 35 07 bb e8 0c 0b bc
       0.0035962476 0.035632014 -0.0020631242 -0.008486964
0002b0 c2 ea f2 bc 65 ef 86 3c cf e3 8c 3c d2 b2 8d bd
       -0.029652957 0.016471574 0.017198471 -0.06918873
0002c0 25 a3 66 bd 5e 27 78 3b 89 65 38 3d 77 fa 8a 3d
       -0.05630793 0.0037865262 0.045018706 0.06786054
0002d0 37 62 dc bc 9f e7 15 bd c0 bd 32 bd ea b1 99 3c
       -0.026902301 -0.036597844 -0.04363799 0.018761594
0002e0 42 6d a6 bc 68 f3 47 3d fd c9 6a 3c 2b cf c8 bc
       -0.02031577 0.048816115 0.014330384 -0.024512848
0002f0 15 b2 8f bc 35 ec 4c 3c 56 1a 11 bd 0f d7 65 3c
       -0.01754097 0.012507488 -0.035425507 0.014028325

transformer_encoder.layers.0.self_attn.out_proj.weight f4 [64, 64]
000000 0a 83 4a bd 86 48 80 3d 3f d8 ef bc 37 08 a9 bd
       -0.049441375 0.06263833 -0.029277919 -0.0825352
000010 da 9a cb 3c 13 12 aa 3d 7c 11 91 3d aa 6b 44 3d
       0.024854112 0.08304229 0.07083413 0.04795424
000020 2a 8d b6 3d b8 a3 c0 bd 97 f8 9b bc d3 d6 49 3c
       0.08913644 -0.09406227 -0.019039435 0.0123192845
000030 2f d1 06 bd 65 fd 94 3d ad 46 c9 3d e9 48 f9 3d
       -0.032914337 0.07274894 0.098279335 0.1217211
000040 bf 1c 62 bb a9 2c db bd b8 60 8e bb 6c 90 16 3e
       -0.0034501997 -0.107018776 -0.004345026 0.1470353
000050 02 45 ec 3d f5 bf 2f 3d 6a 95 54 bc 18 fb 66 bd
       0.115366 0.042907674 -0.012975076 -0.056391805
000060 41 1d 9a 3d 82 81 f0 3d 20 28 7c bb e6 e6 08 bd
       0.07525111 0.11743452 -0.0038476065 -0.033423327
000070 96 e2 27 3e 8d 9a 12 3e c8 84 af bd e9 3a 55 3d
       0.1639503 0.14316769 -0.08570248 0.052058134
000080 b0 e5 8c 3d 4f e3 28 be ed 17 91 3d f0 d1 46 3d
       0.06879747 -0.16492961 0.070846416 0.048540056
000090 c2 73 df 3d ca 2a 0a be 5e f6 15 3e cc 2c 74 3d
       0.10910751 -0.13492885 0.14644763 0.059613034
0000a0 c6 81 01 be f2 04 f3 bc 2a a6 75 3c cd f9 ea bc
       -0.12647161 -0.029665444 0.01499323 -0.028683567
0000b0 dc 65 56 3e 67 c2 db 3c 45 a4 68 bd 68 20 b4 3d
       0.20937294 0.026826097 -0.056797285 0.087952435
0000c0 98 af 2a be a1 ad 17 be ef 13 28 be ac 38 32 be
       -0.16668546 -0.14812328 -0.16413854 -0.17404431
0000d0 87 38 43 3d 79 62 f6 3d 60 7a fc bd 7d ee b9 3d
       0.04766133 0.12030501 -0.12328029 0.09078691
0000e0 98 69 db bc 3c 36 82 bd 5c db ac 3d fa e8 ed 3d
       -0.02678375 -0.06358001 0.08440277 0.116167024
0000f0 cd 61 41 3d 5e 43 41 bd 97 a9 8a bd 8a 4c be bb
       0.04721241 -0.047183387 -0.06770628 -0.005807464
000100 3f 78 8e 3d 4b 48 33 3c 16 13 2f 3e 90 3e 32 3e
       0.06956529 0.010942529 0.17097124 0.17406678
000110 56 8d dc 3d 27 0d 23 be 11 a6 d6 3d 93 9c 69 bd
       0.10769145 -0.15922986 0.104808934 -0.057034086
000120 94 3c 23 bd ad ef a4 3c c6 c3 33 bc e9 0c 20 bd
       -0.039852694 0.020133818 -0.010971969 -0.039074812
000130 d6 29 ad bb aa 53 d9 3d ae 35 30 be af 28 3f 3d
       -0.0052845282 0.10611661 -0.17207977 0.04666966
000140 a5 ee 84 3d 40 ef af 3d 6e 95 90 3d f5 17 82 bd
       0.0649083 0.08590555 0.070597515 -0.06352226
000150 ed 91 98 3d 25 d8 17 3e 44 e8 da bc e0 14 03 be
       0.07449708 0.14828546 -0.026722081 -0.12800932
000160 77 b5 3c bd 75 c4 e8 3d 01 0e 32 bd c6 12 ea 3d
       -0.046071496 0.11365596 -0.043470386 0.11429362
000170 c3 e8 21 3d 79 95 87 3d 7e 69 15 be a9 ce d0 3d
       0.03952862 0.066203065 -0.14591023 0.10195667
000180 76 cc 07 be 4d d6 49 bb 02 9e 33 3d f1 3e 12 ba
       -0.1326159 -0.00307979 0.04385186 -0.0005578837
000190 da 5a 7a bc 0a a6 0d 3e 86 a3 e0 bd 25 c7 52 bd
       -0.01528045 0.1383287 -0.109686896 -0.05145945
0001a0 6b 31 e2 3c 96 3f 9b bb 68 74 ad bc b4 bc 56 bd
       0.027611455 -0.0047378046 -0.02117367 -0.052426055
0001b0 5c ce 0b be 4e f1 16 be ed 81 07 3e 5e 51 db bd
       -0.13652939 -0.14740488 0.13233157 -0.10708879
0001c0 1f 3b ad bd ed 6e 6c bd 7a c9 f0 3d b7 ec 21 3e
       -0.08458542 -0.057722975 0.117571786 0.15812956
0001d0 62 73 94 3d ed 9e f6 3c 67 f8 ea bb 80 15 e9 3d
       0.0724857 0.030105079 -0.007170725 0.11381054
0001e0 b6 4e 65 3c 5d 22 de 3d 28 de 3f 3d 89 50 e2 bd
       0.013995817 0.10846398 0.046842724 -0.11050517
0001f0 47 ce 35 3d 3e 58 52 3d 23 7b 65 bd 07 89 16 b9
       0.044386175 0.051353686 -0.056025635 -0.00014356161
000200 6c 8b 81 3d e3 27 d6 3d e1 f9 a3 bc 7c b8 7e 3d
       0.06325421 0.104568265 -0.020016612 0.062187657
000210 6c 75 68 bc 6c be 1f be 87 74 40 3e 93 a0 5f be
       -0.014188152 -0.15599984 0.18794452 -0.21838598
000220 43 10 8d bd e3 b9 13 bc 16 63 dc bd 6b 92 f9 3c
       -0.06887867 -0.009016487 -0.10761087 0.030465325
000230 26 ff de bd 27 c6 7a 3d 0c f5 23 be 8c 5b 33 be
       -0.108885095 0.06122413 -0.16011447 -0.17515391
000240 2a ec cc 3d 92 cd b6 3d 91 02 c0 3d 92 e3 ad bd
       0.10005982 0.08925928 0.093754895 -0.08490671
000250 74 6b e4 bd 4b a0 83 3d 2b ad 7d 3d be 61 f5 bd
       -0.111533076 0.06427058 0.061932724 -0.119815335
000260 bc 23 04 be 0d a9 6e 3d 14 9e d0 bc fd 82 e0 3d
       -0.12904257 0.05826669 -0.025466003 0.10962484
000270 cb 7c d5 bc 08 16 e3 3c b5 d7 2d bc 62 67 3d 3d
       -0.026060482 0.027720466 -0.010610511 0.04624117
000280 1b 9d 7b bc 1b a7 3d 3e a1 be 36 be 9a 3c d3 bd
       -0.015357281 0.18520777 -0.17846157 -0.10314293
000290 27 dc c8 bd 72 ae db 3c 73 65 ff bd e9 39 e1 3d
       -0.09807616 0.02681658 -0.12470522 0.109973736
0002a0 c4 59 3d 3d 05 06 a6 bd 60 77 1f 3d 86 f3 cf bc
       0.046228185 -0.08106617 0.038932204 -0.025384676
0002b0 26 27 28 3d b6 e3 0b be c1 19 12 bd 93 4d e3 bc
       0.04105296 -0.13661084 -0.035669092 -0.027746951
0002c0 c1 61 d4 bd 55 a5 29 bd 1c a2 ec 3d f6 f2 28 3e
       -0.103702076 -0.04141744 0.115543574 0.16498932
0002d0 38 37 ec bd 96 55 3b bd ce c4 c2 bd f8 29 d1 3d
       -0.1153397 -0.045735918 -0.09510194 0.10213083
0002e0 1b da 15 3e b0 b4 fd 3d 84 28 75 bd 09 5a 30 be
       0.14633982 0.12387979 -0.05985309 -0.17221846
0002f0 0c 7a 96 bd 64 97 9e 3d e5 63 a2 bc 1c 3c 5d 3e
       -0.07347497 0.07743719 -0.019823024 0.21604961
000300 16 6a a4 3d 87 a2 72 bc aa 85 79 bd 30 8b 19 bd
       0.08028047 -0.014809257 -0.060918488 -0.037486255
000310 5c ef 88 bc 3d 0d 2a 3c b1 dc f1 bc 29 ba 8d bd
       -0.016715698 0.010379133 -0.02952418 -0.06920273
000320 f0 98 a7 bc 72 4a 12 bd 1b 76 69 bc f6 9c d9 3d
       -0.020458668 -0.035715528 -0.01424935 0.10625641
000330 42 0e 85 bd 92 70 c2 bd e5 77 01 bc 70 44 8a bc
       -0.0649686 -0.09494127 -0.00790212 -0.016878337
000340 46 9d d0 3d a3 95 f4 3c fa 00 b7 ba d0 97 f9 3d
       0.101862475 0.029856509 -0.0013962083 0.12187159
000350 20 09 b2 3d 8f 68 ac bd 38 7f c8 3d 85 b4 63 3d
       0.08693147 -0.084183805 0.0978989 0.05559208
000360 4e 19 0a be 38 de 55 3c c0 73 8f bd 3e 3d 04 be
       -0.13486215 0.013053469 -0.070044994 -0.12913987
000370 6b fc bd bb b7 f4 c8 3d e4 1b 4b 3d 1a ae e5 3b
       -0.005797913 0.09812301 0.049587145 0.00700928
000380 44 61 92 3d 0f 6f 8f 3c d5 81 1f bd c7 8d 99 bd
       0.07147458 0.017509012 -0.038942177 -0.07497745
000390 2a ff 19 be cd 04 01 bc ae e5 a6 bd 5a 6a 2a 3d
       -0.15038744 -0.00787468 -0.08149277 0.04160533
0003a0 f3 7a 4d 3e ce 98 94 3d fa b1 f7 3d d9 13 b9 3b
       0.20066433 0.07255708 0.12094493 0.005648118
0003b0 14 30 e0 3d 58 69 f3 3c 5d 14 f8 bd 58 13 98 3d
       0.1094667 0.029713318 -0.12113259 0.074255645
0003c0 a9 7e 6a bd de 89 98 3d a0 97 90 bd 4f 5a 0d 3d
       -0.0572497 0.07448171 -0.0706017 0.034509953
0003d0 d9 71 b2 3d ad d7 16 3b 06 94 34 3d 9a 53 39 bd
       0.08713121 0.0023016736 0.04408648 -0.045245744
0003e0 60 91 c3 bd 4f 48 5a bd a4 7d ed bd f7 b5 f8 3d
       -0.095492125 -0.053291615 -0.1159623 0.12144082
0003f0 80 29 e5 3c f2 4a a7 3c 0f b0 0f be f7 02 97 bb
       0.02797389 0.020421479 -0.14032005 -0.0046085077

transformer_encoder.layers.0.self_attn.out_proj.bias f4 [64]
000000 11 25 39 bd c9 71 8e 3d b1 64 93 3d d0 b4 06 bd
       -0.045201365 0.069552965 0.0719694 -0.03288728
000010 a2 cb 8c 3d b1 d1 38 3d a3 f8 31 bd b5 3c 90 bc
       0.068747774 0.045121852 -0.04345001 -0.017607072
000020 9b 2d 87 3d 93 e4 58 3d c4 b0 c6 3b 5c 4e 25 bd
       0.066004954 0.05295236 0.0060635526 -0.040357932
000030 39 16 7c 3d e8 8e de 3c ad 7b 7a bc ca 6c d3 3c
       0.06154463 0.027167752 -0.015288276 0.02580871
000040 bb 90 1e 3d 11 04 46 bd db e7 86 bd 42 d7 63 3d
       0.038712244 -0.04834372 -0.06587192 0.055625208
000050 36 cf 4f bd b7 0d bb bc 5f 90 5f bc 7b ff 8f bc
       -0.05073472 -0.022833688 -0.013645261 -0.017577877
000060 22 2b c4 bb 75 d6 2b bd 21 b9 7f 3b 9d a5 8d bd
       -0.005986587 -0.04195257 0.0039020258 -0.06916354
000070 36 3c 1d 3c 67 25 5b bc 2e dd f1 bb 7c d6 2e 3d
       0.009596875 -0.013375617 -0.007381103 0.042685017
000080 7e 8c 62 bd ed 48 6b bc b1 bc d5 bc 1e 19 d4 ba
       -0.055309765 -0.014360649 -0.026090952 -0.0016181802
000090 b3 ca a3 3c f6 12 93 bd 5e c3 57 3d c4 bf 65 3d
       0.019994115 -0.07181351 0.05267655 0.056091085
0000a0 7a 62 27 3c b0 61 a0 b9 b6 1a 7f bd 71 35 09 3c
       0.01021635 -0.0003059036 -0.062281333 0.008374558
0000b0 b7 19 8a ba 71 a9 32 bd 20 98 d7 bc bb 40 86 bd
       -0.0010536228 -0.043618623 -0.026317656 -0.06555315
0000c0 1c 69 f9 bc 96 54 94 bd b1 5a 13 bd e8 f8 06 3d
       -0.030445628 -0.07242696 -0.035975162 0.03295222
0000d0 17 06 c8 bc 34 1d 2f bd 24 5d 23 bd 71 12 d4 bc
       -0.024416966 -0.04275246 -0.039883748 -0.0258877
0000e0 e4 ff 72 bb 49 95 23 bd ef 60 7e bd 64 15 37 3d
       -0.0037078792 -0.03993729 -0.06210416 0.044698134
0000f0 a1 96 2f bd 6d 15 26 3d 5e 3d 82 bc 4b a0 3a bd
       -0.04286826 0.040547777 -0.015898403 -0.045563024

transformer_encoder.layers.0.linear1.weight f4 [512, 64]
000000 d7 6f d6 bd 2d d9 6e 3b cb 20 27 be eb 39 c1 bd
       -0.104705505 0.0036445365 -0.16321103 -0.09434875
000010 96 55 b0 3d 2a 0a 8b 3d 8e da de bd 12 33 cf 3d
       0.08610074 0.06789048 -0.1088153 0.10117163
000020 bb 7d d9 bd 52 f8 b8 bd 1d 89 bc bd 8a 25 d2 3d
       -0.10619684 -0.09031738 -0.0920584 0.10261066
000030 ac 98 e3 bc 96 ca 69 ba b4 27 38 bc 36 91 90 bd
       -0.02778276 -0.0008918432 -0.011239935 -0.07058947
000040 7a 2a 8a bc ad c3 cd bd 55 a2 ae bc 5a d5 b7 3d
       -0.016865958 -0.10047088 -0.02131764 0.089762405
000050 94 de ce bc f6 85 6d bd 16 37 9d 3d 04 99 d9 3d
       -0.025252618 -0.057989083 0.076765224 0.106248885
000060 ad 54 ab 3d 9e 6f 24 3d c3 e0 c5 3c bb 1a 9a bd
       0.0836576 0.04014551 0.024155026 -0.0752463
000070 83 93 d8 3c 99 c7 a9 bd 68 dc 34 3d e0 ce cd 3d
       0.026437527 -0.08290023 0.04415551 0.10049224
000080 02 66 2b 3d 8b 9c 4c bd b7 54 96 3d c6 ad 9d 3d
       0.04184533 -0.04995398 0.07340377 0.0769916
000090 78 42 0e be 45 dd d4 bc b3 06 9b bd 05 12 84 3c
       -0.13892543 -0.025984416 -0.07569637 0.016121874
0000a0 e0 e3 fb bd b5 fd cc bd c2 35 c7 3d 6d 5f ca bd
       -0.12299323 -0.10009328 0.0972705 -0.09881482
0000b0 80 4f ba 3d 1b a4 49 3c bb a6 80 bd fe f2 30 3d
       0.09097195 0.012307192 -0.06281801 0.043200485
0000c0 a2 c5 22 3d 4d cc 80 3d a6 a6 e0 3b c8 15 cd bd
       0.03973926 0.06288967 0.0068558035 -0.1001392
0000d0 0e cc ec bc be 09 cb 3d 17 53 0a 3e 2b 7d d8 bc
       -0.028905895 0.099139675 0.13508259 -0.026426872
0000e0 1a ca 91 3c ea 9c ab bc 96 47 11 3d 96 8c a5 3d
       0.017796565 -0.020948846 0.03546866 0.08083455
0000f0 f1 0d fd 3d 79 e4 e8 3b 02 11 f5 bd a8 f1 21 bd
       0.12356175 0.007107314 -0.119661346 -0.039537102
000100 4f 80 c4 3c 6a e1 2d 3d ef 3a 2a be a3 17 fe bc
       0.023986964 0.0424513 -0.16624044 -0.03101713
000110 ba 5c 9d bd e4 56 f5 ba 4f 74 aa 3d 56 94 d5 bd
       -0.07683702 -0.0018717912 0.08322965 -0.104286835
000120 e5 79 60 bd 4a 49 60 be ed 25 13 be e4 68 74 3d
       -0.054803748 -0.21902958 -0.14369936 0.059670344
000130 99 8e 05 be c6 da 92 bd c4 63 68 3d 1b 81 4f 3b
       -0.13042678 -0.07170634 0.05673577 0.0031662646
000140 eb 10 88 3d 2c 85 1a 3d 20 f7 f5 bc a5 29 c9 ba
       0.06643852 0.03772466 -0.030025065 -0.0015347494
000150 f4 85 e1 bc 85 17 af 3d e8 59 a1 bd 05 19 a6 bd
       -0.027529694 0.08549408 -0.078784764 -0.08110241
000160 4d 70 52 3c f6 ab 9a 3d b6 75 99 3a 82 df 05 3e
       0.012844157 0.0755233 0.0011708054 0.13073543
000170 0b bb b1 bc 7a da 97 bc 64 f4 9f bd da 48 a9 bd
       -0.021695634 -0.018536795 -0.07810286 -0.082658485
000180 eb f7 80 bd 8f b7 fc 3c 9d c6 28 3c 74 9a be 3d
       -0.062972866 0.030849246 0.010301259 0.09306803
000190 1b 78 1a be ee bf 8a bb a1 82 e2 bd 1f a1 cc bd
       -0.15084879 -0.0042343056 -0.11060072 -0.09991669
0001a0 f8 f2 cf 3d 92 54 a0 3d 0a 4d 37 3e ad 8b 0e bd
       0.101537645 0.078286305 0.17900482 -0.034801174
0001b0 31 19 56 bd 4a b1 e9 3d 9f f5 90 bd 87 26 bf 3d
       -0.05227012 0.11410768 -0.070780985 0.093335204
0001c0 bc 00 ec bd b9 6d 9b bd 33 7a 2b bc 9b f5 3d bd
       -0.115235776 -0.07589287 -0.010466146 -0.046376806
0001d0 fa ba 0d 3e bd 58 8b 3d d8 9d 86 bd 0c ab d4 bb
       0.13840857 0.06804035 -0.06573075 -0.006490117
0001e0 9c f4 bb bd bc 23 b3 3d 29 7a d6 3d 6c 2e e5 bd
       -0.09177515 0.0874705 0.10472519 -0.11190495
0001f0 94 5c be 3d 08 b1 95 3d a7 e0 d0 bd 17 49 3b bd
       0.092950016 0.07309157 -0.10199099 -0.045724
000200 c7 82 81 bd a0 ee 0d bd a7 40 29 be 82 b4 7b bd
       -0.06323772 -0.0346514 -0.16528569 -0.061451443
000210 0c e3 eb bd 0f 60 0e be 50 c5 95 bc 7d d9 da bd
       -0.11517915 -0.13903831 -0.018282562 -0.10686014
000220 66 6d d6 bc d7 3d b7 3c 89 09 ab 3c 7d 3d 35 bd
       -0.026175212 0.022368355 0.02087857 -0.044248093
000230 23 a4 6d bc 5a 50 a2 bc 7a 3d 18 3e 0c dc ac bd
       -0.014504465 -0.019813705 0.14867201 -0.08440408
000240 ae 6c 78 3d ab 74 0f 3e fb d9 02 3d 35 d3 05 bd
       0.06065052 0.14009349 0.031946164 -0.032672126
000250 ec 3b 18 bd 38 9d d7 3d 64 4b e8 3d eb b3 93 bd
       -0.03716652 0.10528034 0.113425046 -0.07212051
000260 98 5f 18 3c b6 58 5f bd 4a 85 b2 bb cb 28 36 3d
       0.009300135 -0.05452796 -0.005448018 0.044472497
000270 fc 48 ce 3d c3 2d b6 3d fe ff 7b bd 5d d8 c5 bc
       0.100725144 0.08895447 -0.06152343 -0.024151022
000280 84 2b b7 3d 56 0a 93 bc 46 21 dc 3d db b5 9d 3d
       0.08943847 -0.017949264 0.10748534 0.07700702
000290 ae d9 f9 bd 49 c5 9c bd 57 20 a2 bd 16 96 b3 bd
       -0.12199722 -0.07654817 -0.079163246 -0.08768861
0002a0 7c 42 c8 bd 1d b1 fc 3c 02 97 f3 3d 7c 73 17 bd
       -0.09778306 0.030846173 0.11894037 -0.03697537
0002b0 74 01 d6 3d eb 26 8a 3d 70 9f d1 bc 11 71 8d 3d
       0.10449496 0.06745704 -0.025588721 0.06906331
0002c0 3d 9f aa 3b 88 b2 08 3e b9 c7 26 bd 1d 25 fb bd
       0.005206971 0.13349354 -0.040717814 -0.12262938
0002d0 10 06 15 3d b5 37 1b 3c ad df 7b 3d fd 7e c7 bc
       0.036382735 0.009473731 0.06149261 -0.024352545
0002e0 2b f5 63 bd fa e6 d9 3d a1 21 02 bd 7a 26 18 be
       -0.055653732 0.106397584 -0.031770352 -0.14858428
0002f0 53 a0 0c 3e 9b 1e 09 3d 8b 0b 57 3c f2 04 67 bd
       0.13733034 0.033476453 0.013125311 -0.0564012
000300 89 cb 27 bd 33 84 fa 3d 09 67 a9 3d 6a 4f 96 bd
       -0.04096559 0.12232246 0.082716055 -0.07339366
000310 26 75 f0 bc 75 6c 56 bc 88 f0 dd 3d 2e 8d 82 3c
       -0.029352736 -0.013087382 0.10836893 0.01593646
000320 1e 64 b7 bc 40 c7 20 be 24 bc 9e bd 74 3b 04 3e
       -0.022386607 -0.15701008 -0.07750729 0.12913305
000330 8d 11 98 bd 39 2c 69 bc d8 f5 30 3d af 27 15 3b
       -0.074252225 -0.014231735 0.043203205 0.002275925
000340 b6 f0 e2 bd e3 0d 94 3d 5a ad 19 bd b4 d0 af bd
       -0.11081068 0.07229211 -0.037518837 -0.08584729
000350 e6 65 2d 3c 0f 56 9b bd 81 cb 27 3c 04 1d 77 3d
       0.0105833765 -0.07584774 0.01024139 0.060330406
000360 20 fa 3a bc 2c 96 45 3c 3d 81 98 3b 92 cc c0 bd
       -0.0114121735 0.01205973 0.0046540783 -0.09414019
000370 e2 cf c6 3d c6 eb 36 bd 4e f9 55 bc 0b bd 64 bd
       0.09707619 -0.044658445 -0.013059927 -0.055844348
000380 cb 40 4a 3d 05 d8 d8 bc b3 91 d7 3d 4b 83 5f bd
       0.049378198 -0.026470194 0.10525837 -0.05456857
000390 c6 4b 3c 3d 90 ba 85 bd 6f d7 b4 3b 91 54 15 3d
       0.0459707 -0.065297246 0.0055188457 0.036457602
0003a0 b7 7e 4b 3c b6 77 8f bc 37 3c 87 bd dc 3a 84 3d
       0.012420348 -0.017513137 -0.06603282 0.06456539
0003b0 83 f2 48 bc 44 9b d4 bc 24 aa 24 3e 84 66 1e bc
       -0.012264851 -0.025952943 0.16080528 -0.009667996
0003c0 76 aa 5c 3c c1 1b b2 3d eb 29 80 3d b9 bb 5d 3d
       0.013468375 0.086967 0.06257995 0.054134104
0003d0 a6 5b c7 bd d9 fc 9a 3d ee 05 85 bd 90 72 43 be
       -0.097342774 0.07567758 -0.064952716 -0.19086671
0003e0 07 09 88 bd 42 88 9b bd 09 0f ba bd 85 88 27 be
       -0.06642347 -0.075943485 -0.09084899 -0.16360672
0003f0 84 76 4e 3d e3 86 10 be 78 fd 47 bd 1e 3c 1f be
       0.050405994 -0.14113955 -0.04882571 -0.15550277

transformer_encoder.layers.0.linear1.bias f4 [512]
000000 87 f5 55 3b 49 b1 23 bd f2 2f 08 bd 5d f0 6b be
       0.0032647566 -0.039963994 -0.03324885 -0.2304091
000010 da 87 19 bd 5f ef 31 be be fb e5 bd 3e 59 5c be
       -0.037483074 -0.17376469 -0.11229657 -0.21518418
000020 d9 33 3c be 03 51 34 bd ca 7b 6b 3d d2 23 6a bd
       -0.18379153 -0.04402257 0.0574911 -0.057163067
000030 38 93 9d bd 25 c3 0f be 40 7a e2 bc b1 c8 56 be
       -0.076940954 -0.14039285 -0.027646184 -0.20974995
000040 ff 17 f4 3c a3 ca 15 be 06 e0 ed 3c 2c e1 33 3c
       0.029796598 -0.14628081 0.029037487 0.010978978
000050 da 40 65 bd 93 cb 09 bd e7 dd 39 3d 43 34 bd bd
       -0.05597005 -0.03364141 0.04537764 -0.09238484
000060 20 44 5b be a0 b2 cf bd de df 24 be bc 83 22 bd
       -0.21412706 -0.10141492 -0.16101024 -0.039676413
000070 dd 1a b4 bc b3 6a dd bd 8d 39 4c bd 9a b1 8f bd
       -0.021985466 -0.10811367 -0.049859572 -0.07016297
000080 25 e1 02 be bc f9 80 bc 7e 74 24 be 4e 7f 2a be
       -0.12781198 -0.015744083 -0.16060063 -0.16650125
000090 44 3e d0 bd 84 69 2c be c3 3a b3 3d 95 21 ab 3c
       -0.10168126 -0.16837126 0.08751442 0.020890037
0000a0 fa 4f 17 be 39 d5 d3 bd 98 ad 1e be 02 88 11 3d
       -0.14776602 -0.10343403 -0.15495908 0.035530098
0000b0 3f 75 c8 3c a1 95 10 be ff 30 6e bc a3 be 14 be
       0.02446997 -0.14119579 -0.014538049 -0.14525847
0000c0 54 75 d4 3c 43 36 03 bd 61 10 01 be 8b 81 64 3d
       0.025934853 -0.03203417 -0.12603904 0.055787604
0000d0 98 28 c4 bd 6f 64 1f be 53 cb 79 bc e0 81 5e bd
       -0.09578055 -0.15565656 -0.01524623 -0.054323077
0000e0 44 5c 05 3d 90 eb ad 3d dc fe 17 bb ec da 4f be
       0.032558694 0.084921956 -0.002319268 -0.20298356
0000f0 18 e3 d3 bd df d1 f7 bd fc 16 22 bd 5b b2 f6 bd
       -0.10346049 -0.121005766 -0.0395727 -0.12045737
000100 c8 73 18 be 31 f0 a4 bd 9d 3d 91 3d 1b 68 ac 3c
       -0.14887917 -0.080536254 0.0709183 0.021045735
000110 e1 c2 0f be 80 27 7a be f4 f4 67 be e4 c7 3d be
       -0.14039184 -0.2442913 -0.22652036 -0.18533283
000120 12 a1 6f bd aa d4 1a be 83 f8 02 be 84 0b d8 3c
       -0.058503218 -0.15120187 -0.12790112 0.026372679
000130 d4 42 c3 3d d3 d0 d8 bd 87 52 55 3d 68 17 93 be
       0.09534231 -0.10586705 0.052080657 -0.28728795
000140 f7 ce 8f bc 6d d6 12 3b d3 4c 21 be 54 89 1e be
       -0.017554743 0.002240564 -0.15751962 -0.15482074
000150 7f f2 15 be 97 c5 1d 3c 0b 7f b0 3c d4 d9 4c 3b
       -0.14643286 0.009629629 0.021544954 0.0031257765
000160 49 1d d1 bd 6e 41 26 3d 2b 75 8e bd 65 36 f5 bc
       -0.10210664 0.040589742 -0.06955942 -0.029933164
000170 fb 40 4b 3c e0 02 17 be e2 bd 25 be e8 e6 86 3c
       0.012405629 -0.1474719 -0.16185716 0.016467527
000180 94 5a 04 be 5a c7 a3 bd e5 f1 20 3c 21 10 33 bd
       -0.12925178 -0.07997008 0.009823297 -0.043716554
000190 8c f0 3e bd 76 e4 bc bd ae 5c 2f be cd 1e 12 3d
       -0.046616122 -0.09223263 -0.17125198 0.035673905
0001a0 46 25 69 3b 34 e8 0f be 41 24 2f bd 4e 17 0c 3c
       0.0035575195 -0.14053422 -0.042759184 0.008550478
0001b0 e2 f9 d0 3c 30 92 0b be 16 28 06 be 02 13 60 be
       0.025509778 -0.13629985 -0.13101229 -0.21882251
0001c0 87 08 96 3d f6 62 73 bc e0 c8 b0 bd 73 21 2a 3d
       0.07325845 -0.014855137 -0.08632064 0.041535806
0001d0 c7 76 4f be c0 6c 5a bd 03 89 70 bd e6 ed 08 be
       -0.20260154 -0.05332637 -0.058724415 -0.13372001
0001e0 de f4 cb bd 19 33 15 bd b8 7b 0e be b7 59 3b bc
       -0.09958814 -0.036425684 -0.13914382 -0.011434964
0001f0 30 67 8b bd eb 7f d4 bd c4 fe 33 bd 3b b3 f6 bd
       -0.06806791 -0.10375961 -0.043944135 -0.12045904
000200 f4 b6 24 3c a3 6a bf 3d cb 6e fb bd dd c5 18 be
       0.010053385 0.09346511 -0.122769915 -0.14919229
000210 e6 38 a1 bd df 45 4b be f2 81 0e be 60 ef 8d 3d
       -0.07872181 -0.19850872 -0.13916758 0.06930423
000220 8e c0 67 be 5f bf b3 bd 5a c9 3f bc 1b d5 84 be
       -0.22632048 -0.087767355 -0.011705721 -0.25943837
000230 e7 25 bf 3d 9e c8 9c bd 78 6a 15 be c5 6f 13 be
       0.09333401 -0.07655452 -0.14591396 -0.14398105
000240 78 75 36 3b 09 eb 2d 3c 05 8b 96 3c d4 80 2d be
       0.0027841013 0.010615119 0.018376837 -0.16943675
000250 32 6e 44 be e7 53 04 be 63 82 6e bd 29 1f 0f be
       -0.19182661 -0.12922631 -0.058229815 -0.1397673
000260 29 90 7a 3c d1 38 91 3a f4 18 45 be 06 c9 a2 3d
       0.0152931595 0.0011079555 -0.192478 0.079484984
000270 95 cd f1 bc 2f e4 30 3c 02 4b 0c be ff 50 b1 3c
       -0.029516974 0.010796591 -0.13700488 0.021645067
000280 b6 e2 86 3d bc 16 6f bd 0a 25 6c bd 48 20 b3 bd
       0.065862104 -0.05837129 -0.05765251 -0.087463915
000290 8b cc 38 be ef 87 6e bb 19 83 18 3d 91 fa a2 bd
       -0.18046777 -0.003639694 0.0372344 -0.07957948
0002a0 27 b2 93 bd 44 31 c4 bc 15 57 42 bc d0 e1 00 3b
       -0.07211714 -0.023949273 -0.011861582 0.0019665845
0002b0 27 0e bd bd 3c 3b 4b 3d f1 ce 6e bc d9 f8 cb bd
       -0.09231215 0.049617037 -0.014575706 -0.09959573
0002c0 c2 5f 79 3d 88 be 1e be 79 e5 94 bd 95 e3 2e be
       0.060882337 -0.1550237 -0.07270331 -0.17079003
0002d0 63 ef 10 bc 9b fd 09 be b7 d6 58 3d 5a e1 49 be
       -0.008846137 -0.13475649 0.052939143 -0.19714871
0002e0 4b 59 07 3d 18 12 38 be f0 0b f7 bd e4 4e 17 be
       0.03304414 -0.17975652 -0.12062824 -0.14776188
0002f0 0a b3 d4 bd b8 e8 d4 bd 6f e3 70 3d e8 cb 33 bd
       -0.103857115 -0.1039595 0.058810648 -0.043895632
000300 e6 1a 5d bb 92 e2 af 3b 93 b4 19 be 9e 01 1a 3d
       -0.0033737957 0.0053675855 -0.1501029 0.0375992
000310 2f b4 df bd a8 53 07 be 09 65 cc bd cd ac 3c bd
       -0.10923039 -0.13215506 -0.099802084 -0.046063233
000320 5f fb 87 bd f1 a4 9a 3d 37 2b bf bd a3 9f 9e bd
       -0.06639742 0.07550991 -0.093344145 -0.07745292
000330 3e a7 23 be bf a8 ce bd 1c 37 ab 3d 39 dc 50 be
       -0.15981767 -0.100907795 0.08360121 -0.20396508
000340 e6 dc 1c bc 3d 5d 2d bd 3a 36 5d 3b 70 e7 fd bd
       -0.009574151 -0.042325247 0.0033754245 -0.12397659
000350 aa c9 e2 bd a1 bc 68 bd 43 fe b4 bb 9c 7b 9e bc
       -0.110736206 -0.056820516 -0.0055234744 -0.01934605
000360 ef 61 3d bc e4 e6 cf bd 73 24 53 be ff 79 4e be
       -0.011558994 -0.10151461 -0.20619373 -0.20163725
000370 cf b6 f4 bd e4 ec d0 bd 3a a8 f2 bb 04 d4 3a 3d
       -0.119489305 -0.10201433 -0.007405308 0.04561235
000380 1c 55 65 be 79 79 8e bd ad 42 20 be 60 92 af 3c
       -0.22395748 -0.06956763 -0.15650435 0.021432102
000390 f6 29 01 be 08 f1 61 bc 72 79 3f 3c 49 7f 7b bd
       -0.12613663 -0.0137903765 0.01168667 -0.061400685
0003a0 22 70 7f 3b 15 1f 55 be 22 47 12 be 70 0e 00 be
       0.0038976748 -0.20812638 -0.14284948 -0.12505507
0003b0 07 96 54 3d a4 17 ff 3b 86 d7 12 be ca f2 c7 bd
       0.05190089 0.0077848006 -0.14340028 -0.09763105
0003c0 86 03 57 be da c7 38 be 8d 38 3a 3d 48 96 22 be
       -0.20997438 -0.18044987 0.045464087 -0.1587764
0003d0 39 d3 91 3d df b3 b5 3d 26 a2 34 be 95 f4 04 be
       0.07120366 0.08872198 -0.1763998 -0.12983926
0003e0 18 96 42 bd a5 21 8c 3d 38 c1 f2 bd ac 7d 87 3d
       -0.04750642 0.06842355 -0.1185326 0.06615767
0003f0 45 08 0b be 61 47 b1 bb 7e 8c ff bc b8 17 b6 bd
       -0.13577373 -0.0054101204 -0.031194922 -0.08891243
