projects/malfunction-prediction-system/saved_weights/seq-length-specific-models/model_seq_len_30.pth (torch, 331854 bytes, 44 tensors)

input_projection.weight f4 [32, 38]
00000000: c0a0 d4bd e264 353d f766 48be 6cb0 da3d
00000010: 9934 2d3d fad5 babd 96a1 8ebb f273 993d
00000020: aeea 36be 42ba 0fbc 87d3 cd3d 7cfc a33d
00000030: 3a23 bdbd c8f5 b5bd 029a 833b 3b02 2c3c
00000040: 82ae a5bd e766 083e 0eb2 20be e3a7 24be
00000050: 47fc 74bd a565 793d 9d69 103e 8dfb 3fbd
00000060: 7e10 98bd cbf4 63bd 6016 a03d 7027 2e3d
00000070: 4a56 a53d 0bce b2bd 0c78 d2bb 0745 43bd
00000080: f342 e4bd 6357 58bd 8e45 98bb d7e3 13bd
00000090: cecc c9bd 1218 103e fa1b e63c 7e3a 73bc
000000a0: 215c 4cbd 4e5b 223e c049 e33d 93a8 eebc
000000b0: f006 dabd d897 df3d f719 6d3d d970 41be
000000c0: 8914 483e 533c 503d 8e61 ad3d d4b4 723c
000000d0: 7f32 aa3d 3976 a53d 704c b03c 478d 32be
000000e0: 4e7b 72bc fac2 06bd 6c59 eabc e424 0e3e
000000f0: 1009 56bd 60f2 8f3d ed40 38bd ab9c 953d
00000100: e7f0 693e 739a 223d 4219 cebd 5f89 9f3d
00000110: c850 da3d 097e 463c d34c c9bd ee7f 14bd
00000120: 80bb 053e 51eb ce3d 0887 03bd cb7e bf3c
00000130: 0fcf 4f3d 04f2 bbbd e182 b3bb c11c 443e
00000140: b101 203e 9875 7e3d 6584 ec3c ce84 c73d
00000150: d2ac 8f3e c4d2 403e ffb3 ac3c a231 393d
00000160: 80d7 043e 118b d23d 5cb1 20bd bd44 793c
00000170: 9e28 383d 2684 633e 3766 773d 1870 743c
00000180: 2811 a3bd 23f1 cc3d e581 48bd f903 fc3c
00000190: 15a0 953d 344a 8abd 993c e3bd 2b43 283c
000001a0: e139 f639 d306 1b3e af81 903c 7f66 f6bd
000001b0: ecae 0c3d 0b25 9dbd b75f 173d e994 cd3d
000001c0: 717f 54bd 631a e2bd 451d e2bd afda 8a3c
000001d0: b35e 073e eb7a ac3b 942b f73d 82e4 abbd
000001e0: 7d7b 72bd 445f d33c 05d7 943e 9150 b03d
000001f0: 990d de3d 61fa fc3d 7686 923e c9c8 a8bc
00000200: 3fdc 363e a816 aa3b a58e 113e 9ff1 a03c
00000210: e301 95bd 1d30 ef3c 7db2 cf3d 9d51 223d
00000220: 10ab 6f3d 7379 10bd d802 103d 6cf0 d43d
00000230: b0d2 d13d dcda b33d 5c2d 20be f182 2fbe
00000240: 8c13 8b3e 5425 8bb9 0e9e 563c ff3b c4bb
00000250: a864 c13d 7449 e1bd 0f76 82bd f746 95bd
00000260: 97a6 8c3e e3d5 d0bc 0786 eb3d 955a 983d
00000270: 569f 1e3c 71a9 0d3d d926 303d 0591 14be
00000280: b767 1abe 6449 5fbe 2c73 323e 699d 0bbe
00000290: a663 73be 12a4 1cbe 8619 c4bd b3e2 b33b
000002a0: 54d1 e43d 70fa 023c 44fb 373e 0ae0 813d
000002b0: 9b2b cdbc f554 03be 3eb3 2a3d f730 ae3d
000002c0: b11f b13d 2190 213d b325 b43c a86b 95bd
000002d0: 0366 5dbc 3348 74bd a15f bbbd f024 4dbd
000002e0: f162 f43d e5b9 d4bd 6a97 89bd 1111 383d
000002f0: 864d 80bc 899d 5e3d fd62 643d 606b 963d
00000300: 9b39 923d 3cf3 353e d212 38bd 78b1 bbbd
00000310: f49a fbbb 960b 933c 4557 87bd 3700 1dbe
00000320: 9431 9d3d 6e3e 82be db4e e1bd 5cf8 19be
00000330: 4949 0b3e 0274 45bd 5ed8 6a3a a185 9fbd
00000340: a5c3 99bc 9373 373d 276e 9c3c 10e2 c53d
00000350: dcb3 a4bc 4193 62be 48c0 f0bc e0e5 283e
00000360: 9282 683e a81e dabc 04ab cabd e8fa 22be
00000370: 3eef b7bd cacf 623d 6392 fe3d 5ef1 a6bd
00000380: 05b1 e43d fe70 03be 58f1 933b cd0d 75bd
00000390: 7690 7b3c 2cec 133d 5568 523d d149 613d
000003a0: cbf8 423c de53 cabd 34e0 7abd 7c96 23be
000003b0: b8af 0fbe 1b57 1abe b62a 363d c762 26bd
000003c0: e17d 68bd 3107 2dbe f029 c9bc ddca 123e
000003d0: 98b6 9dbd 2e06 1fbe 638c bdbd b67f 81bd
000003e0: aa48 2f3d 0927 ee3b fac4 8cbc 4ef1 d43d
000003f0: dfea a5bd 5271 ab3d 3849 21bc ee59 b23c
-0.10382223 0.044285662 -0.19570528 0.10678181 0.04228649 -0.09122844 -0.0043527586 0.07492818
-0.1786296 -0.008772435 0.10050111 0.08007142 -0.092352346 -0.0888477 0.004016162 0.010498579
-0.08089925 0.13320504 -0.15692922 -0.16079669 -0.059810903 0.06088795 0.14102788 -0.046870757
-0.07425021 -0.055653375 0.07816768 0.04251808 0.08073099 -0.08730706 -0.006423002 -0.04767325
-0.11145582 -0.052817713 -0.0046469634 -0.036105957 -0.098535165 0.14071682 0.028089512 -0.014845489
-0.04989255 0.15855142 0.11098051 -0.029133117 -0.106458545 0.10917634 0.05788609 -0.18890704
0.19539084 0.05083878 0.08465873 0.014813621 0.083104126 0.0807919 0.021520823 -0.17436706
-0.014799906 -0.032900788 -0.028607093 0.1388126 -0.052254736 0.07028651 -0.044983793 0.07305273
0.22845803 0.039698076 -0.10063411 0.07789873 0.10659939 0.01211501 -0.09829106 -0.036254816
0.13059807 0.10103477 -0.032111198 0.02337589 0.050734576 -0.0917702 -0.0054782485 0.19151594
0.15625645 0.062123865 0.028871724 0.09742127 0.2806154 0.188304 0.021081923 0.04521335
0.12972832 0.10280431 -0.039231643 0.015214142 0.04496061 0.2221838 0.060400214 0.014919303
-0.07962257 0.10006931 -0.048952002 0.030763613 0.07305924 -0.067524344 -0.110955425 0.01026992
0.000469639 0.15139322 0.017639963 -0.12031268 0.034346506 -0.07673081 0.036956515 0.10038168
-0.05187935 -0.11040189 -0.11040739 0.01694998 0.13219719 0.0052636764 0.12068859 -0.08393194
-0.0591998 0.025802262 0.29070297 0.08609117 0.10842437 0.123524435 0.2861821 -0.020603554
0.17857455 0.005190689 0.14214571 0.019646464 -0.072757505 0.029197747 0.10141466 0.039628614
0.058512747 -0.035272073 0.035158962 0.10397419 0.102452636 0.087819785 -0.15642303 -0.17139794
0.2716335 -0.00026539958 0.013099207 -0.0059885974 0.09443027 -0.11000338 -0.06370174 -0.07288926
0.27470848 -0.025492614 0.11500173 0.07439152 0.009681543 0.03458542 0.043005798 -0.14508446
-0.15078627 -0.2180534 0.17426747 -0.13634266 -0.23768482 -0.15296963 -0.09575181 0.005489671
0.11172739 0.007994279 0.17966944 0.0634156 -0.025045207 -0.12825377 0.041674845 0.08505433
0.08648623 0.039444093 0.021990633 -0.072959244 -0.013513091 -0.059639167 -0.09149099 -0.050084054
0.11932934 -0.10387019 -0.06718333 0.04493815 -0.015661966 0.054349456 0.055758465 0.07344699
0.071398936 0.17768568 -0.044939823 -0.09164709 -0.007678384 0.01794986 -0.06608442 -0.15332113
0.07675472 -0.25438255 -0.110013686 -0.15036148 0.13602175 -0.048206337 0.0008958633 -0.077891596
-0.018770048 0.044787955 0.019095493 0.096622586 -0.020105295 -0.22126485 -0.029388562 0.1649394
0.22706059 -0.026625946 -0.098959 -0.15916026 -0.08981179 0.055373944 0.12430265 -0.08151506
0.11166576 -0.12836072 0.0045148544 -0.059827615 0.015354266 0.036113903 0.05136903 0.055002037
0.011900137 -0.09879278 -0.061248973 -0.15975374 -0.14031875 -0.1507229 0.044474326 -0.040621545
-0.056760672 -0.16897275 -0.02455613 0.14335199 -0.077008426 -0.15529701 -0.09255292 -0.06323187
0.042793907 0.007267837 -0.01718377 0.10397588 -0.08101439 0.083712235 -0.009844117 0.021771397

input_projection.bias f4 [32]
00000000: 1373 c73d 0a37 04bd 6b1a 6d3c 1403 84be
00000010: 8340 153d 8c4a 04bd 3101 21bc 226d 2bbe
00000020: f077 6bbe cd97 40be b1f1 0fbe 61e0 773c
00000030: aa44 e3bd a443 913d 278c cfbc 8901 c5bc
00000040: db13 0a3e 9b4e d0bd 91eb e3bc b539 15bd
00000050: c419 163e f2ed 573d 7199 69bc ce13 783c
00000060: fe92 01bd 1f41 11bd ffb0 34be 35cc 0cbd
00000070: 3437 1e3e 2c50 4bbd 6a65 1d3d 9756 573d
0.097387455 -0.03227905 0.014471631 -0.25783598 0.036438476 -0.032297656 -0.009826944 -0.1674085
-0.22994971 -0.18807907 -0.14057042 0.01512918 -0.11097081 0.070929796 -0.025335385 -0.024048584
0.13484137 -0.10171243 -0.027822288 -0.036431987 0.14658266 0.052717157 -0.014257775 0.015141441
-0.031634323 -0.035462495 -0.17645644 -0.034374435 0.15450746 -0.049637005 0.038426794 0.052572813

transformer_encoder.layers.0.self_attn.in_proj_weight f4 [96, 32]
00000000: b11b fabd 0f3b 803d 6ce5 f2bd b6ab 203e
00000010: ec08 84be d492 313d 1edb a23e 6e23 16bd
00000020: a473 2cbe 30ba a73e ae04 6e3c f862 63bd
00000030: c2a1 65be d8da 393e 6213 b8bd 172f 82be
00000040: 9175 04be 0fed 0c3d 397e c83d 874f 47bd
00000050: 1ec5 a9bd 543a 62be b09b 2b3e 1e5d 99bd
00000060: fd82 3d3e 6c94 abbd fb98 d2bc 9295 383d
00000070: 0a59 513e dac8 163e ac4f 333e 7c6b dfbd
00000080: fa98 3fbe ab87 40be c1ec a0bd d4a3 25be
00000090: 882a 6f3d cf51 e13d 02db 9d3e 96d4 2d3d
000000a0: a428 32be 2599 4f3e 4ad7 babd a06b 12be
000000b0: f9fa 3a3c 83de 6cbe 2286 67be dfbe a73d
000000c0: 503e 61be 790a a03d aa15 9abd 87ba 41be
000000d0: 90e5 e0bc 6b2d 63be 46b6 eabd 7bd5 92be
000000e0: 187e 79bd cdd1 223e cb96 0fbd 1cbb 6f3d
000000f0: fa84 05bd fc07 943d 3f65 e7bd 8bd0 47bd
00000100: 8c8d febd edbf 48bd afb4 febc de51 0f3d
00000110: 8d0c 403e dc3c 043d 2fcf d03d 1869 ce3c
00000120: d7f3 43be 7d88 973e ec43 0dbe a544 843e
00000130: c761 e1bd c023 29be e4f7 f53d ebd6 b73d
00000140: 2810 373d 8aff 683e c788 a13a 4395 1a3e
00000150: a98e 813d b46c 093e 3fc8 3fbe b159 08be
00000160: 4a22 f13d d40d 343e f434 133e e82e 463e
00000170: 6d50 243e 9d44 3f3e 3cad c3bd d639 923e
00000180: 2c6d c1bd f4d4 e73d 9498 2cbe eec9 fd3d
00000190: f13b bebd f28e a7bd 0e14 b93d 9657 02be
000001a0: b172 f7bb e6b9 9bbc 5fec 18be 04a1 94be
000001b0: be5f ca3d d079 0cbc f661 e03c bdd4 c7be
000001c0: 01d5 bf3a 07c4 b2bc b373 863e f1b8 d43d
000001d0: 5542 333d ac0a 59be c46f 18be c17a 51be
000001e0: cc48 76bd 22cf a93d fcc8 ae3c ca6c 8dbe
000001f0: d928 23bd 6da7 b4bd 0d81 f63b 1045 4fbe
00000200: e4c6 023e 31cc c53c 4c6f 26be a196 8ebd
00000210: 1b91 ad3d 34ae 1abe 21a4 b1bb 6b12 b23e
00000220: 4523 bbbd 732f 723e ae60 1fbe 69aa 473d
00000230: 0303 2bbe 9630 a5be 6bce 49be 0bb1 adbd
00000240: ec13 a5be 1a41 dcbc 99b5 34bd cb79 c3bd
00000250: 479e 5abe 60df 15be d65e 1b3d 896a cfbc
00000260: 990a 2abe 32c1 06be 72de 493e 40ed b63d
00000270: 90ea 4e3e 277e b8be baa6 da3d 3b87 433c
00000280: 82d3 d8bc f4f8 54be 9617 1dbe fac9 14bc
00000290: ad55 a6be 5a6a 18be 8fb4 bfbc 883f 8bbd
000002a0: 2c94 b63d e330 5c3e b54a 93be 1691 9abd
000002b0: e763 a1bd bbc0 f53d 4ae1 1ebe b7bc ddbd
000002c0: 4acf 7bbe 3d75 87be b6a5 aebe f3a6 773d
000002d0: 3407 eebd 676f 84bd dccf 1cbd 5ff1 8abd
000002e0: e363 003e 89f2 9fbe 6555 3c3e 0eb4 11be
000002f0: 2879 bebc 8f8b 85be 28b7 44be 8daa b3be
00000300: ce53 1abc e711 323e e5fa ac3c 07af 19be
00000310: 2fda 913e 410e 013e 3000 4fbe 65c6 673d
00000320: 751b 0ebe 0946 053c 7610 e53c 137e 1ebe
00000330: 422d b73d 20cd 223e 0f71 20be 5df5 5b3e
00000340: 5dca 5a3e 47c6 f7bd 1851 8c3e 19e6 e63d
00000350: 0974 9e3c 5918 1bbe e23b 79be 4444 41be
00000360: 7ca8 13be 6d77 e6bd e4f9 4dbc c994 b0bc
00000370: 5b55 b43c 0e75 353e 4a11 e23d 531e 73bc
00000380: c640 6bbe e010 36bc 5107 0b3e a1d0 82be
00000390: 136f 943c 9191 29be 71da 82bd 4022 463e
000003a0: 0d6e d43c 4e8c 1abe f11f 97bd 23ea a63b
000003b0: 1891 7e3e 5606 1abd b2ec c93d 7ba0 e53e
000003c0: 01b0 fdbb 98bc cd3e 3950 5abd c220 d93d
000003d0: c528 f4bd ecd2 603e 1aff babd bd0a e83e
000003e0: 200a ff3a e1e3 69bc e709 1d3e 8d6e 193e
000003f0: c613 3e3d 8773 343e 3cd3 39be b93b aa3e
-0.12212313 0.062612645 -0.11860165 0.15690503 -0.25788057 0.043352917 0.31807798 -0.036654882
-0.16840988 0.32759237 0.014527483 -0.055514306 -0.22424987 0.18149889 -0.08988072 -0.25426552
-0.12935473 0.034405764 0.097897 -0.048659828 -0.0828955 -0.22092563 0.16758609 -0.07488464
0.18507 -0.083779186 -0.025707712 0.045064516 0.20444122 0.14725056 0.17510861 -0.10909173
-0.187107 -0.18801753 -0.07857657 -0.16175777 0.05839017 0.11001932 0.30831152 0.042439066
-0.17398316 0.20273264 -0.091230944 -0.14298868 0.011412376 -0.23131756 -0.22609761 0.08190703
-0.21996427 0.078144975 -0.07523663 -0.18918811 -0.027453214 -0.22185294 -0.11460547 -0.28678498
-0.060911268 0.15900345 -0.035055917 0.05852805 -0.03259752 0.072280854 -0.11298608 -0.048782866
-0.12429342 -0.04901116 -0.031092016 0.034990184 0.18754788 0.032284603 0.10195767 0.025196597
-0.19135986 0.2959632 -0.13795441 0.25833622 -0.11004978 -0.16517544 0.12010172 0.08976539
0.044693142 0.2275373 0.0012324088 0.15096001 0.063260384 0.13420373 -0.18728732 -0.13315465
0.11774118 0.175834 0.14375669 0.19353831 0.16046305 0.18678518 -0.09554526 0.2855975
-0.09444651 0.113199145 -0.16855079 0.12392031 -0.09288777 -0.081815615 0.09037028 -0.12728724
-0.007551514 -0.019009542 -0.14933918 -0.29029095 0.098815426 -0.008573964 0.027390461 -0.39029494
0.0014635624 -0.021821989 0.26260146 0.10386837 0.04376443 -0.21195477 -0.14886385 -0.20456983
-0.06012802 0.082914606 0.021336071 -0.27622062 -0.039833877 -0.088209964 0.0075227083 -0.20241189
0.12771183 0.024145218 -0.16253394 -0.06962324 0.08474942 -0.15105516 -0.005421177 0.34779677
-0.091375865 0.23650913 -0.15564224 0.0487465 -0.16700368 -0.3226363 -0.19707648 -0.08481034
-0.32241762 -0.026886512 -0.044118498 -0.095447145 -0.2134944 -0.14635992 0.03793224 -0.025319355
-0.16605605 -0.13159636 0.19713762 0.089319706 0.20206666 -0.36033747 0.10676332 0.011934097
-0.026468042 -0.20798093 -0.15341029 -0.009081358 -0.3248724 -0.1488432 -0.023401527 -0.06799227
0.0891498 0.21503024 -0.28767934 -0.07547204 -0.07880383 0.11999651 -0.15515628 -0.1082701
-0.24590793 -0.26456633 -0.34110802 0.06046195 -0.11622468 -0.06466561 -0.038284168 -0.06784319
0.12538104 -0.31239727 0.1839195 -0.14228842 -0.023251131 -0.26083037 -0.19210494 -0.35091057
-0.009419395 0.17389642 0.02111573 -0.15008174 0.28486773 0.12603094 -0.20214915 0.05658569
-0.13877662 0.008134373 0.02796195 -0.15477781 0.08944179 0.15898561 -0.15668128 0.21480317
0.21366258 -0.12098365 0.2740562 0.112743564 0.01934244 -0.15146007 -0.2433925 -0.18873698
-0.1441974 -0.112532474 -0.012571786 -0.021555321 0.022013357 0.17720434 0.11038454 -0.014838773
-0.22973928 -0.011112422 0.1357701 -0.25549796 0.01811937 -0.16559435 -0.06389321 0.19349003
0.025931383 -0.15092584 -0.07379139 0.0050938292 0.24860036 -0.0376037 0.09859599 0.44849
-0.0077419286 0.40182948 -0.053299163 0.10601951 -0.11921839 0.2195546 -0.09130688 0.45320693
0.0019457974 -0.014275522 0.15335809 0.14983578 0.046405576 0.17622195 -0.18146986 0.3324869

transformer_encoder.layers.0.self_attn.in_proj_bias f4 [96]
00000000: 493b 21bd 040d cbbd 5309 b8b8 e694 f2bd
00000010: 20b7 48be 85e2 14be 0d47 db3b 8699 483e
00000020: 305b e73c 87c3 973e 0bea 25be fda1 abbd
00000030: 5c89 b33d 328e 50bc 1fd8 5abc 7b4a 1cbe
00000040: 148e 0b3e 90ec b53d c3bf 453e 3bfb bc3c
00000050: 2d42 8a3d ed80 443d bb90 a83d bf28 1a3e
00000060: 0aad 253d 98fa 833d 0610 8c3e ddf9 34be
00000070: 9976 36be dc29 b63d 2ca4 1ebe 0379 1d3e
00000080: e0a6 95bd 3b14 19be 9ec2 a83d b2f8 33be
00000090: d095 17be d778 43be 028b 07bd 0cad 7e3e
000000a0: 45a8 c6bd a450 fb3d dc5a b4bd 4327 37be
000000b0: f3c0 f23d 60fe 993a 85e8 203c aecc 57be
000000c0: 01fe a8bb 0247 263d 459f 3b3d aa60 6bbd
000000d0: 4afc 1c3d 7417 403d fe0a 113d 59cd 653d
000000e0: a65e 4b3d 016c 8cbb aa53 563d ba8e 12bd
000000f0: c9eb cabc 54a5 003d c219 56bd 991a 9a3d
00000100: c1c7 63bd 9578 e5bc 5faf abbc e559 f5bc
00000110: 7f5a 1bbd a2af 37bc b2fe acbc 477a 8c3d
00000120: c9e3 9abb f936 aabc a094 7dbd 303f 1a3d
00000130: 6efc a2bb 0a59 d23b 84e3 83bc 9624 873d
00000140: a3df 1fbc 0442 353c 9c6c 523c c634 e5bc
00000150: 9e33 26bd 1726 02bd 03e2 c43c dc92 c1bc
00000160: 644b 2bbd 63d7 0a3c 3c51 dd3c be3e 813c
00000170: 498e d9bb a55e 363d ea89 433d b5c9 0b3d
-0.03936318 -0.09914592 -8.7755405e-05 -0.118448064 -0.19601107 -0.14539535 0.0066918195 0.19589815
0.028241724 0.29641363 -0.16202562 -0.08380506 0.087664336 -0.0127292145 -0.013357191 -0.15262787
0.13628417 0.08883011 0.19311433 0.023069015 0.06750903 0.047974516 0.0823073 0.15054606
0.040448226 0.06444281 0.27355975 -0.1767344 -0.17818679 0.08894703 -0.15492314 0.15378194
-0.073072195 -0.14949124 0.08240245 -0.17575338 -0.14803243 -0.19089065 -0.033091553 0.248707
-0.097000636 0.1227124 -0.088063926 -0.17886071 0.118532084 0.0011748783 0.009821062 -0.21074173
-0.0051572328 0.040595062 0.045806188 -0.057465233 0.03832654 0.046897367 0.035410874 0.056104038
0.04965081 -0.004285336 0.052325882 -0.035780646 -0.024770634 0.03140767 -0.05227066 0.07524604
-0.055610422 -0.0280116 -0.020957647 -0.029950092 -0.0379281 -0.011211308 -0.021117542 0.0685926
-0.004726861 -0.020778166 -0.061909318 0.037657917 -0.0049739396 0.0064193057 -0.016099699 0.06598775
-0.009757909 0.011063103 0.012843277 -0.027979266 -0.04057657 -0.031774607 0.024033552 -0.023629598
-0.041819945 0.008474204 0.027016275 0.015776988 -0.006639276 0.044523854 0.047738947 0.03412791

transformer_encoder.layers.0.self_attn.out_proj.weight f4 [32, 32]
00000000: 367f d13c b108 3e3e 93f1 04be 1525 a0bd
00000010: b68c 0abe 224d eabc 2a95 20bd 4be3 a13d
00000020: a347 5cbe 025c b3bb 7eb8 bebd 561f 363c
00000030: 49bd c1bd 1db2 df3c 5f3c 01be f09e b4bd
00000040: 2d12 5abd c4db 113e 590e f8bd 7107 d3bd
00000050: c834 19bd 5532 19be d665 0ebe f335 f83c
00000060: e985 ebbd 5e32 513c bfdc 32be 70f2 5b3e
00000070: f82f 853d 6d2a 3b3e 8c88 21be 5446 8bbc
00000080: e517 e7b9 5f7a 363d f79e 3c3e d52f 253e
00000090: 644f 903d d587 53be db40 9e3c 3635 0cbe
000000a0: fa67 0e3e 93ad efbd 2fcd 7d3d 13b0 63bd
000000b0: fd70 8ebd 30a5 e7bd afcf cc3c 7555 4a3d
000000c0: a02a 8dbc d101 72bd 508e f73d f00e a63d
000000d0: 11bc 1abe 1019 01bc 64b7 cd3d 5e57 943d
000000e0: 2a8f db3d 7364 aebd 53c2 4c3c 574e abbd
000000f0: 32b7 dcbd 7018 d1bd 977f 5d3b 1270 263e
00000100: e140 4e3d 2072 e5bd 6377 e03d fdc1 103e
00000110: 6685 31be 181e f9bd e9c9 4ebe 70f6 203e
00000120: 940b 5f3e 312c 8ebb 8719 203e 7bbf ac3d
00000130: 1b62 50bc 7693 113b e1bc 1ebe 70fc 57bd
00000140: 181c 09be 2d17 50be 5692 543e 1b4d 2e3e
00000150: 2d15 55bd 2170 0dbe 2ad2 943d 2363 a03d
00000160: 8693 31be d214 0e3d 4eed a23c a5a4 b3bc
00000170: 8d66 a2bd d241 92be 30bb 06be 8f6f 413e
00000180: fe75 09be f900 66bc f9d0 3d3e e361 ab3c
00000190: c3a3 193e 8082 5cbe 3077 5bbe f551 0c3d
000001a0: edd9 50bc 4ca4 27be 4449 a1bd 0360 593e
000001b0: 765e b33c 89a9 52be 3452 5c3e 86d0 6b3c
000001c0: 9e02 de3d 5d03 5bbe 0bf3 9d3d 673c af3d
000001d0: 6fb3 4cbd 2a35 ca3d 5c28 39bd 8dd5 1ebe
000001e0: 6d57 153e ac72 03be fdf1 06bd 2c7c 20be
000001f0: 7001 353d b3a2 4cbe 170e 20be 9354 3d3e
00000200: 50a0 9f3d 9922 2cbd 5492 dbbc faad 02bd
00000210: d763 e13d 22aa 8c3d f268 133e 9003 20be
00000220: 1bfe 19be ef03 293c 7711 d2bd 435e 0ebe
00000230: 23ee d03d 871c 0fbe a2ed 72bd e74e d63d
00000240: 2ebc 00bd 3989 013e 8bbe 653d e9c5 d7bc
00000250: 1bbe 56bd bf57 963c f22e 5a3c fd3c 06bd
00000260: a7f8 253e fa0a 533e e737 de3d f98a 413e
00000270: 449a 5b3d 7dc9 4a3e b4a9 c53d f308 f73b
00000280: 1b54 ca3c 93fc b0bd 9bc9 03bc 89f5 963d
00000290: 1d0c 85bd 9190 a1bd a110 4abe 7b13 afbd
000002a0: 788f cf3d 5e7b d23d dbbe 73bd d255 1cbd
000002b0: ac63 253e 5209 00be ea08 923b 9667 9cbd
000002c0: 1ed6 7c3d 7541 b4bd 4995 ec3d c993 4f3e
000002d0: 6062 c6bd 3b37 393e bfed a93c 9cc0 07be
000002e0: 77f7 96bd a8b9 d9bd 7441 533d d1c0 a93c
000002f0: 531f b9bd 0645 17be 687f 593c 9a8d 22be
00000300: e434 063e dfe6 4c3e a15f 28bc 6083 4a3d
00000310: 4d16 8ebd 6ed9 783e 4860 7a3e 32e7 36be
00000320: 7f30 82bd 4674 b3bd 05b4 d0bc c5c1 58be
00000330: dfbc 96bd 5241 663e ec43 913d 0772 17be
00000340: 2494 5abe 744e 623e 5fa4 55be 9b54 48bb
00000350: 2f37 0d3e 0796 5dbb 3398 89bc 507f 573c
00000360: 9c0b ddbd faab 3dbc 88de 903b 191b abbd
00000370: bde9 173d 5cc1 b13d db59 beba ea59 af3d
00000380: 3907 55be 2cb8 a73d 6ab9 abbd 2c7b b03d
00000390: 4bfb ee3d 31c2 cfbc 44be 16be b367 1f3e
000003a0: be37 3dbd 42ba f83d 2815 6b3e 860c 253e
000003b0: e963 943d ab8a 29be 1ad8 343e 48da 933d
000003c0: 0e53 433d eb51 203d 3d9b e93d 552a 2d3e
000003d0: 71fd 933d b84b f6bd 65e4 bcbd 0be5 213e
000003e0: e631 b13d 64e2 2fbd e68e 853d 5fae acbd
000003f0: 60e3 03be 4cc1 293e a39d 153e 1671 debd
0.025573354 0.18558003 -0.12982778 -0.07819573 -0.1353024 -0.028601233 -0.039204754 0.07904681
-0.21511702 -0.0054736147 -0.09312533 0.0111158695 -0.094599314 0.02730661 -0.12620686 -0.088193774
-0.05323999 0.1424399 -0.121121116 -0.10304154 -0.03740385 -0.14960606 -0.13906035 0.030299162
-0.11500151 0.012768356 -0.1746702 0.21479201 0.0650329 0.18277903 -0.15774745 -0.017001309
-0.00044077556 0.044550296 0.18420015 0.16131528 0.070463926 -0.20657285 0.019318035 -0.13692173
0.13906851 -0.117030285 0.061963256 -0.05558784 -0.069551446 -0.11310804 0.025001375 0.049397904
-0.01723224 -0.059083764 0.12087691 0.08108318 -0.15110804 -0.0078795105 0.100447446 0.072432265
0.10720666 -0.08515253 0.012497502 -0.083645515 -0.10777129 -0.10209739 0.0033797973 0.16253689
0.050354842 -0.11203408 0.10960271 0.141365 -0.17336044 -0.12163943 -0.2019421 0.15719008
0.2178176 -0.004338764 0.15634738 0.084349595 -0.012718703 0.0022213138 -0.15501739 -0.052730978
-0.13389623 -0.20321341 0.20758948 0.17021601 -0.052022148 -0.13812305 0.07266648 0.07831409
-0.17341432 0.034687825 0.019888546 -0.021929095 -0.07929716 -0.28565842 -0.13157344 0.18890212
-0.13423917 -0.014038318 0.18536748 0.0209207 0.15003876 -0.21534157 -0.21432185 0.034257848
-0.01274727 -0.16371268 -0.078753024 0.21228032 0.021895628 -0.20572485 0.21515733 0.014392978
0.10840343 -0.21388002 0.077123724 0.08556443 -0.04997581 0.098734215 -0.045204505 -0.1551115
0.14584132 -0.12836713 -0.03294562 -0.15672368 0.044190824 -0.1998394 -0.15630375 0.18489294
0.07794249 -0.042025182 -0.026803173 -0.0319042 0.11005371 0.06868388 0.14395502 -0.15626359
-0.1503834 0.010315879 -0.102572374 -0.13903145 0.10201671 -0.13975726 -0.059308656 0.10464268
-0.031429462 0.12650003 0.05608992 -0.026339488 -0.052427392 0.018352387 0.013316857 -0.032773007
0.16208135 0.20609656 0.10850506 0.1890067 0.053613916 0.19803424 0.09651509 0.0075389086
0.024698308 -0.08641925 -0.008043672 0.07371051 -0.06496451 -0.07888902 -0.19732906 -0.085486375
0.10134786 0.10277437 -0.059508186 -0.038167782 0.16151303 -0.12503555 0.004456629 -0.07636945
0.061727636 -0.088015474 0.115519114 0.2027122 -0.09686732 0.18087475 0.020743249 -0.13257068
-0.07371419 -0.10631114 0.051576093 0.020721825 -0.09039178 -0.14772424 0.013275005 -0.15874329
0.13106114 0.20009945 -0.010276706 0.049441695 -0.06937847 0.24301693 0.24450791 -0.17861632
-0.06356906 -0.08762412 -0.025476465 -0.21167667 -0.07360243 0.22485855 0.07093033 -0.14789592
-0.21345574 0.2210024 -0.20863484 -0.0030568007 0.13790582 -0.0033811347 -0.016796207 0.013152912
-0.1079323 -0.011576647 0.004421059 -0.08354778 0.037088145 0.086794585 -0.0014522629 0.085620716
-0.20803536 0.08189425 -0.08384974 0.08617243 0.11669024 -0.025361152 -0.14721018 0.15566902
-0.046195738 0.12144901 0.22957289 0.16118059 0.07245619 -0.16556804 0.17660561 0.07219368
0.04768663 0.039140623 0.114065625 0.1691068 0.072260745 -0.12026161 -0.0922325 0.15810029
0.086520955 -0.042940512 0.06521396 -0.08431696 -0.12879705 0.16577643 0.14610915 -0.10861413

transformer_encoder.layers.0.self_attn.out_proj.bias f4 [32]
00000000: 5e02 b03c 734b d6bc ab48 c8bc 1a28 a0bc
00000010: 52b6 c23c 08ed f8bc bd9b e63c fa5a fdbb
00000020: 98dd 04bd 31f5 ea3b 984d 04bd 65c8 18bb
00000030: 1fb2 96bc 0ae3 003d 4841 22bc fd13 0b3d
00000040: 7c09 0abb 5a8d 98bc f1c2 4d3b f6ea c1bc
00000050: 1601 e6ba a5a6 2c3c 98c5 80bd 975b f83b
00000060: 613b 243d 636e 093c 8b47 d7bb ec35 b9bc
00000070: 6e20 193d 8b97 76bd 1d20 9bbc 092f 6bbc
0.021485504 -0.026159024 -0.024448713 -0.019550372 0.023768578 -0.030386463 0.028150434 -0.0077317925
-0.03243789 0.0071703424 -0.03230056 -0.0023312804 -0.018395482 0.03146652 -0.00990326 0.03395461
-0.0021062782 -0.01862209 0.0031396712 -0.023671608 -0.0017547931 0.010537778 -0.06287688 0.0075792777
0.04009569 0.008388135 -0.006569808 -0.02260872 0.037384443 -0.060203116 -0.018936211 -0.014354476

transformer_encoder.layers.0.linear1.weight f4 [320, 32]
00000000: b7f6 d6bd 13ea 873c 8a74 abbc 3e46 8e3e
00000010: f3d6 4ebe 39ea fb3b d8b3 c9bd 79ea 84bd
00000020: 0b71 063d a018 713e e9f0 1abc 6120 443c
00000030: 4384 b43b f069 eabd b917 5ebe 03be 673d
00000040: 06b4 e1bc 1a18 b43d 344f 863d 1f49 1c3c
00000050: bfeb 0dbd f901 193c 4fcd c3bd 1338 0cbe
00000060: 79cf ebbd ead4 943c f8fb 9c3d 14bf 57bd
00000070: 66df ac3d a894 893c d9be 2abe 2899 c43d
00000080: 83ea 373d 0b50 f83c 7a07 a53d f514 13be
00000090: 64da 70be d13c a33d b65d 22be ee98 d8bd
000000a0: 3145 60bd 9f10 eb3d 2873 4f3d b49d 81bd
000000b0: d162 c6bc 057e 3dbd 359f 823d e022 493d
000000c0: cca2 823d fd2d 11be 01bd 97bd 3f3d de3d
000000d0: b4a3 2ebe 7804 903d 0d9c b5bd 5fbf 273e
000000e0: 564e 35bd f46c 37bd 4757 2dbe 1719 f7bd
000000f0: 2361 1b3e 6472 843c 66db 04be 28fc 42be
00000100: c807 8a3d 9aac 42be 158d 283d 8f6f cc3d
00000110: 1c82 24be 36d1 22be e7ee 6c3e 7c52 263d
00000120: 9a7b f1bd 2b41 6c3d f1c8 893d 8ec3 243e
00000130: 6b46 a5bd e123 c23d 017f 98bd c20c 7ebd
00000140: 69c8 fc3c 3904 173e eeb6 0d3e 4e19 39be
00000150: a48b 0e3c 187d a43c 0840 133e 82d7 1abe
00000160: 5131 5c3c 6311 f43c 5cab 02be 9c1e 3ebe
00000170: d0b2 b3bd bd24 773c fb9d 093e 809f 5bbe
00000180: cc36 233e aa4d 0e3e 73a0 573c f36d 3b3e
00000190: b55b 09bd 462b 2bbe 1f1c f3bd c9cb 0fbd
000001a0: 9450 dcbd 1edd cbbd 947d 0c3e e8fb 23be
000001b0: f351 ff3d 594b ae3c 728b a6bd ad7f 41bd
000001c0: 4348 6abd 5737 55be 29cf 37be 2479 babd
000001d0: ee1d a6bc ac6e fc3c 62e7 d13d 9a0a 1f3e
000001e0: 96ee 813d f6ad 5bbd 1c13 3cbe ca70 463d
000001f0: e5ac 19bd 396d f63c ee30 af3d 3e64 19bd
00000200: 0f58 5bbe e43b ef3c b882 0cbd 1967 8abd
00000210: bc20 30be f35e 27be b22f 2cbe 8d2f 4bbe
00000220: d024 39bc 505e 043d cd08 463d a3f9 afbe
00000230: d824 f93d e3b5 c13c 4c16 b0bd 09f6 a3bc
00000240: abf8 543e a91a 55be 7485 2e3e de1d 4dbe
00000250: 0871 a0bd 8d15 8d3d d277 b93d 70f2 ce3d
00000260: a1c8 603e 8c2d fd3d bb45 f9bb 95d3 603b
00000270: 0bd4 d5bc 6adc 1cbe 0115 41bd ba84 50be
00000280: f338 fbbd 2ca9 f93d b962 053d 0be3 953d
00000290: e4f6 b83d a776 b7bd c5f1 1dbd 088c b53b
000002a0: bac7 263e 45b3 c73d cb3a bbbd e755 2a3e
000002b0: 2f8d 203d d223 c7bd 38d4 5e3d 7855 2cbe
000002c0: 951a cc3d 4126 96bd b9a3 0cbe 0e50 473e
000002d0: 2a39 073b 7e34 4dbd d872 22bd 8412 d53c
000002e0: 6641 f8bd ca45 c1bd c50c 163e ec1c 1f3c
000002f0: cad6 333d 6fdb 2e3d 9042 0f3d aafc 66bd
00000300: 2821 463d 2337 253e 5840 013e dc02 173e
00000310: 40dd 843d bcc8 37be 5c5e 26be 16bc 143d
00000320: 2e62 64be 0298 2abc ec27 2c3e fafc 97be
00000330: 9d6a 36bd 469a 713e 8c95 d839 ba41 c6bd
00000340: fb3e 673d ad40 85bd af9e 77bd 1d1e d2bd
00000350: a2e7 f23d e0ff 253e f472 4abe d912 583e
00000360: a9b8 4d3e 7c6f 8f3d 7dd6 d7bc c42c 4a3d
00000370: 3aa2 873d 604a 1c3b 98de b23d 471c 293d
00000380: 905f b4bd c347 353e a517 ddbb 6725 d53d
00000390: 7ecb 81bc dbe3 ef3d 0068 dabd 8c7b 4c3d
000003a0: 2e5d ee3c 5d46 e1bd 9817 7e3e d112 2ebd
000003b0: 84f9 c83d 83e0 2ebe 84c2 9a3d fc66 11bd
000003c0: 350e 8cbe a107 aa3d 188f f63c e4cf 2fbe
000003d0: 3e2f 0abd edd2 0c3e 9443 9b3e a9b3 393e
000003e0: ec70 fb3c fae8 8abd 7a99 5a3e 1dbc 98bd
000003f0: fb83 66be 68a4 3a3e 250a eabd 8af6 3abd
-0.10496276 0.016591107 -0.020929594 0.27787966 -0.20199184 0.0076878336 -0.098487556 -0.064900346
0.03282265 0.2354455 -0.0094568515 0.01197061 0.005508931 -0.11445987 -0.21688737 0.056577694
-0.027551662 0.087936595 0.065580755 0.009538918 -0.034648653 0.009338849 -0.09560644 -0.13693266
-0.11514182 0.018167932 0.07665247 -0.05267246 0.08441047 0.016794518 -0.16674365 0.09599525
0.044901382 0.030311605 0.08058067 -0.14363463 -0.2352081 0.07970584 -0.1585606 -0.10576044
-0.054753486 0.114777796 0.05064693 -0.063289076 -0.024217041 -0.04626276 0.063780226 0.049105525
0.06378707 -0.141777 -0.074090965 0.108515255 -0.17054635 0.07032102 -0.08867655 0.16381596
-0.04426416 -0.04478164 -0.16927825 -0.120653324 0.15173773 0.016167827 -0.12974319 -0.19041502
0.067397654 -0.19011155 0.04115017 0.099822156 -0.16065258 -0.1590012 0.23138009 0.040606007
-0.11791153 0.057679337 0.0672778 0.16090223 -0.08070072 0.094794996 -0.07446099 -0.062023886
0.030857282 0.14747705 0.13839313 -0.18076059 0.008700285 0.02007918 0.14379895 -0.15121272
0.013439492 0.029793447 -0.12760681 -0.18566364 -0.0877434 0.015084443 0.13439171 -0.21447563
0.15938872 0.13896814 0.013160813 0.18303661 -0.033534724 -0.16715726 -0.11870598 -0.035106454
-0.107575566 -0.09954284 0.13719779 -0.16014063 0.124668024 0.021276163 -0.08132066 -0.0472409
-0.05719782 -0.20821892 -0.17950119 -0.09105137 -0.020277943 0.030814491 0.10249211 0.15531388
0.06344335 -0.0536327 -0.18366665 0.048447408 -0.0375184 0.030081378 0.085542545 -0.037449114
-0.2142031 0.029203363 -0.03430435 -0.067579456 -0.17199987 -0.16344814 -0.1681507 -0.19842358
-0.011300281 0.032316506 0.048348237 -0.34370145 0.121652305 0.0236463 -0.08598003 -0.02001478
0.20797984 -0.20810951 0.17043096 -0.20030925 -0.07834059 0.06888876 0.09056057 0.10104835
0.21951534 0.12362203 -0.0076071895 0.00343058 -0.026102087 -0.15318456 -0.04713917 -0.20363131
-0.122667216 0.1219047 0.032564852 0.07318696 0.09031466 -0.08958178 -0.038560648 0.0055403747
0.16287127 0.0975099 -0.09142073 0.16634332 0.039197143 -0.09723629 0.054401606 -0.16829479
0.099660076 -0.07331515 -0.1373433 0.19464132 0.0020633438 -0.05009889 -0.039660305 0.026009806
-0.12121849 -0.09437139 0.14653309 0.009711485 0.04390601 0.042689737 0.03497559 -0.056393303
0.048371464 0.16134314 0.12622201 0.14747185 0.064875126 -0.17947668 -0.16246933 0.036312185
-0.22303078 -0.010412218 0.16812104 -0.29685193 -0.044535268 0.23594007 0.00041310152 -0.09680505
0.056456547 -0.065064766 -0.060454067 -0.1025965 0.11860587 0.1621089 -0.19770414 0.2110094
0.20089974 0.07003686 -0.026347393 0.049359098 0.06622739 0.0023848042 0.08733863 0.041286733
-0.088072896 0.17703156 -0.0067472034 0.104075246 -0.015844103 0.11713382 -0.10664368 0.04992251
0.029097166 -0.10999749 0.24813688 -0.042498413 0.09813216 -0.17077832 0.07556632 -0.035498604
-0.2735459 0.08302236 0.03009753 -0.17169148 -0.03373646 0.13752337 0.30324996 0.18134941
0.030693494 -0.06782718 0.21347609 -0.07457755 -0.22511284 0.18226779 -0.11427716 -0.045645274

transformer_encoder.layers.0.linear1.bias f4 [320]
00000000: 3c5b 80be b92b 8ebd af28 56be 16fb a0bd
00000010: 9230 f0bc f543 1bbe e4fb 033e 7b45 79bd
00000020: 7116 0bbe a619 3cbe d4b1 b4ba 54dd a2bb
00000030: c531 8fbd 577d d7bd d6ff 25be 4be9 723d
00000040: 712e 36be ffb1 193e 8e69 663d 220d 3abe
00000050: 4510 a43c 8fc7 d5bd ae6a 4ebc 805c 1cbe
00000060: 9024 433d 1b39 46be 920b d63d bcd1 0fbe
00000070: 67d8 07be ae22 babd 7ace 023b b1b9 6e3c
00000080: 5e44 29be f9ab 57be 9727 863d efe7 41be
00000090: d2da c83d d2ac a8bd 660b 3ebd 63cc 1a3d
000000a0: 80e0 05be 6fa6 ed3c 830e 923d 811f a63d
000000b0: 5530 603d 08c1 03bd 276c dfbc 0cfb b23c
000000c0: 7314 563c d0c7 44be f531 b3bd c5e6 f6bc
000000d0: 0c1a c53d 1fd2 e63c 60d3 a73d 28ac 24bd
000000e0: 8286 b53b 34a2 5cbe f5f8 273d d5d6 473d
000000f0: c656 eebd 3cba d03d f918 473d a82b d63d
00000100: c854 20be 3bf1 fbbd 32d1 ab3d 93ef b73d
00000110: b2f9 1cbe ae27 843d 4d58 6abe ec68 8dbd
00000120: f9ab 12be bbff 8d3d d2f2 13be 6df8 35be
00000130: 5cb1 aabd af6a 15be 6e61 48be 8be0 a73c
00000140: b18f cfbd 8908 d43d 586d 4bbe a971 1bbe
00000150: f133 96bd 4638 2a3c 7c84 28be 71bc d03d
00000160: ff6a fe3d 83bf 533d 1ef4 d43b db81 fd3d
00000170: d46f 85be 2488 34be 99ab ef3d e4f0 df3d
00000180: 2300 25bd 9ce3 40bd 247f 42be d2b1 dabd
00000190: 7063 0abd 94a6 253c f15f 93bd 91b8 8ebd
000001a0: 2d07 6dbd b749 6dbe f870 0bbd 611a 033e
000001b0: 81a2 fcbc 85e0 6e3d 4a37 583d 3622 263d
000001c0: 4ffb 3abd c01b 44be 7a60 aa3c 65ca bbbd
000001d0: 0685 b7bd 09b6 f839 139f 73bd 3ee0 9fbd
000001e0: 396c d0bd c03f 28be 19fc 51be 0e5b bdbd
000001f0: 4c46 3dbe 8ba3 45be 40cc e83d 0fa5 8abd
00000200: 1148 4cbe 5d00 863d 5c12 98bd 9132 b6bd
00000210: e49b 09be f0b8 4a3d 2732 dd3d 64e1 b03d
00000220: fac6 f5bd 793a 2fbe fefc 063d 2342 a63d
00000230: f741 eebd 5b08 0cbe 1c35 1a3e 76dd 613d
00000240: ba5f 3fbe 2c20 99bd 2347 623d e854 94bd
00000250: 9e84 8cbc ee39 65bd a765 3d3d 7ded e5bd
00000260: b41c 9dbd 806c 91bd ce94 5bbc bb38 0bbe
00000270: 4a1f 2fbe f48c 29bc 25a5 743d 946e 15be
00000280: ba97 0dbd d00c a5bd a792 c8bc 2ae0 a1bc
00000290: d0a1 17be 1d51 55be a8e1 76be 4183 57bc
000002a0: 904b 813c 3e39 e5bb 6ad2 413c a9e5 49bc
000002b0: dd91 3bbc ebe8 6ebe 92a9 e73d cf17 32be
000002c0: 48f9 373d 9457 663d 495c 76bd 7fe4 873c
000002d0: cc12 87bd bf00 f63d 8ff7 78bd e4c6 f73c
000002e0: cc71 5c3d 2fa9 24bd 8d86 16bd 1be1 41be
000002f0: a072 0c3d 794c 9b3d 62b5 72be b85b 8d3d
00000300: 8eec 083e 61e3 8c3b 3e8a 73bd d5d4 e5bc
00000310: 388d 763d 41dd abbc 4b3c 89bd 13eb afbd
00000320: 6a3e d53c eec1 2abe 90f4 9d3d 33df 2abd
00000330: c9cf 163e dce2 28be 4d16 c5bc 7c9a 9fbd
00000340: 46f9 d6bd c787 1abe 01c0 2fbe af52 a63d
00000350: 7338 9bbd 99de 4cbe bcaa 2e3d 75b1 5dbd
00000360: 1073 793d 715e 333c bd4a 67be c018 103e
00000370: 0754 85be 2c92 6abe 4a8b 2ebe ce53 ed3c
00000380: c8e2 e3bd a58a abbc cef3 93bd 7d8c f4bd
00000390: f5ac f8bd 2ba0 39be 82e6 72be 5e07 8abd
000003a0: a8bf ffbd 51b2 9d3d c582 3abd 43be 7cbe
000003b0: 6402 33be 7091 4bbe 5e87 4bbe dda3 0f3d
000003c0: 6491 953d f77b 8ebd f9da 03bc a900 4abd
000003d0: 8d93 dc3d a3b4 42be 17a9 803d 147c 933d
000003e0: 67c5 393d 8db1 28bb 29e0 2e3d 949c 2cbd
000003f0: 84ef 8bbc 7ee4 0ebe 6303 9d3d 9650 453d
-0.25069606 -0.06941933 -0.20913957 -0.07860391 -0.029320035 -0.15162642 0.12889057 -0.060857277
-0.1358278 -0.18369159 -0.0013785907 -0.004970232 -0.06991915 -0.105219536 -0.16210875 0.059304517
-0.17791153 0.15009306 0.05625301 -0.18169072 0.02002729 -0.104384534 -0.012598677 -0.15269661
0.04764229 -0.19357722 0.104514256 -0.14044851 -0.13266145 -0.09088646 0.0019959495 0.0145706395
-0.16529986 -0.21061696 0.0655052 -0.18936132 0.09807362 -0.08236088 -0.04639759 0.037792575
-0.13073921 0.029010026 0.07131674 0.08111478 0.054733593 -0.03216651 -0.02727325 0.021848224
0.013066399 -0.19216847 -0.08749763 -0.030139336 0.09624109 0.028176365 0.081946135 -0.040203243
0.005539716 -0.2154625 0.04100891 0.048788864 -0.116376445 0.101917714 0.0486078 0.104575455
-0.15657341 -0.123018704 0.0838951 0.08981242 -0.15329626 0.06452881 -0.22885247 -0.06904778
-0.14323415 0.06933542 -0.14448097 -0.17770548 -0.0833461 -0.14591478 -0.19568416 0.020492813
-0.10134829 0.103531905 -0.1986593 -0.15180077 -0.07334126 0.010389393 -0.16456789 0.10192192
0.12422752 0.05169631 0.0064988276 0.123782836 -0.2606188 -0.17630059 0.117026515 0.10934618
-0.040283334 -0.047092065 -0.18993813 -0.10678448 -0.033786237 0.010110516 -0.07196034 -0.06968797
-0.05786817 -0.23172651 -0.034043282 0.12803032 -0.030839207 0.058319587 0.052787103 0.04055997
-0.045649823 -0.19151211 0.020797957 -0.09169463 -0.08960919 0.00047437873 -0.059477877 -0.07806443
-0.10176892 -0.16430569 -0.20506324 -0.09245883 -0.18483847 -0.19300668 0.113670826 -0.06769764
-0.19949366 0.06543038 -0.07425377 -0.088963635 -0.13438374 0.049492776 0.108005814 0.0863674
-0.120008424 -0.1711215 0.032956116 0.08118083 -0.116336755 -0.13675062 0.15059322 0.055142842
-0.1868886 -0.074768394 0.055243623 -0.07242757 -0.01715308 -0.05596345 0.04623952 -0.11226938
-0.0767149 -0.07100773 -0.013402177 -0.1359586 -0.1710178 -0.010348547 0.059727807 -0.14592963
-0.034568526 -0.080590844 -0.024483992 -0.01976021 -0.1480782 -0.20831724 -0.24109519 -0.013153852
0.015783101 -0.006995349 0.011829952 -0.012322822 -0.011448351 -0.23331039 0.1131164 -0.17391895
0.044915468 0.056235865 -0.060146604 0.016588448 -0.06595382 0.12011861 -0.060782965 0.030246206
0.053819463 -0.04020041 -0.03674941 -0.18933527 0.034289002 0.075829454 -0.23702005 0.069022596
0.13371488 0.0042995666 -0.05945801 -0.028055588 0.06019327 -0.020979526 -0.06700953 -0.08589759
0.026030738 -0.16675541 0.07712662 -0.041716766 0.14727701 -0.1649279 -0.024058485 -0.077931374
-0.10496764 -0.15090857 -0.17163087 0.081212394 -0.07579126 -0.2000679 0.042643294 -0.054124314
0.060900748 0.01094781 -0.22587104 0.14071941 -0.2604067 -0.22907323 -0.17045322 0.028970625
-0.111272395 -0.020940134 -0.072242364 -0.119408585 -0.12142364 -0.18127505 -0.23720744 -0.067396864
-0.124877274 0.07700027 -0.045534868 -0.24681954 -0.1748138 -0.19879699 -0.19875857 0.03506838
0.07303122 -0.06957238 -0.008047813 -0.049317036 0.107703306 -0.1901422 0.06282251 0.072014004
0.045354273 -0.0025740594 0.042694245 -0.042141512 -0.017081983 -0.1395435 0.076666616 0.048172556

transformer_encoder.layers.0.linear2.weight f4 [32, 320]
00000000: bd2b 2f3c d1c4 5f3d 8121 6ebd fe62 d73c
00000010: e351 193e d7ca 863c e4c6 033d a5d8 0dbc
00000020: ae2d adbd 4fa4 103a 7767 76bd 72bf 043d
00000030: 41fa 73ba a87a a53c 7015 81bc dae9 1a3d
00000040: d2b6 d6bc 5edc d93c a3e3 9bbd 0f0c 87bc
00000050: 25f8 98bc 6dde 023d f9a3 0c3d 0020 97bd
00000060: fdc8 8ebb 3caa fd3b f5e5 b83d b2a6 c73c
00000070: a17e f63c 23de 31bd ff23 49bd 74b5 d93c
00000080: 50c6 103d 9964 f3bc 52ce 8e3c 0957 6abd
00000090: a4b0 c6bd 663e 2bbd 11fd a73d 0437 103d
000000a0: d50e 8bbd 170c 32bd 57ba b5bd fb4c 9abd
000000b0: 89e5 81bd 139a 46bd 9450 903d 155f 113c
000000c0: 0c1a 9abd 944e 083d 5eb0 2ebd 510d 75ba
000000d0: 13fd 4bbd 122b 7bbd 1cd8 063d dcc1 423d
000000e0: 898a 4a3c d54c feba f5f0 cbbc f7b2 7bbd
000000f0: aef8 a1bc 5658 4bbd b0f9 a3bd 80af 473c
00000100: 0c4d 723a 8193 d03c c98a babd 9d33 c63c
00000110: 240e 0bbd 8621 1fbd f0fb 79bc f5ec 99bd
00000120: 185b 733d 96f0 eebc f057 23bd 8c8e 5cbd
00000130: df3f 40bd e630 a1bd a4bc e13c d728 ca39
00000140: 61b0 91bc 8995 1abd 2c73 1a3c 1cab 0a3e
00000150: f3a7 0bbb ec18 1f3d 66ed fc3c 5a1f 21bd
00000160: 5f77 b0bc 4e80 dcbd c467 03bd fd65 953c
00000170: 1e75 dabc 11cf 29bd 7349 ae3c 7103 8c3d
00000180: 34d8 c2bc 5e6d 76bd a2f5 5dbc 8ed5 043e
00000190: d82e 883c 4840 96bd 74f0 c7bd e764 bd3c
000001a0: 7b47 873d 3290 85bd 4c2c c7bc cebe f7bc
000001b0: 062f 813d 7030 f5bc cb68 b2bc d667 463d
000001c0: a8f7 81bd fe87 c3bc af3a f4bd da3d 033d
000001d0: 0cef eabd fcf2 97bd f2e8 223d ecef 03bd
000001e0: 20a6 08bd 6660 b33c 115f a1bd 17e1 e83d
000001f0: 0f1e 2d3d 447b c23d 2718 cd3c e67b cebd
00000200: d1bb 4abd 58a7 d8bc 260a 98bd b76b 1f3d
00000210: 2ee4 0bbd 5a7e f33c ba72 b2bd 6ec8 81bd
00000220: 6c2a 2dbc 7800 2ebe 05f2 dc3c 28a2 2dbd
00000230: d226 b53d 7e1c 23bc 6c3c 8abd a5f1 7a3d
00000240: da90 0a3d cca6 0a3d c084 07bd f0c2 8d3d
00000250: fe61 153d dd58 9c3d 2834 ef3d 9e41 a93d
00000260: a466 ba3d 88b8 fcbd c2d5 c53c 9fe7 2a3d
00000270: c219 ddbb 1e8d c2ba d6b0 62bd 1ae4 93bd
00000280: b0c2 883d 41b6 babc 03cc e93c c4bc 8dbc
00000290: 015e d73d c03a bc3d fed3 afbd a89b 383d
000002a0: ed4b 0f3d 5304 5ebd 536b bf3c 7aa6 80bc
000002b0: acb8 12bd 8fe7 bcbc fdf7 b63d 0c08 e23c
000002c0: a6c6 853c dce6 8c3d c0df 9bbd a163 7cbc
000002d0: 35ff 88bc f7f5 0f3d a3df ff3c 2b6f 703d
000002e0: 1005 a23d df7c b13d 1506 5b3d e1ab 863d
000002f0: f634 463d 1f3e 6d3c 6860 ccbd b08a d1bc
00000300: 1845 55bd 02a8 92bd 7fc4 93bc be09 2cbd
00000310: 5a81 833d f6e4 1f3c ec61 4f3d 3425 b7bc
00000320: 7645 cbbd bb9e 77bd 0efe b2ba a2c8 c7bb
00000330: f217 a23d c98a 6fbd d3af 263d 01db b73b
00000340: 50aa e43d b9ec 6e3d b096 443d 518c 703d
00000350: 9a14 c53d 7a0a a43c 3c09 cfbd ee8e 5fbd
00000360: 674a e43d c5e8 0b3d a063 3c3d e646 dc3a
00000370: 6b0d b3bd f0ef 263c 2473 a83c d656 3c3d
00000380: bebe d33b aeba 8fbd f7c8 bbbd 40a2 a5bd
00000390: 9230 503d b28c a4bb 16f1 5b3c b268 23bb
000003a0: 3778 c2bd 71b0 7a3c 0d91 c2bc a8fe 913c
000003b0: ef1b d33c 612a 9bbc 51b8 5a3c 4495 86bd
000003c0: 3592 023d cb2f 993c 120b e03c d31f acbd
000003d0: 99e1 5a3d f747 073d 0f75 97bd a92d a8bc
000003e0: 5e70 dcbd b23b bdbc d625 093e 8108 ee3c
000003f0: a5af b0bc 31b3 103d 21e9 963d 37d6 85bd
0.01069158 0.054631058 -0.05813742 0.02629232 0.14972644 0.016454143 0.0321721 -0.008657609
-0.08455978 0.0005517648 -0.060157266 0.03240914 -0.0009307005 0.020200089 -0.015757293 0.037820674
-0.026210222 0.026594337 -0.07611778 -0.016485242 -0.018673012 0.031950403 0.034336064 -0.073791504
-0.0043574558 0.007741241 0.09028236 0.024371479 0.030089678 -0.043424737 -0.049106594 0.026575781
0.035345376 -0.029711055 0.017432366 -0.05721191 -0.0970166 -0.041807555 0.082025655 0.035208717
-0.06789938 -0.04346856 -0.08873432 -0.07534214 -0.063426085 -0.04848678 0.07046619 0.008872767
-0.07524499 0.033278063 -0.042648666 -0.00093479926 -0.049801897 -0.061320372 0.03292094 0.04754816
0.012362131 -0.001940156 -0.02489517 -0.06144997 -0.0197719 -0.04964479 -0.080066085 0.012187839
0.0009243048 0.02546096 -0.091085024 0.024194533 -0.033949032 -0.03885033 -0.0152578205 -0.07515899
0.059413046 -0.029167455 -0.039878786 -0.05384688 -0.046935912 -0.07870655 0.027555771 0.0003855887
-0.0177843 -0.037740264 0.009426873 0.13541836 -0.0021309822 0.038842127 0.03087492 -0.03933654
-0.021541296 -0.1076666 -0.03208138 0.018237108 -0.026667174 -0.04145724 0.021275258 0.06836594
-0.023784734 -0.060162894 -0.013547333 0.1297209 0.0166239 -0.073364794 -0.0976266 0.023119403
0.06605431 -0.06521644 -0.024313115 -0.03024235 0.06307797 -0.029930323 -0.021778485 0.04843887
-0.06346065 -0.023868557 -0.119252555 0.032041408 -0.11471376 -0.074193925 0.039772935 -0.03221123
-0.033361554 0.021896552 -0.078794606 0.113710575 0.042264994 0.09496167 0.02503593 -0.100822255
-0.049495522 -0.026446983 -0.07423811 0.038921084 -0.034153156 0.029723335 -0.087132886 -0.06337057
-0.010569196 -0.16992366 0.026970873 -0.042390972 0.08845295 -0.009955524 -0.06749806 0.061265606
0.033829547 0.033850476 -0.033085585 0.06921947 0.036470406 0.07634137 0.1167987 0.082644686
0.091016084 -0.12339884 0.02414978 0.041724797 -0.0067474553 -0.0014843082 -0.055344425 -0.07221241
0.06677759 -0.022791984 0.028539663 -0.017301925 0.10515977 0.09190893 -0.08585356 0.04507032
0.034984518 -0.054203343 0.023366606 -0.015704382 -0.035820648 -0.023059634 0.08934019 0.027591728
0.016330075 0.068799704 -0.07611036 -0.015404613 -0.016723255 0.03514668 0.031234568 0.058699768
0.07911122 0.086663954 0.053472597 0.06575752 0.04839035 0.014480143 -0.099793255 -0.025578827
-0.052067846 -0.07160951 -0.018038033 -0.04200148 0.06421156 0.009759178 0.050630495 -0.022356607
-0.09925358 -0.06045411 -0.0013656036 -0.0060969153 0.079147235 -0.058481965 0.040695023 0.005610824
0.11165297 0.058331225 0.04799527 0.058727566 0.0962307 0.020024527 -0.10109183 -0.054579668
0.111470036 0.034157533 0.045993447 0.0016805797 -0.08742794 0.0101890415 0.020562716 0.04598125
0.006461947 -0.07018028 -0.091691904 -0.08087587 0.05082757 -0.005021655 0.013424179 -0.002493423
-0.094955854 0.015300856 -0.023750806 0.017821625 0.025770156 -0.018941106 0.0133496085 -0.06571439
0.031877715 0.018699547 0.027349029 -0.084045075 0.053437803 0.033027615 -0.07395374 -0.020529585
-0.1076362 -0.023099754 0.1339334 0.02905679 -0.021568129 0.03532714 0.073686846 -0.06534999

transformer_encoder.layers.0.linear2.bias f4 [32]
00000000: b5d2 1f3d 0e4c 043d 6030 6abb b414 d03b
00000010: 47ad f9bc c168 b5bc cb62 033d f06d 033d
00000020: f24d 093d be2e 0e3c beb9 1d3d 194c 19bd
00000030: fbb3 c33c c735 28bc 684f a7bc 2fe6 fc3c
00000040: 4532 9d3c a6e3 bbba b700 313d debb 37bd
00000050: 7960 a8bc ea01 a1bc d5fd 34ba 66af 163c
00000060: 7e04 403d 398a e5bc cc82 823c a680 403c
00000070: e8ee 35bb a236 993c f627 4b3d 4486 0b3d
0.039019305 0.032299094 -0.00357344 0.0063501243 -0.030478133 -0.022144677 0.03207664 0.032087266
0.0335216 0.008678136 0.038507216 -0.037426088 0.023889532 -0.010266728 -0.020423606 0.030871479
0.01918901 -0.0014334812 0.043213572 -0.0448569 -0.020553814 -0.019654233 -0.0006904279 0.009197092
0.046879284 -0.028020011 0.01593151 0.011749422 -0.0027760807 0.018702809 0.049598657 0.034063593

transformer_encoder.layers.0.norm1.weight f4 [32]
00000000: 0e49 523f 89ba 743f d7cc 803f 7719 823f
00000010: b9c4 693f d891 813f d024 643f 679a 7b3f
00000020: 162b 653f ace8 763f 3588 873f 54ee 853f
00000030: 664c 863f 1369 763f 3b32 7b3f 914f 8d3f
00000040: 8fcd 6e3f 53af 833f 347f 683f ec04 8c3f
00000050: 71a2 533f 2606 753f 0c58 833f b96e 7d3f
00000060: 8ba3 8e3f 8023 853f 6807 7f3f eb49 7f3f
00000070: af59 793f ca67 673f 7112 4f3f b09a 903f
0.8214272 0.9559713 1.0062512 1.0164021 0.913158 1.0122633 0.8911867 0.98282474
0.8951887 0.9644878 1.0588442 1.0463357 1.0492065 0.9625408 0.9812352 1.1039907
0.9328241 1.028788 0.90819097 1.0939002 0.8266974 0.95712507 1.0261245 0.98997074
1.1143659 1.0401459 0.99620676 0.99722165 0.9740247 0.90392745 0.80887514 1.1297207

transformer_encoder.layers.0.norm1.bias f4 [32]
00000000: 484e a33d 5acc 52bd 3f32 d6bd c8e4 d5bd
00000010: 8fac 153e 7d22 7ebd 0950 2e3e 3d49 e7bc
00000020: 6017 c8bd bd96 16bd ce9d b7bd 994f ef3d
00000030: 6ff8 6cbd 8af0 f4bd fcb6 84bd e3aa e73d
00000040: 1b13 f13d 07f4 b93d 37ff 573e 3464 b13d
00000050: 06e1 073e b6c1 d3bd 0532 cabd 4638 5dbb
00000060: 460d 6bbd 42fd 693d c1ab 89bc 5e62 753d
00000070: 2d8f 983d a1ea d7bd aced 1f3e dfd6 c13d
0.07973915 -0.051464416 -0.104588024 -0.10444027 0.14616607 -0.06204461 0.17022718 -0.028233165
-0.097700834 -0.03676485 -0.08965646 0.11685104 -0.057854112 -0.11959942 -0.06480214 0.11311891
0.11771222 0.09079748 0.2109345 0.0866169 0.13269433 -0.10339682 -0.09872822 -0.0033755465
-0.057385705 0.05712629 -0.016805531 0.059908263 0.074491836 -0.10542799 0.15618008 0.094648115

transformer_encoder.layers.0.norm2.weight f4 [32]
00000000: db9b 6d3f abd7 773f bd56 723f 81d0 723f
00000010: 285b 6c3f 7b30 813f fe50 5a3f 730c 803f
00000020: d2b4 7f3f d5a1 733f 1a9e 773f 273e 743f
00000030: 6c80 823f 7cba 6f3f 85c8 723f 9433 833f
00000040: 31b2 6c3f 1d7b 6b3f 3560 733f 983d 883f
00000050: 6505 693f dc9f 5f3f d30d 813f e5db 823f
00000060: c413 893f 7c0d 7f3f 3a14 743f d6e4 833f
00000070: bdee 763f 27cb 6f3f 126c 643f 0584 843f
0.9281594 0.9681346 0.946636 0.948494 0.92326593 1.009292 0.85279834 1.0003799
0.99885285 0.9516881 0.9672562 0.95407337 1.0195441 0.9364393 0.9483722 1.0250115
0.924594 0.9198473 0.95068675 1.0643797 0.91023856 0.873533 1.0082344 1.0223356
1.0709157 0.9962995 0.95343363 1.030421 0.96458036 0.9366936 0.892274 1.0352789

transformer_encoder.layers.0.norm2.bias f4 [32]
00000000: d417 2a3e 0bf5 d1bd f1fb 4abe 1149 39be
00000010: 0ed2 623e d6ca 18be d9f7 863e 301e 02be
00000020: b97e 28be 7927 d9bd 1bec 2cbe aed4 393e
00000030: e022 c6bd 726c 2fbe 7450 19be 0876 733e
00000040: dcd3 483e 820a 453e 7e2a 733e f466 183e
00000050: c1c5 923e 21c5 22be 1201 4bbe 7e5c af3d
00000060: 3f09 11be ebbe 333e 15ac 02be f77b cc3d
00000070: c7c6 173e 3b27 22be 1b64 503e d3c9 1d3e
0.16610652 -0.10251816 -0.1982267 -0.18094279 0.22150442 -0.14921126 0.26360968 -0.12706828
-0.16454591 -0.10603232 -0.16886942 0.18147537 -0.09674621 -0.17131212 -0.14972097 0.23775494
0.19612068 0.1924229 0.23746678 0.14883024 0.286665 -0.15895511 -0.19824627 0.08562563
-0.14163683 0.17553298 -0.12760957 0.09984582 0.14821921 -0.15835278 0.20350687 0.15409021
