projects/reinforcement-learning/collab-and-compet/weights/checkpoint_actor_agent_0.pth (torch, 85990 bytes, 10 tensors)

fc1.weight f4 [128, 24]
0.17542286 0.36814895 -0.057903796 0.10739723 -0.32489088 0.625734 -0.07113713 0.023195734
-0.011873734 0.5040065 0.11627407 0.26669827 1.1383423 0.44274223 -0.011415579 0.2704645
-0.18147545 0.4616555 -0.046837475 0.028523464 2.6572149 0.22249626 0.020721974 0.041934457
-0.13583875 1.652756 0.27219978 0.18001084 -0.055442117 -0.10814558 0.35476068 0.16857432
-0.20965435 1.6757232 0.061984416 0.01873332 0.54092616 -0.3929545 -0.039179098 0.012926367
-0.23441486 1.6949984 0.40460965 0.5888671 1.0060313 -0.81929857 0.27056187 0.4835142
-0.3594016 1.1121767 0.06713375 -0.16552778 -0.29815578 0.059821844 0.024942122 -0.24945879
-0.47794998 1.0915484 0.03650498 0.035833966 0.43315658 -0.40678868 -0.028488345 0.007482602
-0.4376016 1.1624525 -0.22676225 0.38580543 0.8035496 -0.5243079 -0.15501525 0.46163028
0.20674294 -1.4442142 0.10683506 -0.43353862 -0.5821444 -0.02837633 -0.057882536 -0.48197073
0.16779497 -1.6260037 -0.32669938 -0.016974956 0.33664456 0.10292488 -0.29358324 0.14415987
0.21321519 -1.4393042 0.03374081 0.5893587 1.3912699 0.019457508 0.051915232 0.66498184
0.25481376 -0.9979094 0.18807325 -0.07810178 -0.29685605 0.17320317 0.021125862 -0.1673304
0.50207806 -1.0155857 0.3020924 -0.5492189 -0.41641283 0.026975034 0.31369945 -0.5925454
0.378722 -1.0028406 0.023957627 0.46767166 -0.86437756 0.06267893 0.054580543 0.5434118
0.0050512804 0.4605072 0.050052073 0.22284761 -1.8317287 -0.10127743 -0.025950903 0.33800814
-0.13296334 0.5353824 -0.03940106 0.5218461 -0.66343904 0.09247535 0.095054545 0.51101935
-0.30443695 0.315917 0.066976525 -0.2924607 0.5828773 0.7155761 0.09566866 -0.24891013
0.13075425 0.49068055 0.03358394 -0.3694437 -0.95378643 -1.1704792 0.012349836 -0.2933993
0.06810123 0.40226465 0.11257702 0.35656586 -0.7141557 -0.84126246 0.22730593 0.27468112
0.07948102 0.60719526 0.13585435 0.38082504 -0.40275693 -0.9105693 0.12759125 0.3899545
-0.5352117 0.18505768 0.011133841 0.9592819 0.19517566 0.60787636 -0.00965306 0.9363953
-0.8315965 0.21576343 -0.2817507 0.5521396 -0.11562751 0.6950395 -0.28857374 0.4682906
-0.86986786 0.33370566 0.30020723 0.27250087 -0.2408878 0.67190415 0.22951609 0.23578022
-0.42315304 0.13429998 0.10303437 -0.4978721 0.5139928 -0.32056463 -0.060978994 -0.4281983
-0.49992824 -0.25946924 0.008780209 -0.6458642 0.90646136 -0.5942926 -0.07281486 -0.7889599
-0.34557462 -0.29391006 0.14842151 -0.3353865 0.50294685 -0.0057964143 0.07456226 -0.2743874
0.3768583 -0.5124281 0.0077626184 -0.003444992 -0.014102081 0.5238938 0.031062376 0.122452185
0.4933289 -0.24396838 0.0023966487 -0.0861868 -0.7934612 0.3858898 0.03623722 -0.20988065
0.59832627 -0.22761278 0.024293907 0.030650072 -1.649216 0.6486151 0.017999806 0.1212104
-0.13413225 -0.57402587 0.07362898 -0.2626935 -0.24149257 -1.173857 0.014650328 -0.3518172
-0.3710732 -1.0129147 0.058572117 -0.29502422 -0.16028374 -0.40341115 0.104139775 -0.24582064
00000000: 0da2 333e 057e bc3e 882c 6dbd 14f3 db3d
00000010: 1958 a6be 1a30 203f 58b0 91bd fb04 be3c
00000020: 0d8a 42bc 9206 013f 1a21 ee3d ad8c 883e
00000030: 33b5 913f 1caf e23e 6908 3bbc 537a 8a3e
00000040: b3d4 39be 1c5e ec3e a7d8 3fbd 0aaa e93c
00000050: cf0f 2a40 0fd6 633e 21c1 a93c 77c3 2b3d
00000060: 5019 0bbe 828d d33f c55d 8b3e c354 383e
00000070: 4617 63bd 6e7b ddbd 31a3 b53e bf9e 2c3e
00000080: a1af 56be 197e d63f 5fe3 7d3d 9f76 993c
00000090: 237a 0a3f 5531 c9be 437a 20bd 1dc9 533c
000000a0: 730a 70be b5f5 d83f ff28 cf3e ffbf 163f
000000b0: a2c5 803f 8dbd 51bf 1687 8a3e 2c8f f73e
000000c0: 7d03 b8be ce5b 8e3f 6b7d 893d 1d80 29be
000000d0: e0a7 98be c007 753d 6c53 cc3c 2072 7fbe
000000e0: dcb5 f4be dcb7 8b3f 3f86 153d a3c6 123d
000000f0: b3c6 dd3e 9b46 d0be 6460 e9bc 9d30 f53b
00000100: 510d e0be 3ecb 943f 5d34 68be 4a88 c53e
00000110: 6db5 4d3f 0b39 06bf 51bc 1ebe ce5a ec3e
00000120: 6cb4 533e 03dc b8bf 57cc da3d c6f8 ddbe
00000130: 6a07 15bf 7a75 e8bc 3d16 6dbd dec4 f6be
00000140: 72d2 2b3e e420 d0bf 2445 a7be 100f 8bbc
00000150: ad5c ac3e 48ca d23d 8b50 96be a59e 133e
00000160: 1555 5a3e 1f3b b8bf ce33 0a3d 36e0 163f
00000170: 2215 b23f 5a65 9f3c 11a5 543d 403c 2a3f
00000180: f376 823e fe76 7fbf 4696 403e d3f3 9fbd
00000190: 84fd 97be 2c5c 313e 2510 ad3c a958 2bbe
000001a0: 3088 003f b6fe 81bf dbab 9a3e 9c99 0cbf
000001b0: 1034 d5be bffa dc3c 379d a03e 0eb1 17bf
000001c0: dae7 c13e 155d 80bf c942 c43c a972 ef3e
000001d0: d947 5dbf d05d 803d d98f 5f3d 091d 0b3f
000001e0: 3685 a53b 9ac7 eb3e 6703 4d3d 2a32 643e
000001f0: 1676 eabf 8b6a cfbd fd96 d4bc 670f ad3e
00000200: 8b27 08be d20e 093f 0263 21bd b597 053f
00000210: 24d7 29bf b763 bd3d f5ab c23d 2ad2 023f
00000220: 29df 9bbe dfbf a13e fd2a 893d 69bd 95be
00000230: 7237 153f ff2f 373f eeed c33d 4ce2 7ebe
00000240: 71e4 053e 7b3a fb3e 508f 093d ba27 bdbe
00000250: 592b 74bf 43d2 95bf f756 4a3c 6f38 96be
00000260: a878 8b3d a2f5 cd3e c88e e63d cd8f b63e
00000270: e8d2 36bf fa5c 57bf e3c2 683e 01a3 8c3e
00000280: f2c6 a23d 2671 1b3f 671d 0b3e 80fb c23e
00000290: 2836 cebe 121b 69bf 48a7 023e 1ea8 c73e
000002a0: a203 09bf c37f 3d3e b76a 363c 8093 753f
000002b0: 21dc 473e c99d 1b3f de27 1ebc 9ab7 6f3f
000002c0: 82e3 54bf 17f1 5c3e a141 90be 0559 0d3f
000002d0: 1ece ecbd 1cee 313f f0bf 93be c9c3 ef3e
000002e0: a9af 5ebf 78db aa3e c3b4 993e 3c85 8b3e
000002f0: 4bab 76be e901 2c3f 4406 6b3e 5f70 713e
00000300: 84a7 d8be ef85 093e af03 d33d 18e9 febe
00000310: 0895 033f 0c21 a4be 1cc5 79bd cf3c dbbe
00000320: 98f6 ffbe 27d9 84be deda 0f3c 5b57 25bf
00000330: da0d 683f 8f23 18bf f51f 95bd 47f9 49bf
00000340: 28ef b0be 617b 96be cffb 173e c8b7 abbe
00000350: 20c1 003f d9ef bdbb 19b4 983d 817c 8cbe
00000360: 92f3 c03e 7d2e 03bf 905d fe3b 60c5 61bb
00000370: 6a0c 67bc e71d 063f 8676 fe3c 36c8 fa3d
00000380: 9b95 fc3e d9d2 79be 1811 1d3b b482 b0bd
00000390: 4620 4bbf 5993 c53e 7b6d 143d f4ea 56be
000003a0: e92b 193f 5313 69be 0404 c73c dc15 fb3c
000003b0: 8319 d3bf a40b 263f 5474 933c 283d f83d
000003c0: f759 09be 5cf3 12bf caca 963d c37f 86be
000003d0: d449 77be f240 96bf ee07 703c 6221 b4be
000003e0: 4efd bdbe 30a7 81bf 51e9 6f3d 6a0d 97be
000003f0: 6c21 24be e88b cebe 3c47 d53d 68b8 7bbe

fc1.bias f4 [128]
0.52132696 0.7224696 0.36551985 0.3431498 0.17263262 0.029593078 -0.09125318 0.44606856
0.15702929 -0.46602237 0.099750645 0.36364427 -0.34537688 -0.120602824 0.46391198 -0.15395527
-0.18110779 0.48255897 0.19562155 0.44890505 0.1603596 -0.31572786 0.67654145 0.30387944
0.004881771 0.27711132 0.0044868854 0.29055282 0.44465122 0.5520215 -0.32533422 0.38463634
0.36689463 0.29087484 -0.016534576 0.43029785 0.6543199 -0.024377177 -0.1488843 0.0069441497
0.2509661 0.69742656 0.49722642 0.12651458 -0.21784557 -0.32267252 0.1482066 0.07528316
0.47108832 0.57789564 -0.78653854 0.21453783 0.6251752 0.02478019 -0.15471664 -0.23496166
0.71085316 0.41501847 0.11029 0.14238685 -0.12681213 -0.29907727 0.40501356 0.72709143
-0.017123405 -0.7871887 -0.18809134 -0.37273097 0.51027507 0.2717285 0.14703074 0.1357659
-0.31527674 0.06774689 -0.018271755 0.37281 0.30064747 -0.258064 0.31449246 0.9677503
0.5356219 0.09880703 0.5019187 0.58054864 0.86384916 0.015564272 0.020227056 -0.066277586
0.39082217 -0.41082332 0.10044406 0.049743135 0.66243416 0.845054 0.19574372 0.056039218
-0.3823807 0.26910383 0.5832837 0.77153 0.08921858 0.48249018 0.0983125 -0.054015864
0.2730365 0.21378222 0.42131126 -0.08492126 0.74213797 0.38185292 0.32746452 0.2721589
0.27526122 0.20079269 0.27258375 0.22465807 0.14858986 0.010859926 -0.343617 -0.23099193
0.6174661 0.11157293 -0.020798454 0.8120441 0.6405065 0.35028753 0.64249176 0.11720854
00000000: af75 053f c5f3 383f 6b25 bb3e 55b1 af3e
00000010: 9bc6 303e 2f6d f23c f2e2 babd 1963 e43e
00000020: 49cc 203e 7c9a eebe 114a cc3d 952f ba3e
00000030: 3dd5 b0be 9dfe f6bd df85 ed3e 73a6 1dbe
00000040: 5274 39be f811 f73e 0451 483e e2d6 e53e
00000050: 4f35 243e 15a7 a1be d231 2d3f 1696 9b3e
00000060: 43f7 9f3b 89e1 8d3e b906 933b 57c3 943e
00000070: 53a9 e33e 4851 0d3f 3592 a6be 0eef c43e
00000080: 9dd9 bb3e 8ced 943e 8573 87bc 0050 dc3e
00000090: 8281 273f a5b2 c7bc 2075 18be c08b e33b
000000a0: a17e 803e 8c8a 323f 7694 fe3e 0a8d 013e
000000b0: e912 5fbe 5535 a5be 79c3 173e 0f2e 9a3d
000000c0: 7d32 f13e f8f0 133f 975a 49bf ceaf 5b3e
000000d0: 7b0b 203f d3ff ca3c 0a6e 1ebe ca99 70be
000000e0: 79fa 353f 4d7d d43e b9df e13d dccd 113e
000000f0: 0adb 01be a820 99be f05d cf3e aa22 3a3f
00000100: 6246 8cbc 3385 49bf 049b 40be 98d6 bebe
00000110: 63a1 023f ff1f 8b3e 3a8f 163e 3706 0b3e
00000120: f46b a1be e2be 8a3d a6ae 95bc f4e0 be3e
00000130: 77ee 993e f720 84be 2805 a13e 7cbe 773f
00000140: 841e 093f 575b ca3d be7d 003f d69e 143f
00000150: 3825 5d3f 4a01 7f3c 36b3 a53c 8bbc 87bd
00000160: d819 c83e 6f57 d2be 9eb5 cd3d 75bf 4b3d
00000170: 4995 293f 7555 583f 0b71 483e 6189 653d
00000180: 67c7 c3be fac7 893e 1552 153f fd82 453f
00000190: 3bb8 b63d f408 f73e 1058 c93d bd3f 5dbd
000001a0: 71cb 8b3e bae9 5a3e 1cb6 d73e 33eb adbd
000001b0: c1fc 3d3f 3a82 c33e 6ea9 a73e 6958 8b3e
000001c0: 0aef 8c3e 999c 4d3e 1990 8b3e c40c 663e
000001d0: f127 183e d5ed 313c 91ee afbe 2689 6cbe
000001e0: 4212 1e3f 5980 e43d 8561 aabc 1fe2 4f3f
000001f0: 3cf8 233f e358 b33e 577a 243f 080b f03d

fc2.weight f4 [128, 128]
-0.5456484 -0.059830163 0.38185632 0.6099721 0.34626374 0.2575428 -0.17821461 0.09023163
0.06507196 0.5153152 0.09015178 0.5756275 -0.23760538 -0.12852141 0.20557295 0.04040351
-0.18636775 -0.3911476 0.2197044 0.58576673 0.27192032 -0.23509203 0.07263919 -0.07552111
0.28190023 0.06999754 0.38763994 0.2861349 -0.039774425 0.23663855 0.49476102 -0.35849047
-0.06322709 -1.0345845 0.18357185 0.11890663 -0.2131096 0.38190997 0.27838776 0.2580102
0.6359462 0.19660738 0.5999458 0.39740673 0.6247902 0.36183426 0.4794372 0.037207294
-0.61821723 0.55340457 0.16054302 0.19067413 0.4755337 0.011897427 -0.53166944 0.541357
-0.056697905 0.23629394 0.26810965 0.20288639 -0.024945505 -0.30632362 0.40345514 0.38171282
0.5076361 -0.15788157 0.64605427 0.41176155 -0.40078846 -0.042992216 0.17341824 -0.30437285
-0.008417228 0.2629949 0.5816884 -0.16938789 -0.56803924 -0.930779 0.25620958 0.20591144
0.046337042 0.077501796 0.44847938 0.43885368 0.51727664 0.8506633 -0.3431996 0.26381302
0.3619416 0.036181126 -0.48256725 0.037801728 0.13738589 0.15437798 0.4577127 0.07163627
0.2527694 0.19372843 0.210167 0.35359576 -0.096470974 0.45889103 -0.6416275 -0.46045125
0.1322695 0.26117972 -0.25171262 0.12058747 0.110216066 -0.1233076 0.5342155 0.36520612
0.025989685 0.5841055 -0.51147735 -0.13325392 -0.15767023 0.114660785 -0.15206696 -0.4485846
-0.096769854 0.14036527 1.145844 0.48326394 -0.10758564 -0.016309025 0.10975783 0.2870358
0.34109533 -0.797934 -0.39063114 -0.2492436 0.31706303 -0.06801846 -0.3189217 0.1164305
0.30147287 0.48974663 0.03647923 -0.4474883 0.42080328 0.35955846 0.35590756 0.328333
-0.053939458 0.3014935 -0.1866192 0.29479608 -0.024267623 -0.073366106 0.29377443 -0.544329
0.18976633 -0.30997008 0.48184183 -0.027255435 0.4168585 -0.12733601 0.47639915 -0.07236386
0.12759042 -1.4011688 0.36741066 -0.026816286 -0.2776919 -0.2082999 0.076483384 0.16763586
1.0354297 -0.039136212 0.2586306 -0.2067297 0.1531238 0.06383359 0.35147244 0.44874144
0.0951571 0.19340271 0.2074812 -0.018562641 -0.0785245 0.08006446 0.54721016 -0.0639969
0.26498076 -0.06837732 0.22160174 -0.30274266 0.15133367 0.023260698 -0.86784506 -0.3652098
-1.6968005 0.52258307 0.2960084 0.20624493 -0.97849905 -0.13034427 -0.19456579 0.24403669
0.64337677 -0.33889857 -0.39533675 0.2818616 -0.89809954 0.8319868 0.50635386 -1.1693836
-0.35512984 0.43550825 -0.7884412 0.295051 -0.0099468455 0.08592853 -0.5959501 0.7396673
0.35958153 -0.712828 -0.2046628 -0.17564383 0.52498364 0.3833769 0.12950484 -0.3100497
0.045830984 -0.1376216 -0.79070735 -0.32875043 -0.03757685 -0.12118258 0.08980931 -0.25111648
0.011865875 0.45600036 0.1535388 0.09934605 -0.78797126 -0.19715188 -0.5237998 -0.47976518
-0.20398918 0.4095366 0.7639619 -0.15157005 0.9474178 -0.26866385 0.40861955 0.5066613
-0.65748245 0.36950058 0.8967041 -0.081724234 -0.38123262 0.27133545 -0.013662997 -0.45827228
00000000: 9daf 0bbf 7910 75bd ac82 c33e 2227 1c3f
00000010: 7b49 b13e a6dc 833e e47d 36be 5ccb b83d
00000020: 7344 853d b2eb 033f 7fa1 b83d 535c 133f
00000030: d34e 73be 1e9b 03be b781 523e 277e 253d
00000040: 30d7 3ebe 8044 c8be 31fa 603e cff4 153f
00000050: 2439 8b3e f7bb 70be dbc3 943d d0aa 9abd
00000060: 3a55 903e df5a 8f3d be78 c63e 4680 923e
00000070: 82ea 22bd 6051 723e 5151 fd3e 108c b7be
00000080: 347d 81bd 446d 84bf 42fa 3b3e 5285 f33d
00000090: 6739 5abe b489 c33e d788 8e3e ea19 843e
000000a0: 5fcd 223f 7253 493e 0c96 193f e578 cb3e
000000b0: 40f2 1f3f 5742 b93e cb78 f53e ad66 183d
000000c0: 7c43 1ebf ecab 0d3f 6465 243e 1440 433e
000000d0: 2779 f33e 6ded 423c 7d1b 08bf 5f96 0a3f
000000e0: 103c 68bd 0af7 713e ab45 893e 73c1 4f3e
000000f0: 845a ccbc 73d6 9cbe ac91 ce3e dd6f c33e
00000100: 70f4 013f b5ab 21be d063 253f 69d2 d23e
00000110: 2534 cdbe 9b18 30bd 8d94 313e c2d6 9bbe
00000120: 6ae8 09bc 44a7 863e 88e9 143f 0574 2dbe
00000130: 056b 11bf 8847 6ebf e72d 833e 73da 523e
00000140: e9cb 3d3d 43b9 9e3d 179f e53e 6eb1 e03e
00000150: 3e6c 043f 12c5 593f dcb7 afbe 8012 873e
00000160: 6950 b93e a932 143d 0e13 f7be fcd5 1a3d
00000170: e3ae 0c3e 4315 1e3e 5259 ea3e 09b6 923d
00000180: fe6a 813e bf60 463e 0536 573e 810a b53e
00000190: 9392 c5bd c4f3 ea3e b341 24bf 44c0 ebbe
000001a0: a871 073e 59b9 853e 7ae0 80be 90f6 f63d
000001b0: f6b8 e13d b288 fcbd 59c2 083f 4cfc ba3e
000001c0: 52e8 d43c f087 153f 2ef0 02bf b773 08be
000001d0: 4e74 21be 46d3 ea3d 71b7 1bbe e1ac e5be
000001e0: 462f c6bd eabb 0f3e 04ab 923f 5f6e f73e
000001f0: dc55 dcbd 819a 85bc b7c8 e03d 5bf6 923e
00000200: 0ca4 ae3e 6745 4cbf ce00 c8be b739 7fbe
00000210: 1656 a23e 434d 8bbd b449 a3be 1d73 ee3d
00000220: a75a 9a3e 12c0 fa3e 3f6b 153d 301d e5be
00000230: 8773 d73e 0c18 b83e 8439 b63e 431b a83e
00000240: 9fef 5cbd 5b5d 9a3e 1b19 3fbe 83ef 963e
00000250: e5cc c6bc f840 96bd 9a69 963e 2559 0bbf
00000260: 1b52 423e 66b4 9ebe f9b3 f63e ca46 dfbc
00000270: 7a6e d53e 5f64 02be 97ea f33e 8133 94bd
00000280: 10a7 023e 8059 b3bf 401d bc3e d4ad dbbc
00000290: a22d 8ebe 924c 55be 52a3 9c3d bca8 2b3e
000002a0: f688 843f 4b4d 20bd 3b6b 843e f3b0 53be
000002b0: 7ccc 1c3e 2fbb 823d 32f4 b33e 70c1 e53e
000002c0: bae1 c23d 5c0b 463e f475 543e ae10 98bc
000002d0: 74d1 a0bd d6f8 a33d f715 0c3f cf10 83bd
000002e0: 8fab 873e 6909 8cbd 91eb 623e 1601 9bbe
000002f0: 37f7 1a3e 388d be3c 182b 5ebf c7fc babe
00000300: c230 d9bf 01c8 053f 6a8e 973e df31 533e
00000310: ea7e 7abf f878 05be 413c 47be c1e4 793e
00000320: 57b4 243f 1d84 adbe 9469 cabe 2a50 903e
00000330: dae9 65bf 16fd 543f 68a0 013f 5dae 95bf
00000340: 94d3 b5be f0fa de3e 48d7 49bf ed10 973e
00000350: 18f8 22bc 4cfb af3d 3090 18bf d65a 3d3f
00000360: 121b b83e e57b 36bf 2093 51be fadb 33be
00000370: 5465 063f fa49 c43e eb9c 043e d6be 9ebe
00000380: 45b9 3b3d adec 0cbe cc6b 4abf fa51 a8be
00000390: 2fea 19bd 932e f8bd f2ed b73d 5792 80be
000003a0: 1669 423c e178 e93e 4639 1d3e f175 cb3d
000003b0: 7cb8 49bf 2fe2 49be be17 06bf c8a3 f5be
000003c0: 8ae2 50be c8ae d13e 0293 433f 2e35 1bbe
000003d0: f989 723f 4f8e 89be 9536 d13e 8eb4 013f
000003e0: c550 28bf 2e2f bd3e 668e 653f 095f a7bd
000003f0: ec30 c3be 7bec 8a3e c3da 5fbc aaa2 eabe

fc2.bias f4 [128]
0.36405545 -0.20087023 0.44161 0.015363633 0.056479227 0.10837349 0.20518313 0.1969573
0.07498761 0.17625472 0.07204939 -0.14274147 0.14704163 -0.049966052 0.554388 -0.07013663
0.40565157 0.47226718 0.10488132 -0.21727043 0.48402393 0.014105099 0.3377127 -0.14157313
-0.15062095 0.06317609 0.23195793 -0.096975796 0.1268923 0.09716065 0.03597004 0.22777554
0.062088057 0.2604695 -0.037858162 0.31873956 0.069415264 0.00946642 0.2348277 0.3964175
0.45125204 0.12754697 -0.09626199 -0.1067048 0.24902493 0.48031265 -0.04567246 0.3210652
0.20359552 -0.053994883 -0.076960705 0.16507214 -0.07348127 0.6595349 0.04205268 0.291653
0.29768857 0.17146389 0.45914906 0.06932963 -0.059208527 0.4825661 0.08087019 0.014123102
-0.11881334 0.27725476 0.22528207 -0.08550758 -0.16381444 0.1851408 -0.17361195 -0.10173142
0.1586197 0.16082849 -0.080543995 -0.008721873 -0.01750541 0.3183122 -0.06957794 0.15739943
-0.01643421 0.13046776 0.2845329 0.03217438 0.28642842 0.55535823 0.020330433 0.15261151
0.25191784 0.582412 -0.26642492 0.19511177 0.11408592 0.5678594 -0.011327286 0.20623817
0.016666243 0.14683363 0.3813335 0.1455182 0.35466018 0.19802737 0.5550461 0.50096464
0.08405697 0.42243388 0.05219699 0.1547796 0.51421756 0.38663146 -0.29328987 0.21312968
0.5253857 0.33928496 -0.039488226 0.12027994 0.17873742 0.5817048 0.0067159785 -0.12035516
0.10657506 -0.0672882 0.10181683 -0.066743925 0.26303977 0.030905139 0.37397796 0.02501299
00000000: 7a65 ba3e edb0 4dbe b51a e23e bfb7 7b3c
00000010: c356 673d ecf2 dd3d 871b 523e 2daf 493e
00000020: 1b93 993d 1e7c 343e a18e 933d d22a 12be
00000030: 1592 163e 34a9 4cbd 5fec 0d3f cba3 8fbd
00000040: 90b1 cf3e 01cd f13e 04cc d63d 247c 5ebe
00000050: fcd1 f73e 1319 673c aee8 ac3e 8cf8 10be
00000060: 613c 1abe 7762 813d 6186 6d3e 3f9b c6bd
00000070: 0ef0 013e 2afc c63d 5255 133d fe3d 693e
00000080: 0c50 7e3d 425c 853e 2911 1bbd d531 a33e
00000090: 9729 8e3d 0b19 1b3c ac76 703e 3cf7 ca3e
000000a0: 820a e73e ac9b 023e 0225 c5bd 0c88 dabd
000000b0: 6400 7f3e 8aeb f53e 0c13 3bbd a862 a43e
000000c0: 587b 503e bd29 5dbd 939d 9dbd ac08 293e
000000d0: 597d 96bd 47d7 283f 6e3f 2c3d 8b53 953e
000000e0: a36a 983e 3b94 2f3e 9615 eb3e b1fc 8d3d
000000f0: a484 72bd e712 f73e 459f a53d 9564 673c
00000100: 6954 f3bd 56f4 8d3e 58b0 663e 991e afbd
00000110: f9be 27be 8d95 3d3e 55c7 31be 9058 d0bd
00000120: 346d 223e 39b0 243e 40f4 a4bd 30e6 0ebc
00000130: 8167 8fbc d1f9 a23e e17e 8ebd 512d 213e
00000140: 09a1 86bc 5799 053e 4cae 913e 48c9 033d
00000150: bfa6 923e f52b 0e3f 028c a63c 3146 1c3e
00000160: 60fb 803e f418 153f d968 88be 61cb 473e
00000170: e1a5 e93d 3c5f 113f 1596 39bc 1930 533e
00000180: a587 883c 8e5b 163e 253e c33e b902 153e
00000190: 0596 b53e b0c7 4a3e 8017 0e3f 383f 003f
000001a0: 1026 ac3d 4149 d83e 83cc 553d 8b7e 1e3e
000001b0: c3a3 033f 8ff4 c53e 172a 96be ab3e 5a3e
000001c0: ad7f 063f c2b6 ad3e 68be 21bd 5455 f63d
000001d0: f106 373e 9bea 143f b611 dc3b c47c f6bd
000001e0: 0644 da3d 65ce 89bd 5885 d03d 0ab1 88bd
000001f0: 26ad 863e c62c fd3c 0a7a bf3e 0be8 cc3c

fc3.weight f4 [2, 128]
-0.75007004 2.1226397 -1.4636861 1.1167933 0.6555136 0.51495975 1.049873 0.641137
0.24135797 0.17386778 -0.50693935 -1.348603 0.094259985 0.049841695 -0.026653906 1.0951948
-0.039423898 -0.06132565 -0.26679543 1.359184 -0.10551842 0.37529615 -0.045351736 -1.2730286
0.07186123 -0.7772454 -0.27286422 -0.72630143 0.37334943 0.18238111 -0.42848113 -0.14188394
0.30632183 0.04867558 -1.1849549 0.026053742 -0.85859734 0.9848213 0.1418953 0.62739784
0.00920344 -0.3397109 -0.48048466 -0.052530427 1.1379168 0.0066822376 -0.86475843 -0.05073509
0.10667992 1.4142218 -0.6711904 0.43273148 -0.36341912 0.0005070983 0.06887577 -1.5287638
0.04280888 0.28465492 0.0362998 0.70061153 0.014001949 -0.621128 0.013980724 -1.4684453
-0.3781102 0.08861562 0.18517593 -0.57564795 -1.442806 0.038679756 0.4573396 -1.3750945
0.05812072 0.6733955 1.170473 0.11748821 1.6095526 -0.972039 0.086572036 -1.4057401
-1.3315358 0.1287956 -0.14090632 -0.42032892 -0.020259673 -0.004558798 0.7772514 0.4130741
0.16159053 -0.01726357 -1.3222073 0.6168898 -0.5708965 -0.022934504 -0.1266091 -0.8860201
1.027233 -0.2712968 0.038095802 -0.82915187 0.31889018 0.003287403 0.015232188 0.013757012
0.7913062 -0.010720851 -1.602556 -0.13172427 -0.009160624 0.2595179 1.3415282 0.9869404
-0.013576853 0.37417904 0.09156568 -0.937312 0.5186738 -0.0010314827 -0.9656626 0.8899388
0.3591954 -0.83138406 -0.9306687 2.0416987 0.30372512 0.9228257 0.55959016 0.54147
-0.036957126 0.31336445 0.65083945 0.5184853 0.33438563 1.8053875 0.02047098 0.7358697
1.3503563 0.95321226 -0.91721135 0.16668203 2.0958297 -1.0940832 0.023813369 -0.101872414
0.35026866 0.04018027 -1.5807272 -0.57569563 0.4541436 -2.1789083 0.90386796 0.35356566
-1.7518243 0.4176982 1.3469845 0.33111 -0.668078 0.0035584157 -0.9623718 0.0026966147
-1.0353986 0.7731619 0.5299578 -1.0797504 -0.98421395 -0.72863907 1.1456307 0.5785694
-0.24503791 -1.0757539 -1.0813705 1.510758 1.0386734 0.023136685 0.071669966 0.88891745
1.2292745 0.7262414 0.21939605 1.1863335 0.99627566 0.0014787768 1.8282872 -0.19119285
1.4612489 1.2465715 -0.035598516 -0.026876347 2.101865 -0.12844011 1.5736734 0.5717425
-1.1039536 1.5694653 -0.40906748 1.428375 0.5332498 1.2734832 2.7592576 -0.62419593
-1.6221162 0.7726558 0.97385997 1.5447253 0.08998976 -0.52215767 1.6602544 -0.6212297
0.14599633 -1.3569424 1.0038352 -0.5222343 1.889678 0.25159 -1.1482834 1.7333639
0.8616891 0.24871705 -0.003628827 -0.94696283 -1.5719085 0.03385103 1.3091986 -0.10644729
-0.1653032 1.3507224 -0.064445056 -0.09302118 -1.4218075 -0.05691375 0.039363574 0.15614997
-1.2489885 0.009534174 0.46014342 -1.1040181 0.0729897 0.082447425 -0.39586723 -0.44222578
-0.0018561521 -0.08307109 -0.7676412 0.61733973 0.032282315 0.07055965 -0.8944914 -0.18773523
-0.85856885 -0.8888135 -0.47912076 -0.064887725 1.0946888 0.209927 0.3312286 0.09837439
00000000: 9704 40bf 54d9 0740 115a bbbf 15f3 8e3f
00000010: bdcf 273f 67d4 033f 3d62 863f 8e21 243f
00000020: 8b26 773e 650a 323e c7c6 01bf 069f acbf
00000030: 610b c13d ce26 4c3d 4b59 dabc 582f 8c3f
00000040: f47a 21bd 9b30 7bbd 6999 88be bef9 ad3f
00000050: 0b1a d8bd d126 c03e bec2 39bd 9af2 a2bf
00000060: fb2b 933d 8ef9 46bf dcb4 8bbe e4ee 39bf
00000070: a827 bf3e 1dc2 3a3e e161 dbbe 064a 11be
00000080: 37d6 9c3e 0c60 473d 9aac 97bf a86e d53c
00000090: 09cd 5bbf 401d 7c3f 004d 113e 259d 203f
000000a0: 06ca 163c 96ee adbe 1602 f6be 252a 57bd
000000b0: 42a7 913f acf6 da3b cf60 5dbf 99cf 4fbd
000000c0: 007b da3d 3805 b53f 22d3 2bbf fb8e dd3e
000000d0: 1212 babe caee 043a bd0e 8d3d 88ae c3bf
000000e0: 5d58 2f3d 4abe 913e 19af 143d 475b 333f
000000f0: 6e68 653c 3f02 1fbf 680f 653c 04f6 bbbf
00000100: a997 c1be 1b7c b53d c29e 3d3e aa5d 13bf
00000110: dead b8bf aa6e 1e3d 6b28 ea3e 1903 b0bf
00000120: fe0f 6e3d a663 2c3f 0fd2 953f a99d f03d
00000130: d205 ce3f 8cd7 78bf ae4c b13d 4bef b3bf
00000140: c46f aabf fee2 033e bf49 10be 5a35 d7be
00000150: 9df7 a5bc f861 95bb f3f9 463f 737e d33e
00000160: fd77 253e 556c 8dbc 173e a9bf 7dec 1d3f
00000170: 4626 12bf 24e1 bbbc d1a5 01be 37d2 62bf
00000180: 5f7c 833f 6ae7 8abe 580a 1c3d 4c43 54bf
00000190: 9345 a33e 7871 573b 6d90 793c 1765 613c
000001a0: 0b93 4a3f 82a6 2fbc 8e20 cdbf bae2 06be
000001b0: 7116 16bc 88df 843e 32b7 ab3f 20a8 7c3f
000001c0: 7371 5ebc 6594 bf3e ca86 bb3d aef3 6fbf
000001d0: cec7 043f d132 87ba aa35 77bf 07d3 633f
000001e0: 76e8 b73e 96d5 54bf 4e40 6ebf 31ab 0240
000001f0: dc81 9b3e 4e3e 6c3f 4d41 0f3f c79d 0a3f
00000200: 5b60 17bd 4e71 a03e 6a9d 263f 74bb 043f
00000210: 9834 ab3e f016 e73f c2b2 a73c f561 3c3f
00000220: 7ad8 ac3f b805 743f 5dce 6abf b2ae 2a3e
00000230: 1322 0640 eb0a 8cbf 4114 c33c 7ca2 d0bd
00000240: 6a56 b33e 1194 243d 4555 cabf ca60 13bf
00000250: 8385 e83e 3c73 0bc0 e463 673f 8f06 b53e
00000260: c73b e0bf 8adc d53e fd69 ac3f 4087 a93e
00000270: 2907 2bbf 4f34 693b 005e 76bf b0b9 303b
00000280: f187 84bf f0ed 453f 50ab 073f 4335 8abf
00000290: 72f5 7bbf 1788 3abf 07a4 923f 201d 143f
000002a0: 38eb 7abe 4eb2 89bf 596a 8abf 8560 c13f
000002b0: 40f3 843f 2589 bd3c b4c7 923d 1890 633f
000002c0: de58 9d3f f5ea 393f 5ca9 603e c7d9 973f
000002d0: ec0b 7f3f 84d3 c13a 5105 ea3f 0fc8 43be
000002e0: 340a bb3f a88f 9f3f c0cf 11bd c92b dcbc
000002f0: f584 0640 ce85 03be 216e c93f b75d 123f
00000300: 5a4e 8dbf 3de4 c83f 4b71 d1be fed4 b63f
00000310: 0f83 083f 7f01 a33f ad97 3040 4ecb 1fbf
00000320: 81a1 cfbf c5cc 453f e34e 793f 8fb9 c53f
00000330: 8d4c b83d 20ac 05bf 3783 d43f e908 1fbf
00000340: 1080 153e 4ab0 adbf ac7d 803f 26b1 05bf
00000350: f8e0 f13f 68d0 803e f3fa 92bf dede dd3f
00000360: a897 5c3f afaf 7e3e 9dd1 6dbb 286c 72bf
00000370: 4c34 c9bf 61a7 0a3d d293 a73f 0901 dabd
00000380: 3e45 29be 79e4 ac3f c5fb 83bd e381 bebd
00000390: cafd b5bf 641e 69bd b33b 213d c7e5 1f3e
000003a0: dbde 9fbf 3935 1c3c eb97 eb3e 7750 8dbf
000003b0: a07b 953d 32da a83d 1caf cabe 6b6b e2be
000003c0: 214a f3ba 2d21 aabd 2284 44bf fa09 1e3f
000003d0: 763a 043d 9481 903d 63fd 64bf aa3d 40be
000003e0: 2bcb 5bbf 4889 63bf 514f f5be dbe3 84bd
000003f0: c31e 8c3f 1af7 563e cc96 a93e 8378 c93d

fc3.bias f4 [2]
-0.061076716 0.14063218
00000000: 942b 7abd e201 103e

ln1.weight f4 [128]
1.0100076 0.8144086 0.7965262 1.2140446 0.78526676 0.9101189 1.5042386 0.378886
0.78436816 1.7406977 0.7406182 0.9021228 1.75146 1.3142424 0.6413027 0.8764047
1.5021231 0.56951296 1.1381505 0.6764846 0.7460579 1.7824779 0.48262742 0.89883494
0.5156022 0.5696971 0.51808155 0.982718 0.6810464 1.3249309 1.1436236 0.5682815
1.1467725 2.861992 2.0015247 0.75136614 0.67756456 1.1457391 0.7439278 0.9611139
0.54994285 1.1646001 1.0396643 1.128501 0.6764417 1.1026132 1.4846282 1.8713628
0.82767487 1.2742666 0.92159826 0.49817201 1.0023434 1.5539898 0.89683807 1.1572509
0.41581616 0.8011625 0.63288385 0.6491134 0.6142452 0.79973435 0.8712457 0.87436366
2.195997 1.4974947 1.6583989 0.8895949 1.4312489 0.6568644 1.1652465 0.8911095
0.63398916 0.73631036 1.0846374 0.98109555 2.184041 1.185184 0.9250857 0.9682373
0.9491697 0.93688357 0.82560956 0.5533576 0.410156 1.4436657 1.332377 0.8207154
0.5016293 1.1524011 0.6216583 1.1135502 1.3114951 0.62991357 0.46215537 0.77440894
0.8523456 0.68254465 0.5556112 1.1312814 0.7436399 1.1917359 1.4798917 0.9423181
1.509997 0.76758075 0.56735545 0.9906201 1.2311444 0.77604514 0.4345706 0.96018875
0.74303114 1.2457166 1.1488545 0.41520756 0.79878044 1.3879887 0.6653136 1.265054
0.7193844 0.7103842 0.8918175 0.7667402 1.3010123 0.7924817 1.002427 0.55046546
00000000: ee47 813f 157d 503f 24e9 4b3f d065 9b3f
00000010: 3e07 493f 8dfd 683f e48a c03f 59fd c13e
00000020: 5acc 483f 2fcf de3f 2899 3d3f 85f1 663f
00000030: d72f e03f 1839 a83f 6a2c 243f 0f5c 603f
00000040: 9245 c03f 9acb 113f eaae 913f 182e 2d3f
00000050: a7fd 3e3f 3c28 e43f f11a f73e 0c1a 663f
00000060: 81fe 033f abd7 113f fea0 043f 6893 7b3f
00000070: 0f59 2e3f 5697 a93f 4262 923f e57a 113f
00000080: 71c9 923f e02a 3740 fb18 0040 8859 403f
00000090: df74 2d3f 94a7 923f 0d72 3e3f 900b 763f
000000a0: 0ec9 0c3f 9e11 953f b813 853f b972 903f
000000b0: 492b 2d3f 6e22 8d3f 4c08 be3f d188 ef3f
000000c0: 80e2 533f 2b1b a33f dded 6b3f 6710 ff3e
000000d0: ca4c 803f 23e9 c63f 2e97 653f cc20 943f
000000e0: dbe5 d43e fc18 4d3f ad04 223f 4c2c 263f
000000f0: 2c3f 1d3f 64bb 4c3f f509 5f3f 4cd6 5f3f
00000100: 378b 0c40 e8ad bf3f 6a46 d43f 7ebc 633f
00000110: 2a33 b73f 4428 283f cc26 953f c11f 643f
00000120: 1d4d 223f d67e 3c3f 66d5 8a3f 1429 7b3f
00000130: 54c7 0b40 1cb4 973f 6bd2 6c3f 66de 773f
00000140: c9fc 723f 9ad7 6f3f 265b 533f d8a8 0d3f
00000150: f8ff d13e 0aca b83f 548b aa3f 681a 523f
00000160: c76a 003f e181 933f 0025 1f3f d088 8e3f
00000170: 12df a73f 0442 213f a19f ec3e aa3f 463f
00000180: 5233 5a3f 3fbb 2e3f 893c 0e3f d4cd 903f
00000190: 2f5f 3e3f cd8a 983f 176d bd3f c23b 713f
000001a0: 9547 c13f 2c80 443f 353e 113f 4799 7d3f
000001b0: 2496 9d3f e5aa 463f 0a80 de3e eece 753f
000001c0: 4a37 3e3f a473 9f3f aa0d 933f 1696 d43e
000001d0: e07c 4c3f 9da9 b13f fe51 2a3f 4aed a13f
000001e0: 9329 383f bddb 353f 274e 643f 1649 443f
000001f0: 9287 a63f 15e0 4a3f 874f 803f 4eeb 0c3f

ln1.bias f4 [128]
-0.3446163 -0.7209491 -0.3295589 -0.82694364 -0.6931449 -0.54279894 -0.18729877 -0.8865388
-0.38853225 0.016142553 -0.44662958 -0.62873507 -0.43011668 -0.12109609 -0.6608175 -0.43335342
-0.21908478 -0.5388445 -0.42704412 -0.6781506 -0.7390103 -0.23605897 -0.8268226 -0.55007815
-0.6009606 -0.59663874 -0.4086689 -0.3831756 -0.3864175 -0.34903723 -0.2988819 -0.63566345
-0.5118935 -0.03735497 -0.18674493 -0.7404063 -0.6510787 -0.9028298 -0.56812805 -0.51009417
-0.7188723 -0.49797386 -0.34082708 -0.56065243 -0.41246822 -0.11028318 -0.19977728 0.120246395
-0.41443217 -0.20893005 -0.22689858 -0.89454365 -0.5368188 -0.44913304 -0.6266316 -0.31529573
-0.84002 -0.45969406 -0.7338121 -0.42442703 -0.68004704 -0.3316771 -0.47954798 -0.4770872
-0.42946994 -0.21491519 -0.114316136 -0.5440613 -0.36759555 -0.6344634 -0.29393336 -0.39580747
-0.65292245 -0.6617886 -0.60595304 -0.41816077 0.013024978 -0.3855199 -0.5279337 -0.10656573
-0.4889625 -0.385203 -0.5035368 -0.6392267 -0.81431025 -0.34032917 -0.26657465 -0.49409425
-0.7247637 -0.36512852 -0.782533 -0.5670454 -0.16884433 -0.78652537 -0.64709437 -0.6030229
-0.29836565 -0.6162849 -0.7043714 -0.3900885 -0.50444424 -0.1480135 -0.23388349 -0.54081833
-0.24874291 -0.7305104 -0.7392416 -0.5082705 -0.31955916 -0.61631453 -0.8020181 -0.4437287
-0.6141519 -0.46271938 -0.60565555 -0.71286684 -0.6497189 -0.37952 -0.48585248 -0.37967423
-0.6587295 -0.5472063 -0.8385105 -0.6983909 -0.24880666 -0.6667248 -0.23580217 -0.7518855
00000000: 8c71 b0be 1f90 38bf f2bb a8be 94b2 53bf
00000010: f271 31bf dff4 0abf 40cb 3fbe 35f4 62bf
00000020: b3ed c6be 633d 843c a2ac e4be c8f4 20bf
00000030: 4138 dcbe 3a01 f8bd 562b 29bf 80e0 ddbe
00000040: c357 60be b7f1 09bf 87a5 dabe 479b 2dbf
00000050: c72f 3dbf 71b9 71be a5aa 53bf ecd1 0cbf
00000060: 8ed8 19bf 51bd 18bf 0d3d d1be 982f c4be
00000070: 84d8 c5be 02b5 b2be 0c07 99be d7ba 22bf
00000080: 740b 03bf 8601 19bd 103a 3fbe 448b 3dbf
00000090: 18ad 26bf db1f 67bf d770 11bf 8895 02bf
000000a0: 0408 38bf 6ef6 febe e380 aebe eb86 0fbf
000000b0: 092f d3be 26dc e1bd 6a92 4cbe be43 f63d
000000c0: 7430 d4be c2f1 55be 1a58 68be d000 65bf
000000d0: f56c 09bf c4f4 e5be ee6a 20bf 716e a1be
000000e0: 8d0b 57bf 055d ebbe 1cdb 3bbf 804e d9be
000000f0: 9017 2ebf 95d1 a9be 5087 f5be c644 f4be
00000100: 7ce3 dbbe ba12 5cbe 941e eabd 9a47 0bbf
00000110: 7c35 bcbe 326c 22bf 6f7e 96be 47a7 cabe
00000120: ed25 27bf fa6a 29bf bd1f 1bbf 2b19 d6be
00000130: b866 553c dd62 c5be aa26 07bf 223f dabd
00000140: 4b59 fabe 5439 c5be cae7 00bf 5ca4 23bf
00000150: a376 50bf a03f aebe 797c 88be ecf9 fcbe
00000160: 1d8a 39bf 20f2 babe 1554 48bf e329 11bf
00000170: 87e5 2cbe ba59 49bf faa7 25bf b55f 1abf
00000180: 62c3 98be d9c4 1dbf af51 34bf aeb9 c7be
00000190: 4223 01bf da90 17be 277f 6fbe 1273 0abf
000001a0: 76b6 7ebe bb02 3bbf f03e 3dbf 041e 02bf
000001b0: 429d a3be cac6 1dbf 0f51 4dbf 6830 e3be
000001c0: 0f39 1dbf 8ee9 ecbe 3e0c 1bbf 717e 36bf
000001d0: fa53 26bf 7250 c2be a8c1 f8be a964 c2be
000001e0: 7fa2 28bf b615 0cbf a0a8 56bf bfc9 32bf
000001f0: 2cc7 7ebe 7aae 2abf 2076 71be 917b 40bf

ln2.weight f4 [128]
0.7358638 2.7674303 1.0245237 1.9349998 1.5382959 1.3473134 2.011369 1.2099059
2.33259 1.7827064 2.2604077 2.1215968 2.6235907 2.1096756 0.23285782 2.0366566
0.21530655 0.28855804 2.0547943 2.3220072 0.42969108 2.19057 1.016341 2.296562
2.6233375 2.0317023 1.6706204 1.801053 1.8018693 1.0099608 2.172391 0.9577805
1.9596463 0.7454661 2.034804 1.6283524 1.9366003 1.9956768 1.095362 0.5220909
0.25441328 1.5347329 2.0952604 2.5528736 0.8870651 0.20169684 1.9134322 0.7382778
1.6510819 2.1372154 1.4349949 1.7375501 1.2874833 0.13008408 1.769708 1.6742932
0.76532805 1.9275831 0.20950225 1.6965444 2.5500667 0.47805104 2.061412 1.6186181
1.9003086 1.0361629 1.1459843 2.341311 2.1632838 2.0674088 3.248012 1.829264
2.0470877 1.5721805 1.9239069 2.4199257 2.4815912 1.8634284 2.5667818 2.3085742
2.1183968 1.5354921 1.856324 1.3471359 0.78626263 0.26450926 2.122163 2.2019758
0.8396644 0.2859283 2.3013682 1.4846158 2.1967945 0.26283857 2.2581596 1.6453893
1.8652921 2.2451205 0.34652936 1.557968 0.89379793 0.34966537 0.17737886 0.22272816
2.1763408 0.20992403 1.3381311 2.0320706 0.20882247 0.27675897 2.2001367 1.3835063
0.20177363 0.3700438 1.7556705 1.8814818 1.4348038 0.24953257 2.1100898 1.9449716
1.8210388 2.0399582 2.0499098 2.9696002 1.3054421 1.5091643 1.1508641 1.5642617
00000000: 9261 3c3f 941d 3140 9823 833f 13ae f73f
00000010: e1e6 c43f c474 ac3f 45ba 0040 32de 9a3f
00000020: 2849 1540 b92f e43f 85aa 1040 3ec8 0740
00000030: e9e8 2740 ed04 0740 4872 6e3e 9558 0240
00000040: 5279 5c3e e1bd 933e c081 0340 c49b 1440
00000050: 7800 dc3e 4d32 0c40 7617 823f dffa 1240
00000060: c3e4 2740 6907 0240 e4d6 d53f e888 e63f
00000070: a7a3 e63f 6546 813f 7408 0b40 1a31 753f
00000080: b1d5 fa3f ded6 3e3f 3b3a 0240 da6d d03f
00000090: 85e2 f73f 5672 ff3f d234 8c3f c0a7 053f
000000a0: 7542 823e 2172 c43f bf18 0640 4862 2340
000000b0: b316 633f 9e89 4e3e 59eb f43f c6ff 3c3f
000000c0: a756 d33f 23c8 0840 eaad b73f 0b68 de3f
000000d0: 41cc a43f c334 053e cb85 e23f 3d4f d63f
000000e0: 8aec 433f 0bbb f63f c287 563e 5e28 d93f
000000f0: 4b34 2340 1bc3 f43e 2dee 0340 e12e cf3f
00000100: 503d f33f fca0 843f 9daf 923f 0ad8 1540
00000110: 3e73 0a40 6d50 0440 6edf 4f40 5325 ea3f
00000120: 7c03 0340 363d c93f 9542 f63f 10e0 1a40
00000130: 64d2 1e40 d284 ee3f 2746 2440 aebf 1340
00000140: d093 0740 018b c43f 069c ed3f f36e ac3f
00000150: 8248 493f c26d 873e 85d1 0740 2ced 0c40
00000160: 3ff4 563f 3265 923e 9e49 1340 e407 be3f
00000170: 4898 0c40 c792 863e b085 1040 1e9c d23f
00000180: e4c1 ee3f 0eb0 0f40 4c6c b13e 7f6b c73f
00000190: f1cf 643f 5707 b33e cea2 353e da12 643e
000001a0: 2b49 0b40 53f6 563e e147 ab3f 720d 0240
000001b0: 8fd5 553e 5ab3 8d3e 0acf 0c40 bc16 b13f
000001c0: bf9d 4e3e 6276 bd3e d0b9 e03f 65d4 f03f
000001d0: a7a7 b73f 7785 7f3e b60b 0740 d4f4 f83f
000001e0: cd17 e93f ad8e 0240 b931 0340 ee0d 3e40
000001f0: ba18 a73f 4c2c c13f 844f 933f ba39 c83f

ln2.bias f4 [128]
-0.73646814 -0.42867845 -0.7951658 -0.301751 -0.14500174 -0.5779112 0.083322346 -0.45304582
-0.12368157 -0.2635347 -0.26904345 -0.21638837 -0.34298298 -0.27476585 -0.6621156 -0.12281261
-0.641366 -0.7295802 -0.21989296 -0.25024456 -0.5644664 -0.5162693 -0.42881516 -0.23036715
-0.40555018 -0.16113289 -0.43293193 -0.0979873 -0.31170395 -0.18579315 -0.23037918 0.009936203
-0.42612508 -0.2967635 -0.37550017 -0.37755623 -0.20927839 -0.40215632 -0.6271 -0.786957
-0.64134914 -0.41366032 -0.27470297 -0.24135305 -0.6260487 -0.6975962 -0.3228846 -0.5296291
-0.36128095 -0.24717839 -0.37549433 -0.21295278 -0.5155059 -0.72354555 -0.5843253 -0.7608121
-0.5460487 -0.39753187 -0.7648235 -0.16439335 -0.44241494 -0.59601724 -0.37601507 -0.49298373
-0.28198406 -0.52858055 -0.22748868 -0.28173956 -0.5887348 -0.22783954 -0.44379646 -0.520711
-0.43406528 -0.45120543 -0.49177846 -0.34494585 -0.3472264 -0.2974858 -0.23217903 -0.38189512
-0.44001454 -0.43180564 -0.34528643 -0.27947733 -0.70751745 -0.71351165 -0.39358038 -0.14485103
-0.52858216 -0.6989189 -0.28108984 -0.35106385 -0.36342347 -0.7101089 -0.009487601 -0.37993136
-0.21852198 -0.027892826 -0.48907214 -0.54367256 -0.56540316 -0.39446363 -0.57286394 -0.70801234
-0.33754432 -0.74838984 -0.79691845 -0.18857774 -0.5882121 -0.6850748 -0.29625407 -0.41196844
-0.75418967 -0.70993763 -0.08614002 -0.24328966 0.12902002 -0.63523406 -0.28076494 -0.08264112
-0.22851032 -0.2476043 -0.19942282 -0.22676013 -0.24625354 -0.5218472 -0.31677005 -0.029999819
00000000: 2d89 3cbf be7b dbbe fc8f 4bbf 1b7f 9abe
00000010: 567b 14be fdf1 13bf e8a4 aa3d 9ff5 e7be
00000020: c34c fdbd 05ee 86be 10c0 89be ea94 5dbe
00000030: 779b afbe 1cae 8cbe 6880 29bf 2d85 fbbd
00000040: 9030 24bf c5c5 3abf 9f2b 61be 0e20 80be
00000050: df80 10bf 3a2a 04bf a98d dbbe 5ee5 6bbe
00000060: 46a4 cfbe 0500 25be 41a9 ddbe 91ad c8bd
00000070: a997 9fbe 8f40 3ebe 85e8 6bbe 75cb 223c
00000080: 112d dabe 63f1 97be 8f41 c0be 0d4f c1be
00000090: 134d 56be 6fe7 cdbe a089 20bf 0476 49bf
000000a0: 752f 24bf 49cb d3be dea5 8cbe 4125 77be
000000b0: ba44 20bf aa95 32bf 2151 a5be c695 07bf
000000c0: d1f9 b8be 551c 7dbe cb40 c0be 4b10 5abe
000000d0: 32f8 03bf 483a 39bf 5896 15bf 95c4 42bf
000000e0: d9c9 0bbf 4c89 cbbe 79cb 43bf bb56 28be
000000f0: 3684 e2be 9694 18bf 0c85 c0be 5d68 fcbe
00000100: 3760 90be 0e51 07bf cbf2 68be 2b40 90be
00000110: 53b7 16bf c54e 69be 4a39 e3be 514d 05bf
00000120: ce3d debe 6604 e7be 63ca fbbe be9c b0be
00000130: a9c7 b1be 0f50 98be 57c0 6dbe c287 c3be
00000140: 9649 e1be a115 ddbe 62c9 b0be a717 8fbe
00000150: dd1f 35bf b3a8 36bf 5e83 c9be d453 14be
00000160: 2951 07bf 59ec 32bf 02eb 8fbe a4be b3be
00000170: a412 babe b2c9 35bf e271 1bbc 5d86 c2be
00000180: 3ac4 5fbe 7f7f e4bc aa67 fabe 202e 0bbf
00000190: 43be 10bf 23f7 c9be 36a7 12bf 4c40 35bf
000001a0: 9cd2 acbe 7a96 3fbf d902 4cbf 861a 41be
000001b0: 1195 16bf 1061 2fbf 9dae 97be 87ed d2be
000001c0: 9312 41bf 79be 35bf 2e6a b0bd ed20 79be
000001d0: d31d 043e b39e 22bf 6cc0 8fbe bf3f a9bd
000001e0: 9cfe 69be fb8b 7dbe 7f35 4cbe cf33 68be
000001f0: e329 7cbe c797 05bf af2f a2be 2ec2 f5bc
