projects/reinforcement-learning/collab-and-compet/weights/checkpoint_critic_agent_1.pth (torch, 99828 bytes, 9 tensors)

fc1.weight f4 [128, 48]
00000000: e178 0ebd 60a6 b93c 499d 13bd 394e 78bc
00000010: 671b aabc 5a44 823d 3429 493d 4116 833d
00000020: 477d b43b 84a5 89bd 515c e93b 7daf c43d
00000030: 0fb2 bfbc b976 79bd 3dbd d5bb 05e2 9a3d
00000040: 469f 80bc c147 333d 00d9 1f3d 5d2d bc3d
00000050: 70a3 a93a 52e0 27be e64f d3bb dd00 fd3d
00000060: e7e1 acbd 9c18 183d 338d a4bb ceae b33c
00000070: 72dc bebd de37 263e 57e5 293d 494a 9cbd
00000080: 6f4a 92bc 8b05 943d 94ce 863c 4b9e 3fbd
00000090: 152c c3bd 8986 9dbd 131f d73a 747f 53bd
000000a0: e117 443d 3655 273e 3915 bfbc 3af6 163c
000000b0: b291 dd3d 0457 80bd 570e 19bd 7f50 2d3d
000000c0: 5d76 f03c a4a8 b53d 621c babc 6ac5 f2bc
000000d0: eb49 2f3d 737a 623d ef78 0b3d 1ac1 31bd
000000e0: f6c5 ffbb c6d8 293e 6d9b 69bd f7b7 2bbd
000000f0: b0e9 6dbd 99a6 53bd e0e2 783d ec14 acbc
00000100: dc3b 183e 3910 5e3c 2b12 dd3c 04c2 bcbd
00000110: 28ef efbd 1c5e 78be 9084 7f3d 0b9f 81bd
00000120: 0821 a93c 5e38 af3c d160 8bbd a17e 8eb9
00000130: f3da 183d 9107 b93c 1d04 e13a b23e 16be
00000140: 277b ccbd fa3d 943d 368e 1ebd 6c88 0ebd
00000150: 3aa6 81bc d619 12bc 361b 57bd 7c83 b1bc
00000160: 9a1a 593d 3edc 183d 8ff0 473d f921 d5bd
00000170: 972c e53d c49b e1bd 3f3d 52bd 3e32 b6bd
00000180: e54a 0e3e 87be 8a3c 30d6 a53c 78cd d0bb
00000190: 2b09 843d e0a2 693b eb65 16bd 649d a2bb
000001a0: e093 363d 0200 dcbd 27bc 7dbc 712c bbbc
000001b0: 3b68 d6bd 5d9b a43d 8869 9e3b 6e7d cfbc
000001c0: 9227 f63d 18ea 91bd 3073 623c 7ad1 6d3d
000001d0: 446f fcbc c200 f43c ba0a 623c 4a01 e23d
000001e0: b07a 97bd 873e 0d3e 91a7 0d3d 056b 9f3c
000001f0: d63c 96bc 159b 0f3e 8109 9f3c 2762 863d
00000200: 6343 863d fa2f e03c 9fd6 bdbc 21ac f6bc
00000210: d864 253d 2dfc 01bc 4885 82bd 0e65 043d
00000220: 6337 37bd 154b 4c3d 1b63 12bd 30ad f43c
00000230: 18aa 8d3d 2043 d13d a9ca 5d3d 0f87 973d
00000240: 5c87 3f3d 7dcb 87bd 5d1a 343c 0ccc 83bc
00000250: be14 edbd 586f 1f3c 95c7 ccbc 44b4 923c
00000260: 8090 833c 6025 01bd 0507 563c 37fe 563c
00000270: b136 1e3e e338 f73d 12b0 9abc d8ea d53b
00000280: f5c5 f33b 9929 db39 3014 27bd 39dd 6a3c
00000290: 7945 ad3e bb80 c3bc e754 293d be08 febc
000002a0: 24f7 50bd af7a 843c 207b 75bd ffd5 5bbd
000002b0: 156b 93bb e1fb b33d f386 883d 8c7f 6c3d
000002c0: c17d aa3d 3e0b 27be 1191 89bc 453a 593d
000002d0: 76c2 f9bd 5d2b e23d 109e 9f3c bfd9 3cbd
000002e0: 9ab3 89bd 2440 3ebd 0d21 36bc 9bfd 733d
000002f0: 12c9 a2be a92a 013e 2a1a db3c 469c b13c
00000300: d9d5 94bb 8fdc 683d 4115 433d 1a6e 32bd
00000310: ced0 bcbc d18c 26bd 1010 54bc 0f28 b6bc
00000320: 6fce 283d 2847 4dbd db12 1abd c100 163e
00000330: e571 b8bd 5655 df3d 45c2 663d deb9 a63d
00000340: 57bb 1dbd 7b3b b53d 5026 75bd e4de bcbd
00000350: 51d6 2fbe a9d6 8c3d 9092 663d 19d7 cbbd
00000360: 7c38 9bbd 8176 8abb 4633 833d 4400 8b3d
00000370: ce68 ac3c 1552 693d bee0 53bd 23c3 523c
00000380: cb6e 0c3d 2f38 933d d2e5 5b3d 524e 0dbc
00000390: 54de dbbc 6d05 073e ba76 b9bd 4cf5 d03a
000003a0: 7163 a7bb 5edb 1f3e e322 2fbc 6a56 093d
000003b0: 1375 e13d 5934 2c3c 9671 ff3c 699a aa3d
000003c0: 29a4 fcbc 5113 a13d 50da d6bb 2580 5cbd
000003d0: 7ad1 9a3c 35bb 56bd 02ea 803d e94a 0e3d
000003e0: 865c a53c 9601 bcbc ecd6 0d3d ef30 9dbc
000003f0: 62bc 473d c449 99bd 6b44 9bbb 02b7 45bd
-0.034783248 0.022662342 -0.03603867 -0.0151553685 -0.02076502 0.06360693 0.04911156 0.06400729
0.0055080983 -0.06721023 0.0071216007 0.09603784 -0.023400335 -0.06090424 -0.006522803 0.07562641
-0.015700947 0.0437696 0.039025307 0.0918834 0.0012942385 -0.16394165 -0.0064487336 0.1235368
-0.08441525 0.037132844 -0.005021715 0.02193394 -0.0931939 0.16232249 0.04147848 -0.07631356
-0.017857758 0.0722762 0.016455926 -0.04678182 -0.09529892 -0.07691676 0.0016412459 -0.05163522
0.047874335 0.16341099 -0.02332555 0.009213978 0.10818805 -0.06266597 -0.03736719 0.042313095
0.029353315 0.08870056 -0.022718612 -0.02963515 0.042795103 0.055292558 0.034050878 -0.043397047
-0.007805581 0.16586599 -0.05703299 -0.04192349 -0.05808419 -0.05167255 0.06076324 -0.02100607
0.14866585 0.0135536725 0.026986202 -0.09216693 -0.11715537 -0.2425465 0.06238228 -0.06329163
0.020645633 0.021389183 -0.06805576 -0.00027178696 0.03731818 0.022586616 0.0017167364 -0.14672354
-0.09984427 0.072383836 -0.03870984 -0.03479807 -0.015826333 -0.008917293 -0.052516185 -0.021669142
0.053003885 0.037319414 0.0488134 -0.104068704 0.111901455 -0.11016038 -0.05132794 -0.08896302
0.13895757 0.016936554 0.020243734 -0.00637215 0.06447061 0.003565006 -0.03671829 -0.00496261
0.04457462 -0.10742189 -0.015486754 -0.02284834 -0.10469099 0.08037446 0.0048343576 -0.025328364
0.12019266 -0.07124728 0.013821408 0.0580611 -0.030814774 0.029785518 0.013796503 0.11035402
-0.07396448 0.13793384 0.034583632 0.01946021 -0.018339556 0.14024003 0.019413712 0.0656169
0.06555822 0.027366627 -0.023173628 -0.030111374 0.040379375 -0.007933659 -0.06373078 0.032322936
-0.044730555 0.04987629 -0.035739046 0.029867738 0.069172084 0.10217881 0.05414835 0.07398807
0.046759948 -0.06630609 0.010992614 -0.016088508 -0.11576222 0.009731136 -0.024997512 0.017908223
0.016060114 -0.031529784 0.013063197 0.013122133 0.1545055 0.12071397 -0.018882785 0.0065282397
0.00743937 0.00041801928 -0.040790737 0.01433497 0.33842066 -0.023865094 0.041340735 -0.031010028
-0.05101694 0.016171781 -0.059931874 -0.05367088 -0.004498849 0.087882765 0.066663645 0.057738826
0.08324767 -0.16312882 -0.016792806 0.053034086 -0.121952936 0.11043427 0.01948455 -0.046106096
-0.067237094 -0.046447888 -0.011116278 0.05956803 -0.3179403 0.1261393 0.026745874 0.021680962
-0.004542094 0.056850966 0.04762769 -0.043562032 -0.023048785 -0.040661637 -0.012943283 -0.022235898
0.041212495 -0.050116688 -0.03761564 0.14648725 -0.09006099 0.109049484 0.056337614 0.0814092
-0.03850874 0.088492356 -0.05985099 -0.092222005 -0.17171599 0.06876881 0.056292117 -0.09953136
-0.07579133 -0.0042255525 0.06406264 0.0678716 0.021046069 0.056963045 -0.051728003 0.012863907
0.034285348 0.071884505 0.05368597 -0.00862463 -0.026839413 0.13185664 -0.090558484 0.0015942245
-0.00510829 0.15611026 -0.01068947 0.033529676 0.11008658 0.0105105275 0.031182092 0.08330233
-0.030839996 0.078650124 -0.0065567866 -0.053833146 0.018898714 -0.05242463 0.062946334 0.03473941
0.02018572 -0.022949975 0.034628794 -0.019188372 0.04876364 -0.07484773 -0.0047383807 -0.048270233

fc1.bias f4 [128]
00000000: cfb5 113e 2e66 e23d 224c 84bd fe14 073d
00000010: 54ce 59be b87f 0dbd e922 0b3e 2ec2 f43d
00000020: 9ac2 e2bc d949 3d3e 67c3 033e ad8b 73be
00000030: 0af5 47bd 945f 44be 659d f83d 72c6 07be
00000040: ebbe 213c d60d 3dbd e232 0e3d 4c7f 5abe
00000050: 6422 babd 3516 c33d 2395 7e3d 68a9 c73d
00000060: f5d5 2b3e f043 ca3d 3df4 fcbd 5f30 14bc
00000070: 17ed ba3d b9ec 433d 35c8 f4bd 9be8 0f3d
00000080: a66a 26be 9638 d0bd 7199 86bd 66e2 a93d
00000090: 8857 e3bc b210 203e 2893 f7bd 90bd 43be
000000a0: c419 95bd fdce 523c c2e3 cc3d 985f 80bd
000000b0: 004f 6abd 050c c2bc 9fc7 dc3d 12cd ab3c
000000c0: 4c40 a53d 69e9 333e aaa6 2bbd 54e6 78be
000000d0: 81d6 c13d 0582 e1bd 2878 fd3d 2dda 8d3b
000000e0: 683b 153d cad5 c03b 25e5 af3d aefc ddbd
000000f0: ca24 093e df78 c13d f539 7dbe bf19 50bd
00000100: 183c 133b a28f 9dbe 33f6 7cbd a202 7ebd
00000110: 75a3 d3bd 146e 78bd 2079 2a3d 364f dcbd
00000120: 9e79 babd a2ba ee3d 6bb0 12be 1c71 ce3d
00000130: 254c 59be db70 9dbd 0856 db3d 2e73 f23d
00000140: 4994 06be 05ea 20be 833b 0ebe 0846 5d39
00000150: 3b5b 35bc 30c9 63bd bee7 853d b070 98bd
00000160: 03df 5dbe 187a 40bd 7dbd 2a3e 8f79 743d
00000170: 29dd 1fbe 73eb 2d3e 96ef dbbd e128 50bc
00000180: 9abc 1f3e 793e 363d ff91 2f3e bcf2 dcbc
00000190: 3cd2 c83c 0bbe 4b3e e31d b4bd af40 553d
000001a0: e998 c13c eed6 6d3d 9546 9abd 86b7 343d
000001b0: fbeb bcbd b06d 30be b144 91bd 83af 17be
000001c0: fd4f aabd a65b aabd 4eac 353e 8f5e cbbd
000001d0: d245 32be 1b17 5f3d c8ef 353e fc5f e9bc
000001e0: 22c8 a53b 93e4 383e 04e7 793c d010 963d
000001f0: ad47 e63b 6d44 4ebe 39ee 443e 0555 013d
0.1422951 0.110546455 -0.06459834 0.032979004 -0.21270114 -0.03454563 0.13587536 0.11951099
-0.027680684 0.18485202 0.12867509 -0.23783751 -0.04881767 -0.19177085 0.121393956 -0.13259295
0.009872179 -0.046155773 0.034716494 -0.21337622 -0.09088591 0.0952572 0.062153947 0.097491086
0.16780837 0.09876239 -0.12351272 -0.009044736 0.091272525 0.04783318 -0.11952249 0.03513394
-0.1625162 -0.10167043 -0.065722354 0.08295135 -0.0277517 0.15631369 -0.12088615 -0.19115281
-0.07280305 0.012866733 0.10004379 -0.06268233 -0.057204247 -0.023687372 0.10780262 0.020971809
0.08068904 0.17569508 -0.04190699 -0.24306613 0.094647415 -0.110111274 0.123764336 0.004328987
0.036433607 0.0058848606 0.08588628 -0.108392105 0.1339294 0.094468825 -0.2472914 -0.050805803
0.0022466239 -0.30773646 -0.06175823 -0.06201423 -0.10333911 -0.060651854 0.04161942 -0.10757296
-0.09105228 0.11656691 -0.1432511 0.10080168 -0.21220453 -0.07687541 0.107097685 0.11838375
-0.13142504 -0.15714271 -0.1388989 0.00021102291 -0.011069114 -0.05561179 0.06538342 -0.074433684
-0.21667103 -0.046991438 0.16673847 0.05968624 -0.1561171 0.16984348 -0.10739057 -0.012705059
0.1559929 0.044493172 0.17145537 -0.026971214 0.02451431 0.19896714 -0.08794763 0.05206364
0.023632484 0.0580663 -0.07532994 0.044120334 -0.09224697 -0.17229342 -0.0709318 -0.14813046
-0.08316038 -0.08318262 0.1774151 -0.09930145 -0.17409447 0.054465394 0.1776725 -0.028488152
0.005059258 0.18055944 0.015252832 0.073274255 0.0070275874 -0.2014329 0.192315 0.03157522

ln1.weight f4 [128]
00000000: e054 633f de5d 753f 02da 753f 70dc 823f
00000010: b33d 763f e37d 783f 22d1 5d3f e3a0 833f
00000020: 5ddc 7c3f 3760 673f c8b1 7d3f 32d6 7d3f
00000030: d39f 543f 1d3c 853f 727c 6b3f 10c6 883f
00000040: d1d4 6d3f 4eb9 713f 8a52 7e3f 45f4 803f
00000050: 8a92 653f 7f76 7d3f 7cfc 663f 88c8 7b3f
00000060: 56e1 6d3f 9117 693f 76ea 723f e6dd 7c3f
00000070: 1361 6b3f ff99 6a3f ea81 843f 59d8 563f
00000080: 9767 733f ac61 633f a538 583f aacb 693f
00000090: 2b71 673f 2c80 873f 96bc 813f df25 763f
000000a0: d0c3 623f 2d87 773f 1a48 6d3f 3f19 623f
000000b0: 881f 863f 4e1c 7c3f 568a 7a3f 7bfd 833f
000000c0: 1556 843f 2134 903f 14d5 743f 13d1 883f
000000d0: 5294 5f3f 004c 7f3f 843d 843f ccc1 743f
000000e0: 1b90 8e3f 7893 8d3f d020 833f 08b3 953f
000000f0: ac28 723f 7ea0 683f edbe 933f 326f 893f
00000100: 7fe5 853f 0651 893f 8990 713f ad09 6f3f
00000110: 5726 703f 86aa 8a3f 28e4 893f 2ecd 6c3f
00000120: e14a 7f3f 8b75 843f 45f6 793f a0f0 803f
00000130: 0e41 a53f 970f 773f 61b1 9a3f d1b6 783f
00000140: e0ff 8a3f de49 793f 3227 a23f 5050 7f3f
00000150: 74da 703f 6498 5c3f 1270 6b3f a471 9b3f
00000160: 8660 813f 7061 863f 0920 9b3f b664 543f
00000170: 59ab 9e3f 67eb 6b3f a5bd 6a3f e0c7 973f
00000180: fb25 5e3f 06b2 7b3f 1e58 673f a33b 7b3f
00000190: 0a0e 8a3f b47c 803f 5aea 703f e23a 8a3f
000001a0: 74bf 7f3f f49e 673f 4990 943f 6101 853f
000001b0: 2023 843f 960f 713f 6fa3 883f a782 853f
000001c0: b9ef 783f 0ff1 7b3f 6fbc 5a3f 4b15 7e3f
000001d0: 4280 8e3f 102a 813f 0104 703f 372a 813f
000001e0: 14da 6d3f 3ec6 823f a4c4 693f 6316 603f
000001f0: 72c5 6f3f 8ac8 6f3f 724c 623f 84ad 7c3f
0.88801384 0.95846355 0.9603578 1.0223522 0.96187896 0.9706709 0.86647236 1.0283474
0.9877375 0.9038119 0.990994 0.9915496 0.8305637 1.040897 0.91986763 1.0685444
0.9290286 0.9442338 0.99344695 1.0074545 0.89676726 0.99008936 0.9022901 0.9835286
0.9292196 0.91051584 0.9488901 0.9877609 0.91945 0.9164123 1.0352147 0.8392387
0.9507994 0.8882091 0.8446143 0.9132639 0.90407056 1.058599 1.0135677 0.96151537
0.88580036 0.96690637 0.92688143 0.8831977 1.0478373 0.9848069 0.97867334 1.0311731
1.033877 1.1265908 0.9563763 1.0688804 0.87335694 0.9972534 1.0331273 0.9560821
1.1137727 1.1060629 1.0244389 1.1695261 0.9459331 0.9086989 1.1542641 1.0737059
1.0460662 1.0727851 0.9436117 0.9337414 0.938085 1.083329 1.0772753 0.9250058
0.9972363 1.0348371 0.976414 1.0073433 1.2910478 0.96508163 1.2085382 0.97153956
1.0859337 0.9737834 1.2668211 0.9973192 0.94083333 0.8617003 0.9196788 1.2144055
1.0107582 1.0498486 1.2119151 0.8296617 1.2396041 0.9215607 0.91695625 1.1857872
0.86776704 0.9831852 0.9036883 0.98137873 1.0785534 1.0038056 0.9410759 1.079922
0.9990151 0.9047692 1.1606532 1.0391046 1.0323219 0.9416441 1.0674876 1.0430497
0.9724079 0.984147 0.85443777 0.9925124 1.1132891 1.0090961 0.9375611 1.0091008
0.92910886 1.0216749 0.91315675 0.8753416 0.9366065 0.93665373 0.88397896 0.98702264

ln1.bias f4 [128]
00000000: cd65 b6bc adad 1cbd 22e0 2ebd 351a 143c
00000010: e3a3 c33a 41cd dfbc be9d b3bc bed6 83bd
00000020: f0a8 a5bc 9496 a8b9 ac3c 273d a27b 9dbc
00000030: 2c20 093c 0ac5 2ebd 3cd0 e43d b7fc 51bd
00000040: 4bc5 5f3d c184 f3bd 7c4d 8bbd b8e4 9abd
00000050: 80a1 b73d 963b ebbc 1d0b 28bb 1b26 8abd
00000060: 5a17 86bb 4c58 68bd 8ca9 8ebd 7213 bbbd
00000070: 12a1 c73c aa1f c7bb 4925 16bd e376 653d
00000080: 7992 1a3d 3302 713d 91c9 efbc 0a75 443c
00000090: dd95 c639 a518 72bc 1f91 c2bd b544 953d
000000a0: d718 2b3b 6488 a7bc 454b 8a3d fbb1 813d
000000b0: 7163 4d3d 1837 3dbd 6457 0ebc f2f2 41bd
000000c0: c841 61bd 5bda 303a 770f 9f3d 37b1 d5bb
000000d0: d49b 1a3d 5103 ebbb 0415 ee3d 4299 92bc
000000e0: f0ca 1abe c2d3 d6bd 6d4f 1cbe b90a 84bd
000000f0: 95e7 e9bc 93b0 18bb d5ab 06bc 7084 65bd
00000100: 8f15 dcbc 192c 273d 74a9 4b3d c88f 87bc
00000110: bf17 87bd f3d3 43bd ac6d bd3a 4d7f 41bc
00000120: e851 7ebd 16cd d6bc 0931 7c3b 585c 8c3c
00000130: 83c5 94bd 8553 0fbd 82c7 893d b0f0 493c
00000140: 5f70 093e 93f8 f3bc 9fe7 37be ac1a ef3b
00000150: 4c80 67bd d251 bc3d 03f8 513c 0004 dcbd
00000160: a91a 303d d3ba f4bd 9bd3 693d ba21 5c3d
00000170: 51a0 0abe bacb 353c d5bd 15bc 91ed 04be
00000180: cfa7 bd3d d7a6 ddbc 3343 ea3d af1d 8ebd
00000190: c1ec 1bbd e1f8 4a3d ed57 db3c a501 c03d
000001a0: 6007 27bd 22f4 323d 89dd 5dbd 2338 fabd
000001b0: c333 e53c ebad 7abc 5387 97bd 2349 85bb
000001c0: de79 0fbd 23f9 653d d73c d63c 97fc 8fbc
000001d0: 7fe7 ccbd c17f 95bd 701e 5c3c 8e21 b33c
000001e0: f1f9 aabc c18d 5a3d 7908 2f3d 1365 d33c
000001f0: 1aec 20bd ddf7 273d eead 713d 1c10 8bbd
-0.02226534 -0.038251568 -0.04269422 0.009039451 0.0014926161 -0.027319552 -0.021925803 -0.06437443
-0.020222157 -0.00032155646 0.040829346 -0.019223992 0.008369487 -0.04266838 0.1117253 -0.0512664
0.054631513 -0.11890555 -0.06801888 -0.07563156 0.089663506 -0.028714936 -0.002564139 -0.06745549
-0.004092139 -0.05672483 -0.06965932 -0.09134568 0.024368796 -0.0060767727 -0.03665665 0.056021582
0.037737343 0.058839988 -0.029270919 0.011990795 0.0003787716 -0.0147763835 -0.09500336 0.072884955
0.0026107335 -0.020450778 0.06752638 0.06332775 0.050143663 -0.04619512 -0.008687828 -0.04735083
-0.054994375 0.00067464047 0.077666216 -0.00652137 0.037746266 -0.007172026 0.11625102 -0.017895345
-0.15116477 -0.10489608 -0.15264674 -0.06447358 -0.02855281 -0.0023298606 -0.008219679 -0.056034505
-0.026865749 0.04081354 0.04972215 -0.016548052 -0.06596326 -0.047809552 0.001445224 -0.011810136
-0.06208983 -0.02622084 0.0038481376 0.017133877 -0.07264235 -0.03499176 0.06727506 0.012325451
0.13421772 -0.029781615 -0.1795945 0.0072968807 -0.056518838 0.091952935 0.012815478 -0.107429504
0.042994175 -0.119496964 0.05708657 0.0537431 -0.13537718 0.0110959355 -0.009139498 -0.1298125
0.092605226 -0.027057094 0.114385985 -0.069392554 -0.038067583 0.049553756 0.026775325 0.09375314
-0.040778518 0.043689854 -0.05416635 -0.122177385 0.027978783 -0.015300254 -0.07398858 -0.0040675565
-0.03502833 0.0561458 0.026152058 -0.017576499 -0.10005092 -0.07299758 0.013434991 0.021866586
-0.020871134 0.053357843 0.04273269 0.025805032 -0.039287664 0.041007865 0.059003763 -0.06790182

fc2.weight f4 [128, 132]
00000000: 8a82 f63c d6ea e33c d3e3 df3d 052a 5bbd
00000010: 51ca b4bc 1fcb b63d d1d5 1ebd de11 973b
00000020: 2949 02be f41c e63b 7a20 a63c 0517 3f3d
00000030: 0dda 93bd 30d7 46bc ce54 a4bd ec59 ecbc
00000040: 9414 163d 1a20 56bd b7ba 94bd 8644 ba3d
00000050: 0d97 55bd e899 1e3d c120 8b3d a67e 803d
00000060: 123b 3f3d abc1 27bb 61f3 c13b 6a11 d53c
00000070: bef0 3fbd 942a cdbb 101e 6fbd dd4e 9d3c
00000080: 6d9f 70bd d9ec 3fbd 9e2f 993d e802 17bd
00000090: 2a60 623d 82e5 4cbc 9094 b2bd d279 37bb
000000a0: 16d5 a3bc 6408 0c3d c7e2 ecbc 658a a73c
000000b0: fb60 6abd 61aa 853c f3a0 073d 892d 873d
000000c0: 324c ca3d 412c 093d 2e7e 24bd 219b 563c
000000d0: 0f93 29bd f39c adbc 2fd7 6fbc 684e 933d
000000e0: c881 c03c a840 52bd 8079 a13d e929 90bd
000000f0: 9a76 8c3c 7c24 88bd 51fc 6bba 07d8 7a3d
00000100: f90c 783d 49ad 8fbd 8923 fcbc 6415 053d
00000110: 52b9 b63c ae29 83bd ae92 3dbd 7f90 b03a
00000120: c5d3 20bd e520 793c e724 383d 7d1e 55bd
00000130: 52a7 123d ac84 a03c acb7 75be 72a8 2ebd
00000140: 79d4 03bd 756f 973d 63f2 0b3e 34fb 4bbd
00000150: 305f 883d 6197 823c 283a 503d 46ea f73c
00000160: 8698 26bd bb77 5b3d 11c1 46bc ee00 3c3d
00000170: bca8 d83d 1429 853d c69b eb3d c042 c13d
00000180: f7c5 163d 077c eabd 2c45 d3bc f73b d03b
00000190: 2ce8 40bd 4a95 4d3d 3bac 4a3c 64fe 633d
000001a0: db8d a7bc 15ef 953b 3f3e 643d 0db9 083e
000001b0: e6c7 1a3b 6466 ad39 075b d23c 0a86 60bd
000001c0: ce06 253d f616 a73c 2770 9c3c 9849 2d3d
000001d0: a150 3abd 7d30 823d a09b 3bbd 4ff5 cd3d
000001e0: 8818 1bbd 8b39 3fbd cd1f d63c 8ca0 38bb
000001f0: 6661 80bc 0574 743c 8744 eebc 2567 f83c
00000200: 0334 993d 5695 20bd 673f 803c dbbb b4bb
00000210: c83e 863d 504d 6c3b 8b7c b03d 0621 38be
00000220: 4f15 c739 e842 c4bc 2f1b e63d eb9e 98bd
00000230: 8ccc 0bbd fed0 433d 69ac c33b 803d c2bb
00000240: 5ca5 e0bc 9e83 acbd ea8b 943d 03bb a53d
00000250: cced 5e3c c261 103d 8171 afbd d2cd 1fbb
00000260: c501 2c3d 40f1 a9bd 14d1 a63d af73 863d
00000270: a88a 8b3d 06fa cf3d 7141 0c3d 5dd3 163e
00000280: 6cf4 ac3d 4f43 283d 6b93 953c b626 b53c
00000290: 8d75 aebc ca0a e53c 8b78 3b3d 5949 a93d
000002a0: 8ff4 363d b125 a23d 99bc 103d 2296 85bd
000002b0: 97f5 ce3c d1ce cc3d 8819 6c3d c740 fe3c
000002c0: fc15 14bc c937 833c 96b4 9dbc f9eb 733d
000002d0: 08e0 613a d40a 62ba 4842 083d 06a9 f03b
000002e0: 9b9a 143d 714d 373d d005 253d 26df d1bc
000002f0: a3a2 32bc 47a2 3cba d45d c3bc 8d46 303c
00000300: d1b9 2ebd 00e2 49bd 384b a03d c430 6a3d
00000310: aabe f23d be04 fdbc 9648 b33c 658f 273d
00000320: 9531 033e 7bb7 06bd 01eb 063c 3a9f 65b9
00000330: 702d c03d 91c9 683c 117a f73a 6f1d 953b
00000340: 00d2 39bd eafa fbbc 00ba 783d 0d0b f7bd
00000350: e37c 1d3d 5bad 953b efe7 d83d 0130 52bd
00000360: 3adb 39bd b6e8 863c 14fc 79bc 4d50 123c
00000370: 025f ee3c 12ba 413c 36f9 2d3d 166b ddbb
00000380: bac0 bd3d 68d4 083d 6109 df3c 409d 04bd
00000390: d7e1 85bb ddd9 283d 5374 c7bd 7949 563d
000003a0: beda 4ebc 50d2 f9bc 2389 80bd af68 cd3b
000003b0: 6d7a 3b3d 5406 5c3d 13ad 063c 6aa6 94bd
000003c0: 0d63 4cbc dd10 713d 97c4 8c3d 97a3 563d
000003d0: 5cc4 ce3d f4ac 3abd 71d7 a63d 9740 80bc
000003e0: 7022 8c3d c35e b03d b059 3e3d 27e8 173d
000003f0: 5b06 fd3c 9142 a7bc adcf 82bd c902 88bd
0.030091543 0.02782194 0.10932126 -0.05350687 -0.022069128 0.08925461 -0.03877813 0.004610284
-0.12723221 0.0070224945 0.020279158 0.046652813 -0.07219324 -0.012136266 -0.08023988 -0.028851472
0.03664072 -0.05227671 -0.072621755 0.09095101 -0.052146006 0.038720995 0.06793357 0.06274156
0.046687193 -0.0025597613 0.0059189056 0.02600928 -0.04686045 -0.006261179 -0.05837828 0.019202644
-0.05874579 -0.046856735 0.074797854 -0.036868006 0.05526749 -0.012505891 -0.08719742 -0.0027996195
-0.019999068 0.03418769 -0.02891673 0.020451734 -0.057221394 0.016316595 0.033112478 0.06600482
0.09877814 0.03348947 -0.040159397 0.013098509 -0.04140001 -0.021193003 -0.014638706 0.07192689
0.023499385 -0.051331192 0.078845024 -0.07039244 0.017146397 -0.06647584 -0.00090021366 0.061241176
0.060559247 -0.070154734 -0.030778663 0.032491103 0.022305164 -0.06404434 -0.046282463 0.0013470798
-0.03926446 0.015205597 0.044957068 -0.05203103 0.0358041 0.019594513 -0.23995847 -0.04264111
-0.03218505 0.073943056 0.13666682 -0.049800113 0.066587806 0.015941324 0.050836712 0.030263077
-0.0406728 0.05358098 -0.012130992 0.045899324 0.105790585 0.06501976 0.11504321 0.0943656
0.036809888 -0.114494376 -0.02578982 0.0063548046 -0.047096416 0.0501912 0.0123701645 0.055662528
-0.020453384 0.00457562 0.055723425 0.13351841 0.0023617684 0.00033073418 0.02567817 -0.05481533
0.040289693 0.02039669 0.019096447 0.042306513 -0.04548705 0.06356905 -0.045802712 0.100565545
-0.03786519 -0.046685737 0.02613821 -0.0028171865 -0.015671443 0.014920239 -0.02908541 0.03032262
0.074806236 -0.039204918 0.015655233 -0.005515558 0.06554943 0.0036056824 0.08617505 -0.17981347
0.00037972114 -0.023957685 0.112356536 -0.07452186 -0.034130618 0.047806732 0.0059714806 -0.0059277415
-0.0274226 -0.084235415 0.07253249 0.0809231 0.0136065 0.03524948 -0.08566571 -0.0024384153
0.041993875 -0.08297968 0.08145347 0.06565034 0.06813556 0.1015511 0.034242097 0.14729066
0.08445057 0.041079815 0.01825877 0.022113185 -0.021296287 0.027959246 0.045769256 0.08265943
0.044666823 0.07917345 0.03533611 -0.06522776 0.02526359 0.100003846 0.057641536 0.031036748
-0.009038445 0.016017811 -0.01925115 0.059551213 0.0008616452 -0.00086228293 0.033266336 0.007344368
0.036280256 0.04475159 0.040288746 -0.0256191 -0.010903033 -0.0007195812 -0.023848452 0.010759008
-0.042657677 -0.049287796 0.07826847 0.057175413 0.118527725 -0.03088605 0.021885198 0.040908236
0.12811883 -0.032889824 0.00823474 -0.00021898458 0.093836665 0.014208213 0.0018880983 0.004550628
-0.045366287 -0.030759294 0.06072426 -0.12062655 0.03844918 0.0045677847 0.10591113 -0.05131531
-0.045375086 0.016468387 -0.015257854 0.008930278 0.029098038 0.011824148 0.042473994 -0.0067571504
0.09265275 0.03340569 0.027226152 -0.032376528 -0.00408576 0.041223396 -0.09738984 0.052316163
-0.012625394 -0.030495793 -0.06276157 0.006268583 0.04577105 0.053716972 0.008219975 -0.072583035
-0.012474787 0.058853973 0.06873434 0.052402105 0.10096046 -0.045575097 0.08146561 -0.015655799
0.06842506 0.08611824 0.04647225 0.037086632 0.03088682 -0.020417484 -0.06387267 -0.06641156

fc2.bias f4 [128]
00000000: a498 783c d738 c4bd c8dd abbb 8bce d8bd
00000010: 18f0 23be a20e 6fbd fbc9 1bbd aed0 e9bd
00000020: f928 cebd 6f30 bebd bd78 06be 6f32 1fbe
00000030: a2d3 fdbd e9dc d7bd edcc bebd cb36 debd
00000040: 7829 0ebd cb72 afbc 0faa a8bd a695 c3bc
00000050: 545a 13be b2ec 5ebc da06 c9bc 37a5 65bd
00000060: da05 073c cb05 9ebd e1a0 9bbc ac89 bfbc
00000070: 5800 9e3c e24a dbbd 0f4b 273d 4662 80bd
00000080: 68b5 e8bd a5ef d3bd 52c8 0bbd f18f f5bb
00000090: a166 efbc f086 e03c e285 0abe 14f9 0fbc
000000a0: d149 263b 9c45 a1bc 07ee a0bd 8d43 65bc
000000b0: fa87 d8bd 72b7 143c e1c0 d6bd dffe 22be
000000c0: 0a1c 1ebe d434 52bd 6aef 84bd c2d7 6cbd
000000d0: 53c6 77bd ee14 c73c de0d 66bd 68d2 ecba
000000e0: dd47 d7bd fdc7 163d af84 01bd 9a32 edbd
000000f0: b97b 383d 54c6 b63d 14ad 7cbd b6ed 83bd
00000100: 56da 1b3c d7e0 b2bd 5b2e fabd 38af 65bd
00000110: f0a0 9e3b b015 0bbe 3e50 a5bd d065 f6bd
00000120: 70ca 4ebd 5839 f9bd a524 43bd 44f9 76bd
00000130: f04d 40bd 15a2 77bd c205 9e3c e5d8 94bd
00000140: c87b dbbc 3f8d 943c 06a6 a53b 2a27 d7bd
00000150: 8b4b b2bd f10a ad3c e41f cfbd 1442 e7bc
00000160: c152 783c b770 b0bd 9cef 393d ecad 133d
00000170: 0bc6 2c3d 42fd 963d 0f8c adbd 6063 e9bd
00000180: 04ed edbc 7112 cd3c 5b3f 96bd 7268 823c
00000190: 1bd9 bcbd 4b5b 0abc 9ecc 78bd 4a58 f53b
000001a0: 3f98 dcbc 33c6 debd dbbb a33d 4bbd 753a
000001b0: cde8 273d 2a2e b8bd 0405 c1bd ca72 fbbd
000001c0: cc45 4fbd 0ab1 28bd 49d4 99bc cfad 5dbd
000001d0: 0922 f1bd 4243 a7bd 4795 6dbd 2de3 27be
000001e0: e4cc 9dbd f3c4 0fbe df68 b63a 56b7 b73b
000001f0: 7760 6fbc 135d 82bd 0365 723b f0e5 9e3d
0.015173111 -0.09581154 -0.0052449442 -0.1058627 -0.16009557 -0.058363564 -0.03803442 -0.114167556
-0.10066409 -0.09286582 -0.13131995 -0.15546583 -0.123938814 -0.10540182 -0.0931643 -0.10850295
-0.034707516 -0.021417042 -0.08235561 -0.023875069 -0.14389926 -0.013606237 -0.0245394 -0.056065764
0.008241141 -0.07715949 -0.018997611 -0.023381077 0.019287273 -0.10707642 0.040843066 -0.06268744
-0.113627255 -0.10348443 -0.034126587 -0.007493966 -0.029223742 0.027408093 -0.13527635 -0.008787412
0.0025373588 -0.019686513 -0.078579 -0.013993156 -0.105728105 0.00907694 -0.104860075 -0.15917538
-0.15440384 -0.051319912 -0.06490977 -0.05782295 -0.06049187 0.024301972 -0.05616557 -0.0018068077
-0.10511754 0.036811817 -0.031620678 -0.11581917 0.045039866 0.08924547 -0.061688498 -0.06441824
0.009512505 -0.08734291 -0.12215873 -0.056075305 0.0048409626 -0.13582492 -0.080719456 -0.12031138
-0.05048603 -0.121691406 -0.04764237 -0.060296312 -0.046949327 -0.060457308 0.019289855 -0.07267932
-0.026792422 0.018133758 0.005055192 -0.10505517 -0.08705815 0.021123381 -0.101135045 -0.02822975
0.015156449 -0.08615249 0.045394525 0.036054537 0.042181056 0.07372524 -0.0847398 -0.113959074
-0.029043682 0.025033208 -0.07336303 0.015918944 -0.09221097 -0.0084446175 -0.060742013 0.0074873315
-0.026928065 -0.10877647 0.07994815 0.0009374215 0.0409935 -0.0899318 -0.09424785 -0.12277754
-0.050603673 -0.041184463 -0.018777983 -0.054120835 -0.1177407 -0.08167125 -0.05800369 -0.16395254
-0.077050954 -0.14039974 0.0013916752 0.005606572 -0.014610401 -0.06365409 0.0036986477 0.07758701

ln2.weight f4 [128]
00000000: c9dd a93f 7d5e a13f 8965 a43f 2261 963f
00000010: 20a0 d03f aecf b53f d4b2 ad3f c98b 9b3f
00000020: 8948 b23f d024 9a3f b648 903f 51cc 9b3f
00000030: 1dc0 8b3f 99f4 a53f a164 a53f 08ed a73f
00000040: 53aa 9b3f af00 a03f bece ab3f e906 953f
00000050: b1fb b13f dc78 a43f 5ade 9d3f 5d5b a43f
00000060: b3b1 9b3f 59de 9f3f 404c a23f 8039 b13f
00000070: d038 8c3f b882 a53f ea8c b83f 8444 9e3f
00000080: b3d2 b53f f88f a93f 1e99 b13f 1e4f a63f
00000090: 9b13 b23f 03da 953f 18f9 b33f d054 c23f
000000a0: 00f5 953f f9c2 a43f f187 b83f 0f84 a03f
000000b0: e8d2 b53f 2fc4 be3f cf18 953f 2562 b23f
000000c0: d7e8 ba3f f08b 8f3f f88b 8b3f 2420 933f
000000d0: ce1a b33f a6be a23f e496 a63f dd79 953f
000000e0: 8276 ce3f 6e76 a53f f944 a03f 7b4f 9d3f
000000f0: 037b 9d3f f575 a43f 15f9 af3f 726b b43f
00000100: 0fd3 a53f 99d4 a23f 4901 883f 2178 a73f
00000110: 0c85 d33f 90b7 a83f e7c0 aa3f 0de5 8f3f
00000120: 9fcd ad3f 235b ac3f f4b3 8e3f 348e b13f
00000130: a321 a73f ec35 933f f8be af3f 0177 a13f
00000140: 5906 a53f c3a6 b13f 7623 a93f 021a 9e3f
00000150: 74bf 8d3f 6d43 ac3f 43cd bf3f 18b0 b73f
00000160: 9072 a73f d7f5 9d3f 598b a13f 959e 9f3f
00000170: 818a 933f e667 9d3f 90ad 9e3f a1f8 be3f
00000180: 6dcf ab3f a835 973f 854e 9b3f 1219 933f
00000190: 1ea4 963f c31e b23f 79eb 9b3f 1020 e13f
000001a0: 8b04 9a3f 6037 be3f 4536 a23f 46a3 973f
000001b0: 40bb a23f f1b5 a13f 08ee a13f bfd1 a33f
000001c0: 29ed 983f 18ff 9c3f 12eb 9f3f aff9 a53f
000001d0: 6e58 993f a036 9a3f 4609 a13f 2849 a03f
000001e0: 3324 963f 96d8 923f 572f 9f3f d8cb a13f
000001f0: a557 a93f 7a74 993f 374a ad3f ba47 a53f
1.3270808 1.260696 1.2843486 1.1748393 1.6298866 1.4204004 1.3570199 1.2152034
1.3928386 1.2042484 1.127219 1.2171727 1.0918003 1.296527 1.2921335 1.3119211
1.2161354 1.2500209 1.3422468 1.1642734 1.3904935 1.2849383 1.2333481 1.2840382
1.2163604 1.248973 1.267952 1.3845673 1.0954838 1.2930517 1.4418004 1.2364659
1.4204925 1.3247061 1.3874853 1.2992895 1.3912233 1.1707157 1.4060392 1.5182133
1.1715393 1.2872001 1.4416486 1.2540301 1.4204988 1.490362 1.1648196 1.3936201
1.4602307 1.121458 1.090209 1.1494184 1.3992555 1.2714431 1.3014798 1.1677815
1.6129916 1.2926767 1.2521049 1.228988 1.2303165 1.2848498 1.3747889 1.409529
1.2955035 1.272113 1.0625392 1.3083535 1.6524978 1.3181019 1.3340119 1.1241776
1.3578376 1.3465313 1.1148667 1.3871522 1.305714 1.1500831 1.3730154 1.2614442
1.2892562 1.3879017 1.3213947 1.2351687 1.1074052 1.3458077 1.4984516 1.4350615
1.3081837 1.2340649 1.262065 1.247027 1.1526643 1.2297332 1.2396717 1.4919626
1.3422676 1.181325 1.2133337 1.1492026 1.1768835 1.3915638 1.2181236 1.758791
1.2032636 1.4860649 1.2672812 1.1846702 1.2713394 1.2633649 1.2650766 1.2798384
1.1947376 1.2265348 1.2493613 1.2966822 1.1980112 1.204792 1.2580955 1.2522326
1.1729797 1.1472347 1.2436322 1.2640333 1.3229872 1.1988671 1.3538274 1.2912514

ln2.bias f4 [128]
00000000: 5a1d b53e db60 b2be fe4e b53e 8566 ac3e
00000010: 0907 bfbe 4021 c03e c678 b7be 7049 b33e
00000020: 4956 b33e 07c4 bd3e 1683 85be 571b b4be
00000030: cc6e b0be 98cb b4be 23e8 b9be 13ec b5be
00000040: ad4c babe 5729 b73e 1db4 b73e c09a babe
00000050: 063b b7be 22c0 c43e 846d b23e 7132 bcbe
00000060: e8b7 b43e 39e6 b93e b044 bfbe 7989 b3be
00000070: c087 b3be 4662 b5be 0489 babe 3a50 c2be
00000080: 9409 b8be f977 b6be 9583 b9be 5f20 b63e
00000090: 014f b4be b846 b5be 7f07 c2be f438 b43e
000000a0: 7a4d b33e b8f1 b4be a153 b8be 35c9 bc3e
000000b0: e3e1 b4be 766c c0be aab3 b8be 2d72 bc3e
000000c0: 219f b3be 85ff aebe 5114 b33e 1e43 bcbe
000000d0: 6fce b83e f47f b63e 3b6a b9be 7bf0 643e
000000e0: 8cf2 b7be a5f1 b13e bd00 b9be bc21 b3be
000000f0: af1f b6be baeb b63e 3b6f b6be 513a bcbe
00000100: 3163 babe 7827 b9be ab3c a5be 629e afbe
00000110: ab3b b7be e250 bb3e 2f4b bd3e ff0b b43e
00000120: 88d5 b4be 2cca b5be 0b17 ad3e f43e b03e
00000130: f7fb b3be 15f9 b53e e51b be3e 9013 bdbe
00000140: e7da b73e 0393 bf3e e6bf b83e 6d76 b7be
00000150: 6ba6 97be 51fc b33e 4860 bbbe 06e1 aebe
00000160: 37ff b93e 5811 483e 0c1d a33e 9ca5 be3e
00000170: 2332 b43e cb4f b43e 6f79 b63e 26a1 b9be
00000180: 6c3c b6be 5299 aa3e 52ab 963e 6587 b9be
00000190: 176d 51be 9ad9 aebe 3e37 1fbe 6682 bc3e
000001a0: ceb1 b2be b000 b63e a615 b53e f6a6 b5be
000001b0: 4b30 aebd a455 b8be 8fa5 b73e 68bd b8be
000001c0: c36c b2be 80db b4be 02d3 b83e a6f5 c4be
000001d0: 86df b4be 282b b63e a4c7 bcbe 09d0 b6be
000001e0: d52d b0be 560a 6cbe ecc0 b1be ece7 c0be
000001f0: 9214 32be ecf9 b2be a27d c33e ab09 bd3e
0.35373956 -0.3483952 0.3541183 0.33671966 -0.37310055 0.37525368 -0.3583433 0.35016966
0.35026768 0.3706362 -0.26076573 -0.3517711 -0.3445953 -0.3531158 -0.3630992 -0.35531673
-0.36386624 0.35773727 0.35879603 -0.3644619 -0.3578722 0.38427836 0.3484918 -0.36757234
0.3529656 0.36308458 -0.37357092 -0.3506582 -0.35064507 -0.3542654 -0.3643266 -0.37951833
-0.35944808 -0.35638407 -0.36233202 0.35571572 -0.35216525 -0.35405517 -0.37896344 0.35199702
0.35020047 -0.35340667 -0.36001304 0.3687226 -0.35328588 -0.3758275 -0.36074573 0.3680586
-0.35082343 -0.3417932 0.34976438 -0.36769956 0.36094996 0.35644495 -0.3621386 0.22357361
-0.35927236 0.34754673 -0.36133376 -0.34986675 -0.35571048 0.3572672 -0.35631737 -0.36763242
-0.36403802 -0.36162925 -0.32272848 -0.34300524 -0.3578771 0.36585146 0.36971423 0.35165402
-0.3531916 -0.35505807 0.33806643 0.3442303 -0.3515317 0.35541597 0.37130657 -0.36928988
0.35909197 0.3741685 0.36083907 -0.3583254 -0.29619154 0.3515344 -0.36596894 -0.34156054
0.36327526 0.19537866 0.31858099 0.37235725 0.351945 0.35217127 0.3563952 -0.3625576
-0.35592973 0.333201 0.29427582 -0.3623611 -0.2045177 -0.34150392 -0.15548417 0.36818236
-0.3490128 0.355474 0.3536808 -0.35478944 -0.08505305 -0.3600284 0.358685 -0.36082006
-0.34848604 -0.35323715 0.36098486 -0.38468665 -0.35326785 0.355798 -0.36871064 -0.35705593
-0.34409967 -0.23050818 -0.347175 -0.37676942 -0.1739066 -0.349563 0.38181788 0.3692144

fc3.weight f4 [1, 128]
00000000: 3bef 9d3e 6e34 69be cba8 6e3e 168c 703e
00000010: e2e9 03bf 2358 c73e 9e48 a3be 6c18 1d3e
00000020: a119 d53e 2400 263e fba3 aa3d 54eb 4fbe
00000030: 7b18 c1bd 706a 8cbe a91f 79be 675f 88be
00000040: 4bbf 47be aa18 4d3e 4514 963e 33d8 0fbe
00000050: 1a56 9abe 49ef 4e3e 0e81 473e d586 69be
00000060: 1076 153e cb28 873e e6df 4dbe b038 a2be
00000070: 3816 9cbd 0163 7dbe 11c4 c0be 5d16 2cbe
00000080: 584e b5be 10ee 8bbe 3d93 9cbe 9f06 6c3e
00000090: d2c1 b9be 2c8e 21be 4227 9ebe 1cbe 153f
000000a0: c39e 113e e1e6 81be 0ef2 b5be 9e44 393e
000000b0: b5f4 bfbe 21ef e1be ce05 f6bd dfb8 a73e
000000c0: efd1 d9be 6c47 b9bd acd8 d73d 11a2 e2bd
000000d0: 5cf9 d53e cdc6 6e3e b844 84be 984d 473e
000000e0: ff00 edbe b156 843e b7e2 61be e8ea 3fbe
000000f0: 1ae3 42be 483d 7f3e b2d8 99be efc5 a0be
00000100: 1225 64be 5e16 7bbe 29dd 93bc 5fbd 92be
00000110: 480b 0fbf 8f47 db3e b263 923e 2d61 a83d
00000120: cb42 97be 20dc 8dbe 1ed3 1c3e 28e2 d53e
00000130: 4cbc 81be c07c 3b3e b2a5 b53e 1496 4abe
00000140: 9597 7b3e 173a e93e 29e2 9b3e 3f7f 60be
00000150: 7543 9e3d 3fe4 ac3e 7664 d2be 9b8a d3be
00000160: 3e9c 713e f6ad 6a3e 0204 a93e f257 563e
00000170: db42 e53d 0a95 4a3e 8e2c 283e 3d06 e2be
00000180: 85a0 91be 0c8d 683e cfdd 6e3e 8b94 09be
00000190: 8d9f ec3d d0ac bdbe 8979 153e b701 7e3f
000001a0: d778 2dbe ded1 0f3f 574b 833e d600 19be
000001b0: d896 6e3e 70e7 6bbe 914e 903e 2c71 80be
000001c0: 1774 20be 98a4 43be 06ee 543e a6e3 64be
000001d0: e18d 28be 3c69 223e bc92 30be 27e2 52be
000001e0: 5086 14be a524 c73d f664 6ebe 24f3 4dbe
000001f0: 22ad 443e 9a18 33be a002 ab3e 5537 7b3e
0.3084658 -0.22773907 0.23306577 0.23490939 -0.5152875 0.3893443 -0.3189134 0.15341347
0.41621116 0.16210991 0.08332058 -0.20304614 -0.094284974 -0.27424955 -0.24328484 -0.26635286
-0.19506566 0.2002894 0.2931234 -0.14047317 -0.30143815 0.20208468 0.19482824 -0.2280534
0.14595819 0.2639831 -0.20104942 -0.31683874 -0.076214254 -0.24744798 -0.37649587 -0.16805406
-0.35411334 -0.27330065 -0.30581084 0.23049401 -0.36280686 -0.1577689 -0.30889326 0.5849321
0.14220719 -0.2537146 -0.35536236 0.18092582 -0.37491384 -0.44127753 -0.12012826 0.32758233
-0.4254298 -0.09046826 0.10539374 -0.11066068 0.4179181 0.23318024 -0.25833678 0.19463193
-0.46289822 0.2584739 -0.22059141 -0.18741953 -0.19031945 0.2492572 -0.30048138 -0.3140101
-0.22279766 -0.24520251 -0.018049793 -0.28660104 -0.5587659 0.42828032 0.28591686 0.0822166
-0.29543146 -0.27707005 0.1531491 0.41774106 -0.25338972 0.18309307 0.35477978 -0.19783813
0.24569543 0.45552132 0.30445984 -0.2192354 0.0772771 0.33767888 -0.4109227 -0.41316685
0.23594758 0.22917923 0.3301087 0.20931986 0.11194392 0.19783416 0.16423246 -0.44145384
-0.2844278 0.22710055 0.23326801 -0.13435571 0.115538694 -0.37045908 0.14597143 0.99221367
-0.16940628 0.56179607 0.25643417 -0.14941725 0.2329973 -0.23037505 0.2818494 -0.25086343
-0.15669285 -0.19105756 0.20793924 -0.22352466 -0.16460373 0.15860456 -0.17243475 -0.20594083
-0.14504361 0.09723786 -0.23280701 -0.20112282 0.1920667 -0.17489854 0.3340044 0.24532826
