projects/reinforcement-learning/collab-and-compet/weights/checkpoint_critic_agent_0.pth (torch, 99828 bytes, 9 tensors)

fc1.weight f4 [128, 48]
-0.008004457 -0.10421322 0.043635327 -0.032193083 -0.0633422 -0.050096907 -0.044530667 0.054844845
-0.11822614 -0.10119836 0.036267895 0.05426129 -0.04673344 -0.025268044 -0.013416341 -0.018906921
0.012452789 -0.1824846 0.044120565 0.011880207 0.17078276 0.09281865 0.0020959273 0.017659506
0.0960914 0.046453197 -0.01158523 -0.010037103 0.119070314 -0.05874253 -0.030804137 -0.002425522
-0.0033447766 -0.12778841 -0.03262997 0.025389757 -0.05340626 -0.05930531 0.020971244 0.079415984
-0.0047296057 0.0019156407 -0.0097451 0.041887555 -0.014053608 -0.060916174 0.08798038 -0.055133916
-0.054951064 -0.0826274 -0.021227743 -0.009678927 0.021605214 -0.12743343 0.022703024 -0.087470464
-0.01532232 -0.06337544 0.029656384 -0.003952687 -0.068556264 0.14854631 -0.04633022 0.030945651
0.07139103 -0.1407236 -0.004368718 0.10585814 -0.21431687 0.07583851 -0.034176525 -0.046399835
0.0858422 -0.13353907 0.04629387 -0.06207312 0.028474107 -0.114017315 -0.042776015 0.066113114
-0.056721076 -0.08322528 0.024362145 0.0043380423 -0.0069138273 0.012695425 -0.009589919 0.0061384956
0.009480502 -0.046479438 -0.06615347 0.05391008 0.15607388 0.05128552 0.08153231 0.03591814
-0.07143463 0.053721618 -0.051797464 0.043058764 -0.16607271 0.069549754 0.048444156 -0.04980401
0.10812037 0.008487264 0.035881784 0.0126327565 0.07642736 0.10388621 -0.04145737 0.009017506
0.09391811 0.028377488 0.0573261 0.031028813 0.2983117 0.038922247 -0.046552744 -0.025395095
0.111413956 0.015046177 -0.03449571 0.04799152 0.050009817 0.06084532 0.026265433 0.0028309873
0.09132732 -0.04949895 0.049372617 0.016578736 -0.081941366 0.09117826 -0.048705444 -0.011391692
0.22702251 -0.028219221 0.05144685 0.02590841 -0.33899027 0.1325954 -0.047996134 -0.03412483
-0.005736498 -0.09301265 -0.003996795 0.025441766 0.08639448 -0.13317981 0.016690657 0.01125882
0.08893849 -0.091340825 0.024403103 -0.009159687 -0.116280936 -0.040525727 -0.017161807 -0.0972641
0.06540185 0.0044977954 0.050010514 0.103789285 -0.08701063 0.21990164 -0.02505004 0.09389641
-0.008499249 0.011719572 0.011417206 -0.028179059 0.04977839 -0.022190709 -0.0002899965 0.0055236234
-0.03692783 0.017602613 0.0016391061 0.024864359 0.12391766 0.008749464 0.008257579 0.016501874
-0.050742816 -0.06929785 0.0740077 -0.08345162 0.12807569 0.22121195 -0.0877884 0.090321995
-0.035618123 0.106686905 -0.006455272 -0.03264546 0.10752424 0.040606212 0.015603551 -0.040439855
-0.011841605 0.03727587 0.0033667865 0.035491277 0.1373606 -0.04378678 0.00097263773 -0.0111922035
0.048444007 -0.11285158 0.021876307 -0.067073286 0.0063379873 -0.0039533335 -0.017242787 0.0049878396
0.011634035 0.016615607 0.006515423 -0.0006399983 -0.08965661 -0.041679014 0.056170337 0.019431353
-0.0013389632 0.030449256 0.02963463 -0.07084035 -0.15634412 -0.079750486 0.07750829 -0.072403096
-0.1557995 -0.04930043 0.06989779 -0.082403764 -0.023097232 -0.12823094 0.062219884 -0.06393623
0.08760869 0.15349576 0.0013271873 0.052037157 -0.02495313 0.10127335 0.027966209 0.034323104
-0.041005425 0.0155742485 -0.08139773 -0.0056116027 -0.009251722 0.080824554 0.049392294 0.07830515
00000000: 2025 03bc be6d d5bd f5ba 323d e5dc 03bd
00000010: 8eb9 81bd 6a32 4dbd ca65 36bd fda4 603d
00000020: 8c20 f2bd 1641 cfbd a58d 143d 1641 5e3d
00000030: 906b 3fbd eefe cebc 36d0 5bbc b0e2 9abc
00000040: c806 4c3c 3edd 3abe c4b7 343d 33a5 423c
00000050: ade1 2e3e b417 be3d d35b 093b abaa 903c
00000060: 91cb c43d b545 3e3d facf 3dbc a972 24bc
00000070: 23db f33d 029c 70bd f558 fcbc 82f5 1ebb
00000080: 0a34 5bbb f7da 02be 01a7 05bd 2efe cf3c
00000090: 86c0 5abd 20ea 72bd e3cb ab3c d9a4 a23d
000000a0: cffa 9abb 3c16 fb3a e9a9 1fbc 4992 2b3d
000000b0: 1b41 66bc 3d83 79bd 0f2f b43d 1ad4 61bd
000000c0: 5e14 61bd 8e38 a9bd cee5 adbc 5d94 1ebc
000000d0: 6bfd b03c e97d 02be b1fb b93c b723 b3bd
000000e0: 780a 7bbc fcca 81bd f2f1 f23c 8b85 81bb
000000f0: 3a67 8cbd 861c 183e c2c4 3dbd bc81 fd3c
00000100: 7635 923d d919 10be 7627 8fbb 27cc d83d
00000110: e275 5bbe 3951 9b3d affc 0bbd c10d 3ebd
00000120: 09ce af3d 77be 08be a49e 3d3d 6240 7ebd
00000130: 8842 e93c e981 e9bd e735 2fbd 5066 873d
00000140: 5c54 68bd 0472 aabd 1f93 c73c 2326 8e3b
00000150: 638d e2bb 7900 503c 091f 1dbc 6f25 c93b
00000160: 1c54 1b3c 3961 3ebd 787b 87bd d1d0 5c3d
00000170: d5d1 1f3e c410 523d 69fa a63d e61e 133d
00000180: 524c 92bd 330b 5c3d 9429 54bd 635e 303d
00000190: f70e 2abe 1a70 8e3d 616d 463d 4aff 4bbd
000001a0: 366e dd3d 2a0e 0b3c c7f8 123d 9ff9 4e3c
000001b0: f385 9c3d 4bc2 d43d 34cf 29bd 29be 133c
000001c0: 2358 c03d e877 e83c c6ce 6a3d 2330 fe3c
000001d0: 50bc 983e ef6c 1f3d 17ae 3ebd 6009 d0bc
000001e0: 002d e43d 3e84 763c 604b 0dbd c292 443d
000001f0: 18d7 4c3d f138 793d 9b2a d73c 1688 393b
00000200: d109 bb3d 69bf 4abd f13a 4a3d 21d0 873c
00000210: e0d0 a7bd abbb ba3d 5c7f 47bd 38a4 3abc
00000220: 9778 683e ff2b e7bc efb9 523d e03d d43c
00000230: 2290 adbe 17c7 073e 9897 44bd 7ac6 0bbd
00000240: 3cf9 bbbb 6b7d bebd 8cf7 82bb 406b d03c
00000250: 97ef b03d 4a60 08be d8ba 883c ea76 383c
00000260: 6225 b63d e610 bbbd 04e9 c73c 8312 16bc
00000270: b324 eebd 4efe 25bd eb96 8cbc 6732 c7bd
00000280: 68f1 853d 3e62 933b d3d7 4c3d 7a8f d43d
00000290: a132 b2bd e52d 613e be35 cdbc c34c c03d
000002a0: 6f40 0bbc 7303 403c 3c0f 3b3c c5d7 e6bc
000002b0: 6de4 4b3d 4ac9 b5bc ac0a 98b9 83ff b43b
000002c0: a341 17bd 5b33 903c 46d7 d63a 57b0 cb3c
000002d0: 8bc8 fd3d e959 0f3c cc4a 073c f02e 873c
000002e0: b3d7 4fbd 08ec 8dbd 5991 973d afe8 aabd
000002f0: 4626 033e 6385 623e 68ca b3bd bdfa b83d
00000300: 4fe4 11bd aa7e da3d bf86 d3bb 3fb7 05bd
00000310: ab35 dc3d b352 263d 09a6 7f3c 43a4 25bd
00000320: 4b03 42bc 95ae 183d 4ea5 5c3b 4d5f 113d
00000330: 42a8 0c3e c459 33bd 9df8 7e3a 815f 37bc
00000340: 396d 463d bb1e e7bd f135 b33c b85d 89bd
00000350: e4ae cf3b f78a 81bb bf40 8dbc 0871 a33b
00000360: ae9c 3e3c 741d 883c 547f d53b 8fc5 27ba
00000370: e29d b7bd 9db7 2abd de12 663d 802e 9f3c
00000380: 2680 afba b870 f93c 53c4 f23c bf14 91bd
00000390: ac18 20be 3954 a3bd abbc 9e3d 1348 94bd
000003a0: e789 1fbe 3fef 49bd 9326 8f3d 4ec3 a8bd
000003b0: 6836 bdbc f94e 03be 47da 7e3d 00f1 82bd
000003c0: 2f6c b33d fe2d 1d3e 04f5 ad3a ea24 553d
000003d0: 826a ccbc 6768 cf3d 6419 e53c 6296 0c3d
000003e0: 4ef5 27bd 222b 7f3c dab3 a6bd 89e1 b7bb
000003f0: 8994 17bc 5887 a53d 934f 4a3d 735e a03d

fc1.bias f4 [128]
-0.055398658 -0.008731902 -0.11594612 -0.022199646 0.1253444 -0.11613001 -0.17615573 0.02511251
-0.26019782 -0.064790964 0.024322508 0.03436266 0.03999094 -0.047441002 -0.060926277 0.17317764
0.13742168 0.08625797 -0.18634151 -0.06592844 0.122331865 -0.116488405 -0.09462374 -0.16583239
-0.0007471656 -0.09665643 0.13315487 -0.027917318 -0.14459307 -0.012682401 0.039328575 -0.059847794
-0.06784785 0.0059629455 -0.13598733 0.021576352 -0.09278676 0.17583793 -0.11475931 0.11691005
-0.05706487 -0.056229882 -0.00015824138 -0.24718493 -0.04802405 -0.14084579 -0.09258467 -0.19429335
0.12542222 0.14179431 -0.068324454 0.14188074 -0.2546271 -0.098783895 0.14098646 -0.017272657
0.12063132 -0.0197401 -0.14106688 0.20694776 0.15385728 -0.11258641 0.15057513 -0.20870604
-0.0018687168 -0.12938349 -0.14522028 0.07823407 -0.06930708 0.000876173 -0.18987738 -0.11546703
-0.16723728 0.055111784 -0.03485751 0.15368627 0.09690942 0.1866333 0.0775304 0.04275946
-0.13590598 -0.072724685 -0.07433291 -0.08391668 0.13409673 -0.10108453 -0.1184628 0.17330231
-0.14515463 0.0259823 -0.0022593567 0.10551999 -0.14732371 0.06402264 -0.22804028 -0.19058529
0.08478538 -0.027009696 0.06808391 -0.04044007 0.11893002 -0.15776452 0.12718345 0.07701172
-0.087505676 0.062189896 0.15285318 -0.16329321 0.11161608 -0.0050213966 0.014503631 -0.03718035
-0.14090268 -0.11624133 -0.082415275 -0.1259187 0.07090346 -0.1976429 -0.18919662 0.10748263
-0.08884169 0.05228304 0.08899342 0.10135454 0.0143534625 0.1688906 0.016566608 0.02880396
00000000: b4e9 62bd 4010 0fbc 2975 edbd 08dc b5bc
00000010: 485a 003e 92d5 edbd 2b62 34be c0b8 cd3c
00000020: a638 85be 20b1 84bd ff3f c73c dcbf 0c3d
00000030: 8acd 233d 7f51 42bd d58d 79bd 7b55 313e
00000040: 45b8 0c3e 05a8 b03d 4fd0 3ebe 7d05 87bd
00000050: 2189 fa3d 7991 eebd 17ca c1bd f7cf 29be
00000060: 6fdd 43ba cef3 c5bd c059 083e dcb2 e4bc
00000070: 3510 14be d8c9 4fbc 0017 213d f622 75bd
00000080: d0f3 8abd d064 c33b 4340 0bbe e4c0 b03c
00000090: fc06 bebd dc0e 343e ee06 ebbd 896e ef3d
000000a0: dabc 69bd 4e51 66bd 99ed 25b9 0c1e 7dbe
000000b0: deb4 44bd e139 10be 089d bdbd d6f4 46be
000000c0: af6e 003e 8732 113e b1ed 8bbd 2f49 113e
000000d0: 7c5e 82be 364f cabd c15e 103e 637f 8dbc
000000e0: 8e0d f73d fdb5 a1bc d673 10be 1dea 533e
000000f0: c38c 1d3e b493 e6bd 5e30 1a3e 09b7 55be
00000100: bbef f4ba 1b7d 04be a0b4 14be 2f39 a03d
00000110: dff0 8dbd faae 653a 376f 42be fa79 ecbd
00000120: 4040 2bbe e5bc 613d c0c6 0ebd ef5f 1d3e
00000130: 7278 c63d cd1c 3f3e 42c8 9e3d 8b24 2f3d
00000140: f02a 0bbe aef0 94bd da3b 98bd 82dc abbd
00000150: a750 093e 6805 cfbd a09c f2bd 2976 313e
00000160: 6aa3 14be d5d8 d43c b711 14bb dd1a d83d
00000170: 07dc 16be 4d1e 833d 6483 69be ca28 43be
00000180: f5a3 ad3d 7043 ddbc 946f 8b3d 7da4 25bd
00000190: 9591 f33d 068d 21be 613c 023e 52b8 9d3d
000001a0: 2d36 b3bd d5ba 7e3d 8b85 1c3e 5636 27be
000001b0: f996 e43d 878a a4bb a3a0 6d3c 6c4a 18bd
000001c0: cb48 10be ef0f eebd 57c9 a8bd d5f0 00be
000001d0: d535 913d e662 4abe c2bc 41be da1f dc3d
000001e0: a2f2 b5bd be26 563d 2f42 b63d f892 cf3d
000001f0: c92a 6b3c a8f1 2c3e b2b6 873c 48f6 eb3c

ln1.weight f4 [128]
0.9278279 0.98868656 1.1702337 0.98112386 0.8864385 0.8289904 0.97893333 0.9841949
1.0178703 0.91905534 1.1277287 1.0665402 0.86374927 0.8790595 1.1281998 0.9513559
0.93186605 1.0119474 1.0165192 0.88942385 0.9318179 0.8533881 1.0165296 1.053759
1.0740331 1.1662079 0.9692018 1.1662456 0.94553524 0.92751443 1.0079573 0.93056834
1.0647547 1.0366935 1.0294863 0.93292326 0.9145535 0.9283489 0.9046131 0.99594325
1.0916553 0.9704992 1.0148343 1.1681532 0.973769 0.9159553 1.1392692 0.93922544
0.94289476 0.8978084 1.022547 0.9543263 1.249828 0.84772825 1.0179733 0.9440318
1.0407326 1.018848 0.87048477 0.9352181 0.91449904 1.0788931 0.9529575 1.035439
1.0679082 1.2064883 0.9436672 0.92693156 1.0490034 0.8970389 1.1404395 0.9894252
0.9013627 1.1060623 0.96966165 0.8942253 1.052396 0.9397507 1.0085001 1.240003
1.0744184 0.92912954 0.9048817 0.90438753 1.161301 0.93061674 0.8887947 1.0440981
0.94343156 0.9745047 0.9575918 0.87000424 1.1064795 0.9509611 1.0835898 1.2368971
1.0887146 0.89612985 1.0474772 1.0662866 0.9155992 1.0325748 0.9710948 1.0265326
1.1390637 1.0263087 0.9501155 0.9281573 1.1821392 0.9606648 0.93323404 1.0698447
0.96998394 1.0228385 0.9228446 1.2111444 1.1023167 0.9485883 0.99044406 0.9554815
0.9938365 0.9236362 0.9829379 0.8940263 1.021618 1.0592854 1.0429536 0.93216383
00000000: 2186 6d3f 901a 7d3f 38ca 953f ef2a 7b3f
00000010: a2ed 623f b738 543f 609b 7a3f 32f4 7b3f
00000020: 9349 823f 3647 6b3f 6a59 903f 6484 883f
00000030: ac1e 5d3f 0b0a 613f da68 903f 0f8c 733f
00000040: c68e 6e3f 7e87 813f 4d1d 823f 48b1 633f
00000050: 9e8b 6e3f a477 5a3f a41d 823f 93e1 863f
00000060: eb79 893f 4d46 953f 9c1d 783f 8947 953f
00000070: 990e 723f 9671 6d3f bf04 813f ba39 6e3f
00000080: e249 883f 5fb2 843f 35c6 833f 0fd4 6e3f
00000090: 2e20 6a3f 46a8 6d3f b994 673f 23f6 7e3f
000000a0: 5cbb 8b3f a372 783f 17e6 813f 0b86 953f
000000b0: ed48 793f 0c7c 6a3f 93d3 913f 1471 703f
000000c0: 8d61 713f c5d6 653f d2e2 823f ba4e 743f
000000d0: 5dfa 9f3f b804 593f f34c 823f 11ac 713f
000000e0: ba36 853f 9c69 823f 17d8 5e3f 746a 6f3f
000000f0: 9c1c 6a3f 2b19 8a3f 06f5 733f 4489 843f
00000100: 37b1 883f 356e 9a3f 2c94 713f 634b 6d3f
00000110: be45 863f 57a4 653f ecf9 913f f84a 7d3f
00000120: b5bf 663f 7393 8d3f bf3b 783f f3eb 643f
00000130: eab4 863f 8093 703f 8816 813f 6bb8 9e3f
00000140: 8b86 893f 6fdb 6d3f 54a6 673f f185 673f
00000150: 83a5 943f e63c 6e3f 0d88 633f 02a5 853f
00000160: bb84 713f 2479 793f bc24 753f 99b8 5e3f
00000170: 1fa1 8d3f 3072 733f 12b3 8a3f a552 9e3f
00000180: 005b 8b3f c468 653f bc13 863f 147c 883f
00000190: b664 6a3f 692b 843f ab99 783f 6c65 833f
000001a0: d7cc 913f 155e 833f c53a 733f b89b 6d3f
000001b0: 5650 973f 21ee 753f 6de8 6e3f acf0 883f
000001c0: de50 783f 5fec 823f 8b3f 6c3f c806 9b3f
000001d0: b718 8d3f afd6 723f be8d 7d3f 709a 743f
000001e0: 126c 7e3f 6c73 6c3f d1a1 7b3f e8de 643f
000001f0: 61c4 823f aa96 873f 817f 853f 4aa2 6e3f

ln1.bias f4 [128]
-0.040058874 0.023724912 0.00499401 -0.003958073 0.087642126 0.016624054 0.005081171 0.0045621675
-0.0541874 -0.020454433 -0.0009680032 0.0030492125 0.0009234118 0.065745436 -0.009467119 -0.009226276
0.06115981 -0.043537993 -0.04773329 0.03805832 0.05338537 0.053863015 -0.05600323 -0.054053113
0.0330867 -0.0010989418 -0.015355434 -0.043985818 0.040342707 0.07433175 0.027972983 0.004364081
-0.094577804 -0.078630835 0.037578434 -0.036967047 0.01702003 0.016814819 0.03478655 0.022802662
-0.06690086 0.14601326 -0.01889642 -0.043658935 0.022373576 0.0438525 -0.0142882755 -0.04153424
-0.037766322 0.046880476 0.019630427 -0.010414187 -0.022938157 -0.005209081 0.056333736 -0.029960321
0.00055905926 -0.04158325 0.07987296 -0.004743945 0.013370771 -0.057944406 0.0627442 -0.0937639
-0.0038149522 -0.044848256 -0.015690466 0.0068671675 -0.049080446 0.07869691 -0.07478683 0.025649255
-0.04406356 0.05108269 -0.034998573 0.031134615 -0.031859472 0.015376144 -0.060807284 -0.019477876
-0.09199172 0.05217997 -0.02615102 0.0327036 -0.055447266 -0.033311572 -0.035430133 0.062401418
-0.02491434 0.010147392 -0.032726616 0.06995303 -0.06518978 -0.032983996 -0.049206816 -0.22962101
-0.04597771 0.011163411 -0.11084686 -0.022830723 0.02315917 -0.043124426 0.08994434 0.028099358
-0.15822546 -0.056284193 0.07117023 0.031927615 0.017047515 0.123568594 7.205804e-05 0.17308292
-0.0217537 -0.04095709 0.068755314 -0.06974929 -0.102420524 0.054771952 -0.060127534 -0.04207375
-0.01182272 0.031301115 -0.044860687 0.03202914 -0.011372499 0.05218695 -0.07640549 0.07466422
00000000: c614 24bd bf5a c23c cba4 a33b b9b2 81bb
00000010: b77d b33d 2b2f 883c f47f a63b 3c7e 953b
00000020: 9bf3 5dbd 0e90 a7bc 98c1 7dba 4cd5 473b
00000030: 1e11 723a 8ba5 863d fa1b 1bbc ce29 17bc
00000040: b582 7a3d e554 32bd fb83 43bd 0ae3 1b3d
00000050: 9eaa 5a3d 779f 5c3d a563 65bd cc66 5dbd
00000060: eb85 073d 5e0a 90ba 5c95 7bbc 792a 34bd
00000070: 653e 253d 3f3b 983d 9927 e53c 9100 8f3b
00000080: 02b2 c1bd 3409 a1bd d8eb 193d c26a 17bd
00000090: 976d 8b3c 3bbf 893c 577c 0e3d a6cc ba3c
000000a0: 5103 89bd 8084 153e aacc 9abc b6d3 32bd
000000b0: ca48 b73c ae9e 333d 5f19 6abc cf1f 2abd
000000c0: dcb0 1abd be05 403d fdcf a03c 44a0 2abc
000000d0: cde8 bbbc f0b0 aabb 34be 663d 596f f5bc
000000e0: d58d 123a 3353 2abd 6f94 a33d 1873 9bbb
000000f0: 1411 5b3c 1d57 6dbd 0880 803d 4a07 c0bd
00000100: 4704 7abb ceb2 37bd 4b89 80bc fa05 e13b
00000110: 9408 49bd d82b a13d d629 99bd 631e d23c
00000120: fe7b 34bd 153c 513d aa5a 0fbd 050e ff3c
00000130: 147f 02bd 39ec 7b3c 0f11 79bd 1190 9fbc
00000140: 2866 bcbd aaba 553d aa3a d6bc 36f4 053d
00000150: ac1c 63bd b771 08bd 301f 11bd a198 7f3d
00000160: 2819 ccbc 3f41 263c 580c 06bd 8943 8f3d
00000170: 3882 85bd 3a1a 07bd 168d 49bd c521 6bbe
00000180: 2053 3cbd bde6 363c ae03 e3bd 7f07 bbbc
00000190: 4db8 bd3c 3da3 30bd bd34 b83d a030 e63c
000001a0: db05 22be 418a 66bd b3c1 913d 88c6 023d
000001b0: 3ba7 8b3c 8811 fd3d de1d 9738 a63c 313e
000001c0: d134 b2bc 9fc2 27bd 96cf 8c3d b7d8 8ebd
000001d0: dac1 d1bd 8e58 603d 4a48 76bd 8655 2cbd
000001e0: 15b4 41bc 9935 003d d7bf 37bd fd30 033d
000001f0: b853 3abc fcc1 553d 7b7a 9cbd 8ee9 983d

fc2.weight f4 [128, 132]
0.0052701654 0.01615237 -0.07942835 -0.124182865 0.026602248 0.028759226 -0.021532595 0.049925637
0.021397175 0.045107666 0.051056914 -0.0757006 0.0078681465 0.02805569 -0.22258654 -0.068575
-0.010083498 0.0187763 0.02524555 -0.012337988 -0.015260671 0.03940164 -0.05428142 0.033401113
0.09553814 0.043135893 0.105282545 0.10742146 0.06702449 0.10341496 -0.030709447 -0.035433013
-0.0161845 0.030535785 0.07646747 0.015087843 0.01753947 -0.018560596 0.019868134 -0.09125663
-0.012685929 -0.014390651 -0.039910685 0.05416928 0.06628464 -0.07904839 0.03676045 0.009628405
0.027256656 -0.04272488 -0.03455088 -0.071950406 -0.11653311 -0.04476066 -0.002069305 -0.008396952
0.016434228 0.05130937 -0.075660825 0.021054266 0.055274922 0.14438906 0.05811984 0.039087344
-0.08315952 0.040311947 -0.01584859 0.016052557 -0.042352382 0.011886963 0.18772587 -0.031071428
-0.0063257758 0.061530817 -0.089226864 0.014325218 0.062225256 -0.14759089 -0.014233216 0.0110005075
-0.04094171 0.01588724 0.028535292 0.040225696 0.015401762 0.08729057 0.016322976 0.08789506
-0.015333069 -0.04436104 0.035755467 0.05099434 -0.01398247 -0.0085829105 -0.30773562 0.1503968
0.1058905 -0.0022065253 0.043688156 0.07232383 -0.021225255 -0.12987001 -0.14753117 0.1142196
0.059357785 0.025194502 -0.13425449 -0.065116495 -0.13019878 -0.09354946 -0.07996804 -0.28582212
0.060657438 0.17413126 -0.046434496 0.052887198 -0.037528828 0.10513545 0.13468707 -0.1152875
0.07548377 -0.038428918 0.09131655 0.060871586 -0.084686376 0.014332174 0.155017 0.17023109
0.058935132 0.0053919205 -0.028354205 -0.010948398 -0.0031068462 0.106527746 0.2480989 0.087201625
-0.1283341 -0.036947705 -0.025444966 0.06577067 0.05800519 -0.07625049 0.0901083 0.0034148693
-0.044364255 -0.02834802 0.11743686 -0.019552033 -0.15270028 0.038366538 0.02049929 0.07078
-0.059714332 -0.097699925 0.16808748 -0.046705436 -0.030737657 0.019395709 0.0007215717 -0.039788928
0.09969227 0.006116413 -0.113051295 -0.053456273 0.04540486 -0.2470275 0.06495791 -0.03813843
0.08525543 0.029734848 -0.012507478 -0.037536476 0.02371918 0.03211978 0.14466076 0.19931555
-0.08213826 -0.007319946 0.14636318 0.21756579 -0.059669703 -0.09509573 0.08449568 -0.015310208
0.13917467 -0.12052609 -0.02322463 -0.034818657 0.0024282925 0.05153157 -0.04886842 -0.08151969
-0.03627668 0.16694462 0.051872905 0.04457186 0.052763287 0.07038673 -0.023880865 -0.057931572
-0.08970498 -0.07603888 0.1370138 0.1590359 0.014910471 0.055503882 -0.14271219 -0.08656403
0.05417636 -0.0392486 0.00049279735 0.23587768 0.07635934 -0.024507616 0.015219168 -0.09899188
0.098927245 -0.04968368 0.089325376 -0.07095076 -0.070372075 0.09514284 -0.009583176 -0.033883817
-0.039235376 -0.029115604 0.16559382 0.16265364 0.07694319 -0.049522214 -0.048968595 0.07079707
-0.03405406 0.104664914 -0.028851682 0.16679715 0.10461352 0.037917927 0.039040755 -0.026750183
-0.048677124 -0.074565336 -0.09181526 0.021402853 0.09919859 0.0099621285 0.018667402 0.13773091
0.038034923 0.0010821992 0.16103956 -0.11009371 0.12925506 -0.144593 0.13079838 -0.008558942
00000000: 5ab1 ac3b fa51 843c 55ab a2bd 9653 febd
00000010: f5ec d93c 7898 eb3c 2065 b0bc d37e 4c3d
00000020: 2149 af3c d1c2 383d 0e21 513d eb08 9bbd
00000030: 66e9 003c 0cd5 e53c baed 63be 0d71 8cbd
00000040: 4235 25bc c1d0 993c c1cf ce3c 4625 4abc
00000050: e507 7abc 9d63 213d 3256 5ebd 9bcf 083d
00000060: 80a9 c33d 43af 303d 609e d73d c8ff db3d
00000070: 2344 893d 39cb d33d 6192 fbbc 3522 11bd
00000080: 5b95 84bc 2f26 fa3c fa9a 9c3d 0033 773c
00000090: efae 8f3c 640c 98bc 7fc2 a23c c2e4 babd
000000a0: a5d8 4fbc c4c6 6bbc 6379 23bd 9be0 5d3d
000000b0: 3ec0 873d 1fe4 a1bd 2092 163d 75c0 1d3c
000000c0: 5a49 df3c 4900 2fbd 3985 0dbd bc5a 93bd
000000d0: e9a8 eebd f456 37bd 2d9d 07bb 5f93 09bc
000000e0: 13a1 863c c629 523d 10f4 9abd ff79 ac3c
000000f0: f567 623d bada 133e 120f 6e3d 0d1a 203d
00000100: 8a4f aabd 241e 253d e7d4 81bc a780 833c
00000110: b179 2dbd 89c1 423c 363b 403e 8289 febc
00000120: 7448 cfbb bd07 7c3d 93bc b6bd 52b4 6a3c
00000130: e9df 7e3d 1122 17be 6f32 69bc 793b 343c
00000140: 7fb2 27bd f525 823c d8c2 e93c b3c3 243d
00000150: ac57 7c3c 66c5 b23d c3b7 853c 5302 b43d
00000160: 8d37 7bbc ecb3 35bd 5374 123d 71df 503d
00000170: bb16 65bc 569f 0cbc 868f 9dbe 9e01 1a3e
00000180: 1edd d83d 5a9b 10bb 5af2 323d 841e 943d
00000190: 96e0 adbc a5fc 04be 6912 17be f7eb e93d
000001a0: 2621 733d b364 ce3c 027a 09be cc5b 85bd
000001b0: d452 05be dc96 bfbd 49c6 a3bd 4757 92be
000001c0: ef73 783d 774f 323e 1932 3ebd 3fa0 583d
000001d0: d4b7 19bd 4151 d73d 68eb 093e da1b ecbd
000001e0: 3c97 9a3d a467 1dbd 2c04 bb3d 7c54 793d
000001f0: 0d70 adbd 7fd1 6a3c c7bc 1e3e 0f51 2e3e
00000200: f765 713d b5ae b03b 1447 e8bc e960 33bc
00000210: 3b9c 4bbb 382b da3d a30d 7e3e c496 b23d
00000220: 046a 03be 7a56 17bd f671 d0bc c6b2 863d
00000230: da96 6d3d 3829 9cbd b38a b83d 00cc 5f3b
00000240: 4bb7 35bd 1b3a e8bc bd82 f03d 962b a0bc
00000250: 765d 1cbe 3b26 1d3d 21ee a73c 1bf5 903d
00000260: 0497 74bd e616 c8bd 201f 2c3e 334e 3fbd
00000270: 8acd fbbc c0e3 9e3c db27 3d3a b7f9 22bd
00000280: 762b cc3d 316c c83b 7087 e7bd f7f4 5abd
00000290: 72fa 393d c7f4 7cbe a708 853d 0b37 1cbd
000002a0: 669a ae3d 7f96 f33c 2aec 4cbc d9bf 19bd
000002b0: ba4e c23c 0890 033d f321 143e 6019 4c3e
000002c0: 1b38 a8bd 28dc efbb 3be0 153e 91c9 5e3e
000002d0: 3868 74bd 8dc1 c2bd 120c ad3d abd7 7abc
000002e0: ce83 0e3e 62d6 f6bd 9441 bebc 029e 0ebd
000002f0: fd23 1f3b c412 533d 412a 48bd ccf3 a6bd
00000300: db96 14bd 88f3 2a3e af78 543d fc90 363d
00000310: 511e 583d eb26 903d cea1 c3bc a849 6dbd
00000320: 3fb7 b7bd 46ba 9bbd 584d 0c3e 4fda 223e
00000330: 0c4b 743c 0a58 633d 2523 12be 7b48 b1bd
00000340: 08e8 5d3d 24c3 20bd 122f 013a eb89 713e
00000350: 4962 9c3d 32c4 c8bc d159 793c 41bc cabd
00000360: 5e9a ca3d 1d81 4bbd 39f0 b63d a24e 91bd
00000370: 3c1f 90bd 40da c23d c102 1dbc c2c9 0abd
00000380: 46b5 20bd d983 eebc 6d91 293e ad8e 263e
00000390: 6494 9d3d ced7 4abd 4b93 48bd 0efe 903d
000003a0: 457c 0bbd 8f5a d63d 5d5a ecbc dfcc 2a3e
000003b0: 9d3f d63d d44f 1b3d 33e9 1f3d 3323 dbbc
000003c0: aa61 47bd b6b5 98bd a409 bcbd 0955 af3c
000003d0: a128 cb3d 3238 233c 61ec 983c 5509 0d3e
000003e0: 82ca 1b3d 94d8 8d3a 8ee7 243e d078 e1bd
000003f0: 705b 043e 3010 14be 03f0 053e ce3a 0cbc

fc2.bias f4 [128]
-0.010930101 -0.016095517 -0.084471665 0.020080337 -0.10351919 -0.02424318 -0.06763172 -0.06139827
-0.10985867 -0.05069027 -0.04307828 -0.028225532 -0.009063237 -0.10682395 -0.10407359 -0.07472968
-0.08748716 -0.115220584 -0.022613958 -0.034090716 -0.11767361 -0.14013699 0.0033529333 -0.122579575
-0.023971435 0.006796974 -0.096572824 -0.0477903 -0.07740072 -0.04695668 -0.055483893 -0.121965766
-0.122554734 -0.0042378656 -0.08066935 -0.101984754 -0.0070299017 -0.06269337 -0.008316052 0.004533826
-0.12462479 -0.044405494 0.031395435 -0.12009478 0.0014381106 -0.1306604 -0.029133543 -0.07087322
-0.0718771 -0.043038778 0.0005763286 -0.05999262 0.0013452577 -0.0012693636 -0.14171582 -0.06714791
-0.09965858 -0.10193577 -0.016279088 -0.053316772 0.011809424 -0.09867755 -0.04438961 -0.016551204
0.00878213 -0.021838563 -0.105772726 -0.028909383 -0.11606472 -0.050643496 -0.067558944 -0.09265445
-0.06573555 -0.026984822 0.029969703 -0.07479847 -0.13559332 -0.076524384 -0.009529334 0.016525863
-0.016138569 -0.062157456 -0.04344105 0.01456511 -0.080041006 -0.035879426 -0.093435116 -0.070562564
-0.0754641 -0.014643601 0.007879761 -0.09552152 -0.06911984 -0.08886624 -0.027743822 -0.006955611
0.06501242 -0.0012072143 -0.064788565 0.027512161 -0.111798376 -0.09271335 -0.017739693 -0.07651498
-0.10891296 -0.120381966 -0.08973581 0.036627665 -0.062337656 -0.03493683 -0.006298044 -0.005504271
-0.05657338 -0.04190005 -0.06943254 0.047613684 0.028055765 -0.11582165 -0.0142871225 0.04349694
-0.13115303 -0.09774857 -0.07459635 0.0057823122 0.039557476 -0.05056013 -0.13704692 0.010969689
00000000: 2b14 33bc bfda 83bc 7bff acbd 857f a43c
00000010: de01 d4bd a299 c6bc 8082 8abd c17c 7bbd
00000020: 95fd e0bd 9aa0 4fbd da72 30bd 3b39 e7bc
00000030: f97d 14bc 84c6 dabd 8924 d5bd e00b 99bd
00000040: 782c b3bd c5f8 ebbd e840 b9bc b5a2 0bbd
00000050: ddfe f0bd 1280 0fbe e3bc 5b3b 000b fbbd
00000060: be5f c4bc 27b9 de3b f9c7 c5bd c3bf 43bd
00000070: 4584 9ebd a655 40bd 1443 63bd 30c9 f9bd
00000080: fafd fabd cbdd 8abb f935 a5bd 62dd d0bd
00000090: 175b e6bb 6265 80bd 0d40 08bc 7d90 943b
000000a0: 483b ffbd 89e2 35bd 8098 003d 41f4 f5bd
000000b0: fc7e bc3a d7cb 05be 78a9 eebc fb25 91bd
000000c0: 4d34 93bd 6e49 30bd c214 173a d2ba 75bd
000000d0: 5c53 b03a c660 a6ba f41d 11be d884 89bd
000000e0: cc19 ccbd b3c3 d0bd b95b 85bc b062 5abd
000000f0: 507c 413c 7517 cabd e1d1 35bd 6496 87bc
00000100: ece2 0f3c c9e6 b2bc 5f9f d8bd 5fd3 ecbc
00000110: 57b3 edbd 8e6f 4fbd 585c 8abd 9ec1 bdbd
00000120: 5ca0 86bd 460f ddbc 0683 f53c f12f 99bd
00000130: fad8 0abe d1b8 9cbd ec20 1cbc 3f61 873c
00000140: 0835 84bc d198 7ebd 3eef 31bd 80a2 6e3c
00000150: 8aec a3bd 4ef6 12bd e95a bfbd 1b83 90bd
00000160: ec8c 9abd b7eb 6fbc 1d1a 013c c9a0 c3bd
00000170: b48e 8dbd 81ff b5bd 0347 e3bc e5eb e3bb
00000180: 3b25 853d 643b 9eba deaf 84bd 2f61 e13c
00000190: 8cf6 e4bd 7fe0 bdbd d552 91bc e3b3 9cbd
000001a0: c20d dfbd d28a f6bd 69c7 b7bd e406 163d
000001b0: c555 7fbd ec19 0fbd d35f cebb 2c5d b4bb
000001c0: 7db9 67bd 639f 2bbd a632 8ebd 9106 433d
000001d0: 34d5 e53c e733 edbd 8914 6abc d929 323d
000001e0: fb4c 06be 6730 c8bd f9c5 98bd 8d79 bd3b
000001f0: 0507 223d 2418 4fbd 0756 0cbe 36ba 333c

ln2.weight f4 [128]
1.1815968 1.7451419 1.4435643 1.3867395 1.3982244 1.2687676 1.2300185 1.3109298
1.2003937 1.2896926 1.3664178 1.3988012 1.1877817 1.3987479 1.0369163 1.3610374
1.1952256 1.33327 1.2650005 1.6239378 1.3918674 1.5127116 1.536241 1.3867561
1.4483732 1.2871178 1.4569715 1.3015835 1.5462111 1.2929387 1.2373724 1.5046176
1.2349627 1.3531713 1.2764711 1.45439 1.3834342 1.2596442 1.4004223 1.2467742
1.1832354 1.3075949 1.375441 1.3670342 1.2996386 1.2222129 1.1681206 1.3183204
1.377505 1.2384382 1.4522679 1.3665292 1.6168523 1.2874593 0.9830816 1.2875053
1.3257345 1.3505994 1.4155298 1.1700478 1.4618596 1.3136221 1.2483184 1.1248482
1.4125111 1.4300725 1.2333522 1.376878 1.1704564 1.1675373 1.1919398 1.6939229
1.4968852 1.5584111 1.4386765 1.2909273 1.3203089 1.4204805 1.3390663 1.2249957
1.2479074 1.3450803 1.433147 1.2654403 1.1812999 1.1134478 1.4107693 1.3935156
1.306284 1.2620679 1.2832949 1.2787828 1.2467977 1.2405369 1.3541926 1.2552655
1.3682746 1.4514445 1.2948468 1.4369276 1.1817302 1.28986 1.4653776 1.4026974
1.4094511 1.120332 1.2255071 1.2128395 1.2649686 1.1619196 1.3291265 1.3238022
1.2406123 1.4432569 1.4308997 1.3928726 1.487049 1.2562687 1.1361588 1.4218564
1.2084949 1.4916041 1.2491449 1.4628423 1.3588262 1.2854404 1.250656 1.4890945
00000000: 903e 973f cf60 df3f b7c6 b83f ae80 b13f
00000010: 04f9 b23f fa66 a23f 3f71 9d3f 8ccc a73f
00000020: 80a6 993f a614 a53f c7e6 ae3f eb0b b33f
00000030: 3b09 983f 2c0a b33f acb9 843f 7936 ae3f
00000040: 27fd 983f 97a8 aa3f 89eb a13f 32dd cf3f
00000050: b628 b23f 89a0 c13f 8ca3 c43f 3981 b13f
00000060: 4b64 b93f 47c0 a43f 0b7e ba3f 4a9a a63f
00000070: 3fea c53f 047f a53f 3862 9e3f 4f97 c03f
00000080: 4213 9e3f b834 ad3f 6863 a33f 7429 ba3f
00000090: 5f14 b13f 053c a13f 0a41 b33f 4c96 9f3f
000000a0: 4274 973f 455f a73f 730e b03f fafa ae3f
000000b0: 8f5a a63f 7971 9c3f fa84 953f b9be a83f
000000c0: 1552 b03f 2585 9e3f eae3 b93f 6eea ae3f
000000d0: 04f5 ce3f 77cb a43f 3cab 7b3f f9cc a43f
000000e0: abb1 a93f 71e0 ac3f 1530 b53f 20c4 953f
000000f0: 371e bb3f c524 a83f e6c8 9f3f 07fb 8f3f
00000100: 2acd b43f 9e0c b73f 7cde 9d3f 8a3d b03f
00000110: 84d1 953f dd71 953f 7c91 983f 77d2 d83f
00000120: ef99 bf3f 047a c73f 8d26 b83f 1b3d a53f
00000130: e2ff a83f 4ed2 b53f 8666 ab3f a9cc 9c3f
00000140: 6ebb 9f3f 972b ac3f 5c71 b73f f3f9 a13f
00000150: d634 973f 7585 8e3f 1794 b43f b85e b23f
00000160: 5034 a73f 718b a13f 0243 a43f 28af a33f
00000170: 1197 9f3f eac9 9e3f 2f56 ad3f 8aac a03f
00000180: 9f23 af3f efc8 b93f 8abd a53f 3eed b73f
00000190: ef42 973f 221a a53f 7e91 bb3f 978b b33f
000001a0: e568 b43f 0a67 8f3f 6bdd 9c3f 533e 9b3f
000001b0: 7eea a13f c8b9 943f d120 aa3f 5a72 a93f
000001c0: 62cc 9e3f a4bc b83f b927 b73f a649 b23f
000001d0: 9f57 be3f 6acd a03f a76d 913f 64ff b53f
000001e0: f6af 9a3f e2ec be3f fbe3 9f3f 6b3e bb3f
000001f0: 04ee ad3f 5089 a43f 7f15 a03f a69a be3f

ln2.bias f4 [128]
-0.23383373 -0.13492417 -0.3122638 0.3106452 -0.31520045 -0.32348046 0.31471312 -0.32441777
-0.2974279 -0.3138058 -0.31548187 -0.30804616 0.32642347 0.32257172 -0.2854403 -0.34855998
0.30794224 -0.31886914 0.3009157 -0.3205092 -0.31125015 -0.32253036 0.31795204 -0.30737862
-0.32156935 -0.33529398 -0.3156828 -0.3391404 -0.32602116 0.31418413 -0.31571305 -0.32207972
-0.31584293 -0.31667995 -0.32638502 -0.34262943 -0.317608 0.31190678 0.35379037 -0.31930864
0.26878586 0.32793802 -0.31400108 -0.31685746 -0.32313395 -0.29908296 -0.18827121 -0.3092761
0.3144987 -0.19760822 -0.31257635 0.3080953 0.3323139 -0.31436568 -0.29985654 0.31152752
0.3166449 -0.33165336 0.3318103 0.31409106 0.34126097 -0.3175392 0.31024975 0.28526804
0.3526074 -0.3171539 -0.30783167 -0.32649806 -0.31727818 -0.2974113 -0.3306863 0.3183513
0.3067953 0.31983814 -0.3056762 0.31180647 -0.3202507 -0.30429462 0.31484264 0.32554886
-0.3265777 -0.3082548 -0.31761682 -0.33636135 0.3031724 -0.30571428 -0.31744447 -0.3215752
-0.3288178 0.32335222 0.3094969 -0.34186357 -0.3270348 -0.32071346 0.3046596 -0.32514185
0.3131377 0.3237801 -0.31799674 0.3182976 0.3276681 -0.31445256 -0.32713446 0.31492528
0.32517368 0.31500396 -0.30687857 -0.30826107 -0.31669348 0.29402304 -0.31563804 -0.3254197
-0.19952263 -0.31830233 -0.31436834 0.32932243 0.326315 -0.31492957 -0.26109943 0.3138329
-0.31650695 -0.3213233 -0.30953646 0.31995392 0.32714066 0.30715072 -0.33885592 -0.32129642
00000000: 1c72 6fbe 9029 0abe 0ae1 9fbe e30c 9f3e
00000010: f461 a1be 3b9f a5be 1422 a13e 161a a6be
00000020: 7848 98be 27ab a0be d786 a1be 3ab8 9dbe
00000030: fa20 a73e 1f28 a53e 3b25 92be 7476 b2be
00000040: 9baa 9d3e d142 a3be 9f11 9a3e c819 a4be
00000050: 2e5c 9fbe b322 a5be 9cca a23e bb60 9dbe
00000060: bda4 a4be a7ab abbe 2da1 a1be cfa3 adbe
00000070: 3fec a6be bedc a03e 24a5 a1be a2e7 a4be
00000080: 2ab6 a1be e023 a2be f01b a7be 206d afbe
00000090: 849d a2be 3fb2 9f3e 0324 b53e 6c7c a3be
000000a0: 4d9e 893e 7ee7 a73e c0c4 a0be 243b a2be
000000b0: d071 a5be 6721 99be 2bca 40be 7059 9ebe
000000c0: f905 a13e cf59 4abe 020a a0be abbe 9d3e
000000d0: 0c25 aa3e 8af4 a0be cc86 99be 8980 9f3e
000000e0: 481f a23e 78ce a9be 0ae3 a93e 8bd0 a03e
000000f0: c2b9 ae3e 7f94 a2be 0ed9 9e3e a70e 923e
00000100: f588 b43e ff61 a2be 1d9c 9dbe c12a a7be
00000110: 4972 a2be 4b46 98be b74f a9be f1fe a23e
00000120: 4614 9d3e d3c1 a33e 9781 9cbe 19a5 9f3e
00000130: e6f7 a3be 81cc 9bbe 0e33 a13e 57ae a63e
00000140: 3135 a7be 93d3 9dbe ac9e a2be 8e37 acbe
00000150: 6a39 9b3e 9586 9cbe 1588 a2be 81a5 a4be
00000160: cf5a a8be 6c8e a53e 6176 9e3e be08 afbe
00000170: 1b71 a7be 8e34 a4be 58fc 9b3e fe78 a6be
00000180: 9653 a03e 81c6 a53e 78d0 a2be e7f7 a23e
00000190: 1dc4 a73e edff a0be 2b7e a7be e33d a13e
000001a0: 2a7d a63e 3348 a13e 301f 9dbe 65d4 9dbe
000001b0: a625 a2be 308a 963e 4f9b a1be 699d a6be
000001c0: a94f 4cbe 86f8 a2be e3f4 a0be f39c a83e
000001d0: c212 a73e 733e a1be d3ae 85be b5ae a03e
000001e0: 330d a2be 7d84 a4be 907b 9ebe 00d1 a33e
000001f0: fb7e a73e dc42 9d3e 867e adbe f780 a4be

fc3.weight f4 [1, 128]
0.1081316 0.6271536 -0.36490765 0.34381917 -0.3102343 -0.23451988 0.1519501 -0.22571838
-0.20004056 -0.21603927 -0.29543257 -0.30613282 0.12681817 0.30251172 -0.0572348 -0.2746096
0.21416777 -0.26463318 0.25267628 -0.4958641 -0.29954535 -0.39387733 0.52281195 -0.3145114
-0.35068178 -0.21693313 -0.36578295 -0.23605447 -0.41849196 0.27915567 -0.18225603 -0.4119981
-0.16439904 -0.26282707 -0.20845105 -0.32501665 -0.2863306 0.1505861 0.37735537 -0.18932706
0.19464204 0.1944463 -0.2927853 -0.29003957 -0.22914703 -0.20682536 0.100666516 -0.2974533
0.26035458 0.16859576 -0.34197187 0.42589656 0.77720004 -0.2594193 -0.012653311 0.27845752
0.24321279 -0.28700817 0.33491936 0.11591309 0.4045364 -0.2600497 0.27509293 0.14674667
0.3617276 -0.33959875 -0.19085161 -0.28346434 -0.120018035 -0.15654284 -0.13824506 0.7117236
0.6035419 0.67846835 -0.38441104 0.20745058 -0.2509589 -0.35247335 0.3591628 0.14633414
-0.20533952 -0.28670374 -0.3797419 -0.18935667 0.13740464 -0.080212936 -0.3243342 -0.34529597
-0.25626907 0.21920894 0.22612886 -0.2294426 -0.19472103 -0.18852253 0.25727874 -0.19861586
0.32194525 0.40759864 -0.2010477 0.5105112 0.19844052 -0.24496806 -0.43425986 0.38060448
0.37001288 0.13019493 -0.184648 -0.1672006 -0.2047685 0.19576062 -0.24172954 -0.2639149
0.15611963 -0.3325548 -0.34566256 0.3146277 0.4357601 -0.18646896 0.058501244 0.31752184
-0.15025617 -0.3742935 -0.20297222 0.508945 0.26294145 0.21672611 -0.17105214 -0.39390904
00000000: 1a74 dd3d 238d 203f 2dd5 babe 1109 b03e
00000010: 08d7 9ebe fb25 70be cf98 1b3e b822 67be
00000020: 6fd7 4cbe 6639 5dbe f042 97be 71bd 9cbe
00000030: 9fdc 013e d1e2 9a3e 0a6f 6abd a199 8cbe
00000040: cc4e 5b3e 007e 87be c95e 813e e6e1 fdbe
00000050: 025e 99be 4aaa c9be 01d7 053f a307 a1be
00000060: 908c b3be b823 5ebe e747 bbbe 43b8 71be
00000070: 9444 d6be 7eed 8e3e 53a1 3abe 6af1 d2be
00000080: 3958 28be 4591 86be 3174 55be 9568 a6be
00000090: ed99 92be 3e33 1a3e b934 c13e f4de 41be
000000a0: 3e50 473e ee1c 473e f4e7 95be 1180 94be
000000b0: 85a5 6abe 07ca 53be 3f2a ce3d cd4b 98be
000000c0: 324d 853e 5ea4 2c3e f016 afbe 1d0f da3e
000000d0: 95f6 463f 9bd2 84be d54f 4fbc fc91 8e3e
000000e0: c60c 793e bcf2 92be 8d7a ab3e d863 ed3d
000000f0: 651f cf3e 3c25 85be fbd8 8c3e c244 163e
00000100: 5c34 b93e e3df adbe 9b6e 43be 3d22 91be
00000110: 04cc f5bd c44c 20be 1d90 0dbe 8533 363f
00000120: b981 1a3f 1ab0 2d3f 86d1 c4be ed6d 543e
00000130: af7d 80be 6377 b4be 30e4 b73e 9ed8 153e
00000140: 8644 52be d5ca 92be 886d c2be b7e6 41be
00000150: cdb3 0c3e ae46 a4bd 220f a6be a2ca b0be
00000160: b335 83be 4f78 603e 538e 673e 00f3 6abe
00000170: f364 47be 0d0c 41be 0aba 833e f561 4bbe
00000180: 02d6 a43e c5b0 d03e 73df 4dbe ddb0 023f
00000190: fe33 4b3e e8d8 7abe 4f57 debe 97de c23e
000001a0: 5472 bd3e d251 053e 5e14 3dbe a236 2bbe
000001b0: d5ae 51be 7975 483e f387 77be db1f 87be
000001c0: d3dd 1f3e 9f44 aabe affa b0be e216 a13e
000001d0: f31b df3e b8f1 3ebe 009f 6f3d 3992 a23e
000001e0: c1dc 19be 66a3 bfbe f3d7 4fbe 384a 023f
000001f0: 43a0 863e 73ed 5d3e 4b28 2fbe 72ae c9be
