projects/reinforcement-learning/collab-and-compet/weights/checkpoint_actor_agent_1.pth (torch, 85990 bytes, 10 tensors)

fc1.weight f4 [128, 24]
-0.0017870158 -0.079589784 -0.046453066 0.0769043 -0.92939985 -0.60715634 -0.16325608 -0.0137629695
0.075293325 0.042543467 -0.24408606 0.36502415 -0.117666356 -0.3637964 -0.25249285 0.36160892
0.10948645 0.057077635 0.17344944 0.05628729 0.90881556 -0.27471188 0.16716793 0.1942298
0.061022535 -0.7537684 -0.048010685 -0.43670562 0.6343397 0.17585048 0.0064431885 -0.48102567
0.28694674 -0.6290632 -0.16379435 -0.38577282 0.82810813 -0.12309993 -0.104218096 -0.5148577
0.1738496 -0.20703517 0.04872748 1.0161742 1.0657088 0.61234176 0.0059345416 1.0122952
-0.48286587 0.47315162 0.413817 -0.028926479 -1.4889739 -0.49287668 0.2423869 -0.09290799
-0.3705532 0.562903 0.2759787 0.03208524 -0.57402146 -0.34122685 0.26812997 0.07087265
-0.36554775 0.47640178 0.10276953 -0.011232789 0.3542681 0.057626963 0.2383103 0.10509125
0.07050208 0.02879001 0.01600933 -0.46530402 -0.65877336 -0.036036227 0.07151382 -0.4794955
-0.17935032 -0.30152988 -0.15838687 -0.6318489 -0.8186444 0.50422955 -0.22028796 -0.55601734
-0.100464396 -0.33253804 -0.0066593443 0.42714205 -0.6973231 0.8897943 -0.10510097 0.4336179
0.4157506 -0.8087775 -0.006011212 0.07519025 -0.5793023 0.27270103 0.02895238 0.13628563
0.42543742 -0.9020053 0.070863776 -0.10855932 -0.7764007 0.67448026 0.16351108 -0.015492585
0.54839414 -0.84927684 0.100384444 0.19277163 -0.8493797 1.2698214 -0.00048578158 0.19663781
0.07254326 -0.7190285 -0.15410967 -0.048921898 0.2645758 -0.70130587 -0.10652042 -0.08365218
-0.035738457 -0.86949414 0.1613379 0.15730526 0.94073886 -0.34105685 0.12600665 0.29383188
-0.024825992 -1.3408133 0.014525821 0.23093972 1.4303834 0.05819765 -0.020040903 0.30219898
-0.5278557 0.44578442 0.11838669 0.09711816 -0.9624436 -0.29047915 0.16194421 0.07485562
-0.4293357 0.63047177 0.21194422 0.46929443 -0.1832134 -0.21440205 0.2286363 0.42790985
-0.37008238 1.1913792 0.12431466 0.9190517 0.47270364 -0.61868566 0.15482597 0.84826756
0.15535831 -0.19064301 -0.028175594 -0.19559523 0.17761241 0.17853075 0.030515602 -0.2944318
0.021990417 -0.38808182 0.09508913 -0.020567317 0.8853945 -0.22715572 0.16650029 -0.08150505
0.06703585 -0.12044825 0.18414338 0.06329096 1.5662858 -2.2840517 0.075790554 0.09757064
-0.60627913 -0.47927558 0.2769993 -0.47336176 -1.3980942 0.461605 0.22668155 -0.59325427
-0.53278446 -0.6688891 0.2417643 0.111033 -0.42523578 0.8968142 0.21672677 0.097905084
-0.46706653 -0.7243326 0.26923725 -0.044623215 0.110748984 1.0076399 0.26490903 0.021612352
0.17509778 -0.74039936 -0.093388304 -0.39119908 -0.07834592 0.28691143 -0.12429108 -0.44407234
0.040682014 -0.92020917 0.14685798 -0.31969908 -0.0011278184 0.81723547 0.11312975 -0.4261687
0.029090853 -1.0843152 -0.34485212 -0.8195134 0.2701574 1.1432084 -0.20099637 -0.7485505
-0.31898627 -1.8507262 0.2939583 0.16483372 -0.07435376 0.44947052 0.3425407 0.07968296
-0.11926654 -1.7100332 0.23216343 -0.0130276 -0.14898373 0.17226902 0.2558077 -0.008660593
00000000: 4d3a eaba f8ff a2bd 9245 3ebd 0080 9d3d
00000010: 26ed 6dbf 996e 1bbf 9a2c 27be 147e 61bc
00000020: 6333 9a3d 0f42 2e3d b2f1 79be 72e4 ba3e
00000030: 0ffb f0bd 8643 babe be46 81be ce24 b93e
00000040: 6f3a e03d 3dca 693d bb9c 313e 808d 663d
00000050: 23a8 683f 09a7 8cbe 122e 2b3e 2de4 463e
00000060: c4f2 793d f7f6 40bf daa6 44bd e197 dfbe
00000070: 1664 223f 2612 343e 6221 d33b ff48 f6be
00000080: afea 923e 490a 21bf b5b9 27be 0484 c5be
00000090: e5fe 533f d11b fcbd 4c70 d5bd b7cd 03bf
000000a0: a105 323e 0701 54be 7796 473d ff11 823f
000000b0: 2569 883f 6ec2 1c3f 8b76 c23b e492 813f
000000c0: 323a f7be ee40 f23e d2df d33e 39f7 ecbc
000000d0: b296 bebf 555a fcbe 4634 783e 8b46 bebd
000000e0: 26b9 bdbe 691a 103f 154d 8d3e d06b 033d
000000f0: 12f3 12bf 49b5 aebe 5548 893e ae25 913d
00000100: 1329 bbbe efea f33e d578 d23d bb09 38bc
00000110: a162 b53e 400a 6c3d 9e07 743e 153a d73d
00000120: 6563 903d 07d9 eb3c 0026 833c 543c eebe
00000130: 5fa5 28bf b99a 13bd d675 923d 6f80 f5be
00000140: 9ca7 37be 2062 9abe 2b30 22be d9c0 21bf
00000150: ae92 51bf 3015 013f 2b93 61be 2757 0ebf
00000160: 47c0 cdbd 6d42 aabe a136 dabb 5db2 da3e
00000170: c483 32bf 8fc9 633f 2d3f d7bd 2a03 de3e
00000180: 43dd d43e 0b0c 4fbf b3f9 c4bb 59fd 993d
00000190: 284d 14bf 789f 8b3e 8b2d ed3c 768e 0b3e
000001a0: efd2 d93e d2e9 66bf 0721 913d 5954 debd
000001b0: 32c2 46bf bdaa 2c3f 736f 273e 9cd4 7dbc
000001c0: 8f63 0c3f 356a 59bf 5c96 cd3d ed65 453e
000001d0: f370 59bf 8289 a23f 80b0 feb9 6c5b 493e
000001e0: 9091 943d 4012 38bf edce 1dbe 5462 48bd
000001f0: 7b76 873e c888 33bf 6127 dabd d651 abbd
00000200: 7d62 12bd 2b97 5ebf c335 253e a114 213e
00000210: 43d4 703f 019f aebe e307 013e 2271 963e
00000220: e15f cbbc c59f abbf b6fd 6d3c 767b 6c3e
00000230: ce16 b73f a960 6e3d d22c a4bc d3b9 9a3e
00000240: 8d21 07bf db3d e43e b974 f23d e3e5 c63d
00000250: b462 76bf afb9 94be b4d4 253e e74d 993d
00000260: e4d1 dbbe 9966 213f e807 593e 5c47 f03e
00000270: 4b9c 3bbe 368c 5bbe a21f 6a3e 0017 db3e
00000280: 707b bdbe 1d7f 983f af98 fe3d f946 6b3f
00000290: 3606 f23e 2f62 1ebf b38a 1e3e 1028 593f
000002a0: 4016 1f3e ec37 43be 81d0 e6bc 1e4a 48be
000002b0: 07e0 353e c4d0 363e dbfb f93c c4bf 96be
000002c0: 3f25 b43c a9b2 c6be 17be c23d ca7c a8bc
000002d0: 37a9 623f 829b 68be 0d7f 2a3e 1fec a6bd
000002e0: 174a 893d 92ad f6bd 1590 3c3e b19e 813d
000002f0: 0e7c c83f e72d 12c0 1438 9b3d 1ed3 c73d
00000300: 1c35 1bbf 9c63 f5be dad2 8d3e 795c f2be
00000310: c0f4 b2bf 7e57 ec3e 351f 683e 83df 17bf
00000320: 9064 08bf 513c 2bbf 1091 773e 4565 e33d
00000330: 81b8 d9be 9e95 653f 9fed 5d3e 7682 c83d
00000340: 5823 efbe dc6d 39bf 77d9 893e d5c6 36bd
00000350: 5dd0 e23d 58fa 803f 28a2 873e 630c b13c
00000360: d54c 333e d08a 3dbf 5e42 bfbd 3f4b c8be
00000370: d373 a0bd 0ee6 923e 528c febd 735d e3be
00000380: 2fa2 263d d492 6bbf f061 163e 99af a3be
00000390: 4ed3 93ba 5836 513f 92b0 e73d c932 dabe
000003a0: f14f ee3c d7ca 8abf 7590 b0be a1cb 51bf
000003b0: 1252 8a3e a754 923f fed1 4dbe 01a1 3fbf
000003c0: 2b52 a3be 99e4 ecbf b481 963e 2cca 283e
000003d0: c946 98bd 0021 e63e 7f61 af3e d230 a33d
000003e0: 0442 f4bd 5ee2 dabf 40bc 6d3e b771 55bc
000003f0: 318f 18be 4a67 303e 3af9 823e 29e5 0dbc

fc1.bias f4 [128]
0.32070974 -0.38575947 0.24569295 -0.0370668 -0.16232035 0.22294216 0.1568639 -0.21699838
0.59586006 0.7917072 0.00016709125 0.14634854 -0.24915144 -0.6081997 0.77709836 -0.19996972
0.3354814 0.2488736 0.22909681 1.1033728 -0.42201525 0.7147937 0.15167896 0.52571106
0.1421717 -0.02209977 -0.0034481473 0.25703722 0.20596743 0.16877379 0.8413466 0.66503763
0.2160942 0.54166263 0.46056727 -0.35404402 0.04815613 0.041978616 0.011174216 0.028518096
-0.0062786187 0.29225224 0.037884567 0.2681068 0.27877232 0.027906287 -0.23521885 0.29308128
0.41474268 0.21673423 0.4724921 0.17699456 0.4290603 -0.17458223 -0.5006551 -0.027063347
-0.16703953 0.4990604 -0.24398734 0.07344228 0.07164507 1.1069229 0.2339192 -0.42860627
0.04909282 -0.32691354 1.0059291 0.26734352 0.35336828 -0.7249865 0.09610764 0.3533789
-0.14288162 0.25321075 -0.21215792 0.31887892 0.3119165 -0.19366331 0.26797393 0.37353534
0.5561588 0.13857067 0.18363433 0.54624385 0.03823099 0.5094609 0.5160214 0.23767939
-0.029586937 -0.064119525 -0.030681498 0.3552328 -0.08017179 0.08281748 0.10738475 0.4249325
0.11449688 -0.40932626 0.31838128 0.17163539 0.043485865 0.48916373 0.58468366 0.46224195
-0.43208322 0.5698148 0.13533336 0.27336192 -0.20362723 0.45062026 0.2780574 0.23313212
0.89507395 0.063225746 0.167109 0.25031433 -0.13947526 -0.6742495 0.27937436 0.2257399
0.1151564 0.047284063 0.17284396 0.33158186 -0.18869968 0.65998435 0.51658326 0.22692987
00000000: 1134 a43e 4482 c5be ef96 7b3e 5bd3 17bd
00000010: 4e37 26be f34a 643e eea0 203e d334 5ebe
00000020: 498a 183f 53ad 4a3f 3735 2f39 64dc 153e
00000030: 8e21 7fbe fab2 1bbf ebef 463f ddc4 4cbe
00000040: 38c4 ab3e b9d8 7e3e 5b98 6a3e 523b 8d3f
00000050: 6212 d8be b8fc 363f bb51 1b3e 0095 063f
00000060: 7595 113e 940a b5bc 50fa 61bb 629a 833e
00000070: 20e9 523e 09d3 2c3e 7e62 573f e83f 2a3f
00000080: cc47 5d3e 67aa 0a3f 79cf eb3e 4245 b5be
00000090: 5d3f 453d c5f1 2b3d 0f14 373c c89e e93c
000000a0: dfbc cdbb 16a2 953e d92c 1b3d 4b45 893e
000000b0: 3fbb 8e3e ba9b e43c 36dd 70be c00e 963e
000000c0: 2759 d43e 94ef 5d3e 7cea f13e 103e 353e
000000d0: cbad db3e afc5 32be ef2a 00bf f4b3 ddbc
000000e0: 690c 2bbe d884 ff3e d1d7 79be e868 963d
000000f0: a7ba 923d a6af 8d3f 8488 6f3e 4872 dbbe
00000100: 8e15 493d 3661 a7be 49c2 803f 40e1 883e
00000110: b0ec b43e b798 39bf 15d4 c43d 14ee b43e
00000120: 8f4f 12be d7a4 813e ed3f 59be 1944 a33e
00000130: 85b3 9f3e ad4f 46be e133 893e 0640 bf3e
00000140: 6c60 0e3f 78e5 0d3e a30a 3c3e a3d6 0b3f
00000150: 1998 1c3d 086c 023f fa19 043f 3a62 733e
00000160: 4e60 f2bc 1951 83bd c457 fbbc 13e1 b53e
00000170: 1c31 a4bd 369c a93d 89ec db3d c190 d93e
00000180: 577d ea3d 3693 d1be df02 a33e 30c1 2f3e
00000190: 3c1e 323d ab73 fa3e d4ad 153f faaa ec3e
000001a0: 033a ddbe 62df 113f d494 0a3e 18f6 8b3e
000001b0: a883 50be b3b7 e63e 8a5d 8e3e 30ba 6e3e
000001c0: 9123 653f 807c 813d 9f1e 2b3e 3329 803e
000001d0: 9ad2 0ebe 9d9b 2cbf 280a 8f3e 5c28 673e
000001e0: 1ed7 eb3d efac 413d 02fe 303e 19c5 a93e
000001f0: 7d3a 41be bcf4 283f cd3e 043f 4e60 683e

fc2.weight f4 [128, 128]
0.80620736 0.6558102 0.16433598 -0.32721335 1.0366949 0.5470764 0.48195884 0.07708571
0.0042053144 0.17018954 0.97562724 0.05394545 0.5048269 0.7354559 -0.30432323 -0.04343491
-0.13255809 -0.24140483 -0.11804793 0.105792426 0.788657 0.36500242 1.0932618 1.1087424
0.42763436 0.14897102 -0.13309714 -0.4175258 0.6440282 1.010345 0.02169902 -0.050612032
1.2033728 0.90760577 1.0640041 0.3459153 -0.525454 0.7102062 -0.16997063 0.39917222
0.5067225 -0.38592133 -0.053191334 1.0505623 0.89247465 0.70778084 -0.52828217 0.7776009
-0.16948071 0.55074954 0.42879418 0.29696387 0.07083583 0.43795004 -0.27240047 0.5893289
0.3726621 0.37749624 0.5713086 -0.2494997 0.3591027 -0.4230411 -0.11660771 -0.4996661
-0.15218586 0.054136854 0.11276321 -0.451749 0.32656485 -0.71933705 0.51842475 0.9085521
0.6937021 0.5895542 -0.077471174 -0.058169812 0.95264757 0.088817105 0.5536902 0.20345809
0.31252855 0.40786663 -0.08728222 0.3083031 0.7584045 0.42188424 -0.36938232 0.08093199
0.07593482 0.48379073 1.007262 -0.13769259 0.47028822 0.11736156 0.9602619 0.26957893
-0.2642545 -0.70285624 0.6341925 0.71454227 -0.24752313 0.64731467 0.07760352 -0.15477473
0.348167 -0.44922468 0.86247224 -0.22203848 0.30483428 0.051030736 1.0285901 -0.30879632
-0.412127 0.3963271 0.3804101 0.123607874 0.71712244 -0.9843366 0.6709348 -0.15140417
0.48318273 0.025524272 0.17728256 0.34612954 -0.120911725 0.64265156 0.6214082 1.1574842
1.2312988 0.07943891 -0.13114905 -0.13294208 0.87449414 -0.18495014 0.3174125 -0.23917933
-0.18297577 0.2851346 0.8064971 -0.0044389283 0.7429614 0.95140374 -0.25279096 -0.03300107
0.17695735 -0.066253535 -0.26222175 0.22011837 0.8941208 0.7176619 1.0504911 1.1013011
0.48681426 0.36570972 0.00690432 -0.12543072 0.5050748 0.7514225 -0.10239169 -0.07679164
1.5587691 0.9850421 1.0124023 0.5245557 0.042822186 1.2706206 -0.3330239 -0.24813719
0.7062138 -0.34445328 -0.060719445 1.0185248 0.76739806 0.73894155 -0.7395844 0.65721035
0.33968544 0.42643374 0.92878795 0.16658355 0.264665 0.697387 -0.21096987 0.92974114
0.08499423 1.0867139 0.9146664 -0.06280695 0.44151744 -0.23149735 0.050363783 -0.13041875
-0.18477045 0.6607233 0.148039 -0.29401404 0.21171936 -0.67730004 0.5181238 0.7123776
1.1354982 0.88493127 0.39572826 -0.48827723 1.043626 0.10314224 0.8704395 0.07863815
0.24279276 0.60451376 -0.4222564 0.6209838 0.7773458 0.25775167 0.32038045 0.6745009
0.3308496 0.50557345 1.4319805 -0.30026326 0.5052943 0.0784125 1.0571706 0.18392497
-0.30548528 -0.6252293 0.66995203 0.85149366 0.10412918 0.74174184 0.22170848 -0.17628968
0.16787362 -0.14111988 0.854513 -0.2784431 0.16762175 0.06623156 1.1797012 0.30839074
0.32561845 0.38946903 0.31132346 -0.025105042 0.40621644 -1.1823821 0.42683193 -0.0056185587
0.6397265 -0.008328011 0.462114 0.16926311 -0.29117382 0.6846233 0.45220876 1.2741611
00000000: 9b63 4e3f 2de3 273f b147 283e 8288 a7be
00000010: 6bb2 843f 330d 0c3f 4fc3 f63e 1ddf 9d3d
00000020: bccc 893b 2b46 2e3e b5c2 793f e7f5 5c3d
00000030: 563c 013f d646 3c3f 41d0 9bbe cee8 31bd
00000040: 4fbd 07be d432 77be 1dc3 f1bd b3a9 d83d
00000050: 6de5 493f 99e1 ba3e 01f0 8b3f 45eb 8d3f
00000060: e4f2 da3e dc8b 183e 9e4a 08be f1c5 d5be
00000070: 08df 243f fc52 813f 25c2 b13c 904e 4fbd
00000080: 1f08 9a3f da58 683f 4931 883f cf1b b13e
00000090: 2784 06bf 13d0 353f c80c 2ebe 4d60 cc3e
000000a0: 91b8 013f 7b97 c5be 28df 59bd d378 863f
000000b0: 3879 643f 2031 353f 803d 07bf da10 473f
000000c0: 5a8c 2dbe ecfd 0c3f e98a db3e a60b 983e
000000d0: 6012 913d fd3a e03e 1378 8bbe 42de 163f
000000e0: 91cd be3e 3047 c13e 4841 123f d97c 7fbe
000000f0: 4fdc b73e d898 d8be 06d0 eebd 3cd4 ffbe
00000100: 9cd6 1bbe 9bbe 5d3d 66f0 e63d a54b e7be
00000110: 8233 a73e 7926 38bf 7cb7 043f df96 683f
00000120: 7696 313f 06ed 163f 35a9 9ebd 7843 6ebd
00000130: b6e0 733f bee5 b53d a4be 0d3f 5157 503e
00000140: be03 a03e e5d3 d03e 05c1 b2bd e7d9 9d3e
00000150: cc26 423f 3601 d83e ae1f bdbe acbf a53d
00000160: b783 9b3d 6bb3 f73e f6ed 803f 49ff 0cbe
00000170: 9ec9 f03e 425b f03d b9d3 753f 4006 8a3e
00000180: 5e4c 87be 63ee 33bf 715a 223f 3eec 363f
00000190: b476 7dbe 6ab6 253f 98ee 9e3d 447d 1ebe
000001a0: f242 b23e c700 e6be fbca 5c3f 0e5e 63be
000001b0: 3d13 9c3e 9b05 513d d7a8 833f 8d1a 9ebe
000001c0: 4f02 d3be 63eb ca3e 1dc5 c23e 2026 fd3d
000001d0: 5695 373f 7cfd 7bbf 62c2 2b3f b209 1bbe
000001e0: ba63 f73e 4718 d13c 8f89 353e e437 b13e
000001f0: 91a0 f7bd d084 243f 9c14 1f3f 7128 943f
00000200: 339b 9d3f deb0 a23d f04b 06be f821 08be
00000210: d9de 5f3f 9263 3dbe e483 a23e 6deb 74be
00000220: 005e 3bbe 2afd 913e 9876 4e3f 6e74 91bb
00000230: b832 3e3f 328f 733f d16d 81be 212c 07bd
00000240: 4f34 353e efaf 87bd ee41 86be b666 613e
00000250: 1ae5 643f b1b8 373f 7e76 863f 6ff7 8c3f
00000260: b83f f93e 4e3e bb3e a23d e23b e970 00be
00000270: 954c 013f 3a5d 403f bcb2 d1bd ef44 9dbd
00000280: bf85 c73f b82b 7c3f 6696 813f 4849 063f
00000290: 5166 2f3d b2a3 a23f 1c82 aabe ad17 7ebe
000002a0: 6dca 343f 2e5c b0be f4b4 78bd 055f 823f
000002b0: 3374 443f 462b 3d3f 6755 3dbf f03e 283f
000002c0: 40eb ad3e 8655 da3e 0cc5 6d3f e194 2a3e
000002d0: 2c82 873e f487 323f 7c08 58be 8403 6e3f
000002e0: 7411 ae3d 7119 8b3f 9427 6a3f eea0 80bd
000002f0: 930e e23e a40d 6dbe 414a 4e3d 7e8c 05be
00000300: 7734 3dbe 2a25 293f 8997 173e 0289 96be
00000310: f6cc 583e 8963 2dbf c3a3 043f 615e 363f
00000320: 0158 913f db8a 623f e59c ca3e 79ff f9be
00000330: 8995 853f 3d3c d33d 20d5 5e3f 0a0d a13d
00000340: aa9e 783e 6ac1 1a3f fe31 d8be cbf8 1e3f
00000350: 2200 473f 07f8 833e e808 a43e 17ac 2c3f
00000360: 1e65 a93e 436d 013f 234b b73f 1bbc 99be
00000370: f85a 013f bc96 a03d 5e51 873f d456 3c3e
00000380: 9168 9cbe 070f 20bf fa81 2b3f 7dfb 593f
00000390: ae41 d53d cbe2 3d3f 8c07 633e 4885 34be
000003a0: 10e7 2b3e bb81 10be 5dc1 5a3f 1890 8ebe
000003b0: 09a5 2b3e 6aa4 873d 7300 973f 64e5 9d3e
000003c0: 76b7 a63e 7c68 c73e ca65 9f3e 17a9 cdbc
000003d0: 9afb cf3e 4c58 97bf b789 da3e e31b b8bb
000003e0: 1ec5 233f 3672 08bc 359a ec3e 4f53 2d3e
000003f0: bc14 95be 7943 2f3f e887 e73e b617 a33f

fc2.bias f4 [128]
0.43293414 0.32819173 -0.026451679 0.35838795 -0.18562773 0.10517479 0.069454886 0.020755177
0.032062516 0.11938789 0.43552822 -0.0394306 0.1879726 0.35584494 0.3180554 0.072781704
0.3649206 0.050013743 0.22032017 0.19430293 0.086458415 0.42256021 0.2538102 0.40662962
0.016247204 0.23030584 0.3303905 0.1518477 0.030450935 0.041435447 0.025749914 -0.20383626
0.120411634 -0.030072633 0.43930295 -0.025374055 0.14843312 0.25070494 0.41923857 0.019225262
0.18981935 0.1685132 0.03536462 0.15119086 -0.0061908057 0.17654578 -0.02120213 0.077293485
-0.21611427 0.20812966 0.016570149 0.26515576 -0.033817757 0.061028086 0.28798193 0.44995332
0.15735331 -0.09626355 0.14905827 0.09128702 0.072342366 0.04979742 -0.003966199 0.20645434
0.07135329 -0.097981 0.10992308 0.26287863 0.20825632 -0.002697237 0.015439049 -0.10363078
0.1512772 0.2265211 0.41306967 -0.0970507 -0.058293417 0.17558976 0.3571456 0.33301368
0.33277333 -0.018182823 0.004991589 0.097680345 -0.37438488 0.26813534 0.2923274 0.3547389
0.38305676 0.026519211 0.18350753 0.062208187 0.36699647 0.43442813 0.035581402 0.15196088
0.076986186 0.04463455 0.061238796 -0.052420516 0.23030996 0.3008944 0.17753181 0.113540135
0.07444464 0.32267165 0.10091806 0.11384616 0.41801876 0.242136 0.054160606 0.07998572
0.05356375 0.3277197 0.42209208 0.116480604 0.08126442 -0.07945558 -0.112585954 0.12678984
0.37797496 0.22095239 -0.0028197125 0.3178327 0.3765519 -0.03020187 0.20103692 -0.071666315
00000000: 8ba9 dd3e bf08 a83e 31b1 d8bc a07e b73e
00000010: 3215 3ebe e165 d73d 5d3e 8e3d c306 aa3c
00000020: fc53 033d a381 f43d 8efd de3e fb81 21bd
00000030: e47b 403e 4f31 b63e 28d8 a23e 930e 953d
00000040: dfd6 ba3e 36db 4c3d 9c9b 613e 59f7 463e
00000050: 1c11 b13d d059 d83e 69f3 813e c231 d03e
00000060: db18 853c 4bd5 6b3e f228 a93e f77d 1b3e
00000070: 3d74 f93c 37b8 293d 7cf1 d23c 74ba 50be
00000080: 609a f63d e25a f6bc 51ec e03e 40dd cfbc
00000090: dafe 173e 665c 803e 70a6 d63e 4c7e 9d3c
000000a0: 0160 423e b98e 2c3e 7eda 103d c7d1 1a3e
000000b0: 3edc cabb 6bc8 343e 17b0 adbc 0c4c 9e3d
000000c0: 0f4d 5dbe f11f 553e 1fbe 873c 7fc2 873e
000000d0: 7d84 0abd 96f8 793d 5e72 933e 4860 e63e
000000e0: 3a21 213e d325 c5bd bba2 183e b0f4 ba3d
000000f0: 3c28 943d 61f8 4b3d e3f6 81bb c468 533e
00000100: ac21 923d 43aa c8bd 5a1f e13d 0798 863e
00000110: 2541 553e 21c4 30bb 11f4 7c3c 603c d4bd
00000120: 69e8 1a3e 26f5 673e de7d d33e 84c2 c6bd
00000130: 14c5 6ebd cdcd 333e cadb b63e c580 aa3e
00000140: 4461 aa3e 25f4 94bc 7c90 a33b a20c c83d
00000150: 60af bfbe 0949 893e f0ab 953e 56a0 b53e
00000160: 0420 c43e d13e d93c 66e9 3b3e 03ce 7e3d
00000170: f6e6 bb3e 5d6d de3e cebd 113d a29b 1b3e
00000180: efaa 9d3d b8d2 363d 88d5 7a3d e5b6 56bd
00000190: 60d6 6b3e d50e 9a3e e6ca 353e bb87 e83d
000001a0: 6e76 983d 3835 a53e 21ae ce3d 2d28 e93d
000001b0: 8e06 d63e 80f2 773e 83d7 5d3d 8ecf a33d
000001c0: aa65 5b3d e0ca a73e 741c d83e 628d ee3d
000001d0: f66d a63d 9bb9 a2bd 7793 e6bd 32d5 013e
000001e0: ef85 c13e 5841 623e edca 38bb f8ba a23e
000001f0: 69cb c03e e969 f7bc 9fdc 4d3e cac5 92bd

fc3.weight f4 [2, 128]
-0.020706076 -0.01078818 1.2743071 -0.26922128 -0.8208815 0.82048243 1.1648468 0.94267327
-0.53753144 0.011782913 -0.37017342 -0.21583992 -0.031117234 0.00806255 0.63882107 -0.90446764
0.010104654 -0.9957272 0.325972 0.36908796 -1.1118432 -0.39858687 0.0759607 -0.1332481
-1.1982874 -1.0305506 0.11077256 -0.7225314 -0.23312666 -0.22033124 -0.93695897 -1.0369824
0.10966461 1.2098132 -0.18087953 0.30787247 -0.89054865 0.09161472 -0.003535564 0.09321344
-0.346069 0.67173177 -1.4127774 1.1030234 1.318877 0.9072511 1.5328274 0.7018609
-2.1825845 -0.12432978 -1.6668494 0.3121586 1.4898031 -0.08568064 0.0067939255 -0.34984124
-0.1641941 0.60439724 0.18936262 0.5547873 0.44371444 -0.18872605 0.44442078 0.066556565
-1.2754133 0.9214978 0.8202008 0.53737015 -0.7976698 -0.55521506 -0.017180165 0.71291816
-0.8510911 -1.769418 0.017918963 0.9666264 0.6078865 -0.9648988 -1.1705153 -0.19486913
-0.16957001 0.56348777 0.85754794 0.50483507 -1.3006197 -0.37169987 -0.028210847 0.02236401
0.0012494446 1.0528214 -0.59785396 -0.9860708 0.1270978 -1.2096256 0.9904702 0.69621724
-0.9462099 0.12338146 0.56892866 1.3210856 -0.0065579624 -0.28055727 -0.643741 0.5628428
0.9311626 -0.9486125 -0.9412897 0.08234155 -0.14390112 -0.67179227 -0.7518829 0.14243811
-1.2545259 -0.11650754 -0.4909468 1.0078024 -0.6395938 -1.3905288 0.5601538 0.81461793
-0.38044485 0.4220983 -1.3020551 0.09103807 -0.089164 -0.25030753 1.2052541 -0.90059566
-0.00110658 0.031030636 -0.3371857 -0.4477724 0.8132312 -0.73294574 -0.25999117 0.49127108
0.9193568 1.1049643 -1.3187039 -2.238207 -0.73734164 -0.06261976 -0.89339924 0.6233301
-0.011371828 0.8366434 -0.96753466 -0.9490753 -0.556161 -0.34276614 -1.9740078 0.7527129
0.7116837 -0.3316382 -0.6387662 0.6477962 -1.1821736 1.3430665 -0.37884915 0.31656283
0.5793586 -0.42612702 -0.34784237 1.1830649 -0.32885855 -0.6745987 -0.08703296 -1.6488638
1.165697 0.11810841 0.19134718 0.8088867 0.12057696 -0.67215705 -1.7173296 1.6409266
0.66615844 -1.3749057 0.31040764 0.9549992 -1.1115578 -0.8301521 -1.4727725 -0.50048757
1.3666735 1.3978046 1.0604596 0.14564973 -0.48428237 0.92302 -0.44132653 1.5210296
-0.09554131 0.58933467 0.62367785 -1.2824924 -0.7243722 -1.0560563 1.7296319 -1.9080317
-0.8359387 0.003962631 -0.080897115 0.26319462 0.8944022 0.24391223 -0.36896253 0.2655052
0.9602164 -0.54625285 0.3913892 0.2604242 1.5790823 0.6392314 -0.08372692 -0.023740597
-0.79207927 0.5000305 0.85738647 -1.0354638 -0.8286456 1.5251594 -0.94975984 -0.32276696
0.48981726 1.1331371 -0.5090788 0.45318922 0.011157085 0.14951405 -0.75761956 0.90810543
-0.3087188 -0.79812646 -0.3409795 -0.60669386 -0.5228892 0.29604116 -1.0181786 1.7192805
0.31203935 0.44638327 -0.46577725 1.667587 -0.6181098 0.1951475 1.2730675 1.110863
1.0946175 -0.04388751 -1.4323314 -1.0121627 0.029981155 -0.612344 -0.38018116 -1.342283
00000000: ca9f a9bc e8c0 30bc 7f1c a33f 5fd7 89be
00000010: 4a25 52bf 230b 523f b319 953f 0953 713f
00000020: a99b 09bf 1e0d 413c 5f87 bdbe 2405 5dbe
00000030: 92e9 febc c918 043c c789 233f 318b 67bf
00000040: fe8d 253c fae7 7ebf cde5 a63e 19f9 bc3e
00000050: e150 8ebf 9413 ccbe 4991 9b3d 3172 08be
00000060: 7b61 99bf 15e9 83bf b9dc e23d d1f7 38bf
00000070: c1b8 6ebe 839e 61be 8bdc 6fbf d7bb 84bf
00000080: d797 e03d 29db 9a3f 7c38 39be 76a1 9d3e
00000090: fffa 63bf 80a0 bb3d ecb4 67bb b0e6 be3d
000000a0: f52f b1be 9df6 2b3f e4d5 b4bf df2f 8d3f
000000b0: f6d0 a83f 9c41 683f b033 c43f 28ad 333f
000000c0: 77af 0bc0 9da0 febd 525b d5bf 41d3 9f3e
000000d0: deb1 be3f 5579 afbd 949f de3b 641e b3be
000000e0: 8022 28be c7b9 1a3f 46e8 413e 8a06 0e3f
000000f0: 8a2e e33e 6741 41be 1f8b e33e cf4e 883d
00000100: be40 a3bf 48e7 6b3f aef8 513f 1791 093f
00000110: 1734 4cbf 9322 0ebf 6bbd 8cbc ce81 363f
00000120: 1be1 59bf 4a7c e2bf caca 923c d474 773f
00000130: 739e 1b3f 9c03 77bf 72d3 95bf c68b 47be
00000140: c3a3 2dbe bc40 103f 4388 5b3f df3c 013f
00000150: b57a a6bf 724f bebe 6f1a e7bc ba34 b73c
00000160: 67c4 a33a dac2 863f f50c 19bf 236f 7cbf
00000170: ed25 023e 03d5 9abf 748f 7d3f 4b3b 323f
00000180: d03a 72bf 6baf fc3d 4fa5 113f 5519 a93f
00000190: 2de4 d6bb 34a5 8fbe 36cc 24bf 7716 103f
000001a0: ac60 6e3f 45d8 72bf 5df8 70bf b0a2 a83d
000001b0: d15a 13be 94fa 2bbf 667b 40bf 4cdb 113e
000001c0: 4e94 a0bf 819b eebd 615d fbbe abff 803f
000001d0: 6bbc 23bf d9fc b1bf 3d66 0f3f cd8a 503f
000001e0: abc9 c2be 451d d83e bea9 a6bf 2b72 ba3d
000001f0: 9d9b b6bd 4f28 80be c445 9a3f 708d 66bf
00000200: aa0a 91ba f633 fe3c 9ba3 acbe 6d42 e5be
00000210: ec2f 503f 55a2 3bbf 901d 85be e287 fb3e
00000220: f85a 6b3f 786f 8d3f 4acb a8bf c93e 0fc0
00000230: 6cc2 3cbf ca3e 80bd d0b5 64bf 9092 1f3f
00000240: e750 3abc 432e 563f 5ab0 77bf 99f6 72bf
00000250: 9160 0ebf 0b7f afbe 4aac fcbf cbb1 403f
00000260: e730 363f 7bcc a9be 2f86 23bf f9d5 253f
00000270: 7751 97bf 9ae9 ab3f 84f8 c1be 8614 a23e
00000280: d850 143f 522d dabe 6518 b2be ac6e 973f
00000290: 2660 a8be 80b2 2cbf 563e b2bd f80d d3bf
000002a0: 8f35 953f d2e2 f13d 84f0 433e 3313 4f3f
000002b0: 0ef1 f63d 7c12 2cbf 75d1 dbbf e209 d23f
000002c0: 5c89 2a3f e9fc afbf c0ed 9e3e d47a 743f
000002d0: 8747 8ebf d984 54bf cf83 bcbf f41f 00bf
000002e0: 28ef ae3f 43eb b23f 24bd 873f 3425 153e
000002f0: dcf3 f7be 0a4b 6c3f 8df5 e1be 19b1 c23f
00000300: 2aab c3bd a3de 163f 5aa9 1f3f b628 a4bf
00000310: 7570 39bf da2c 87bf 9464 dd3f 623a f4bf
00000320: 1400 56bf f5d8 813b 63ad a5bd 72c1 863e
00000330: 8bf7 643f 21c4 793e a8e8 bcbe 4cf0 873e
00000340: bed0 753f 3ad7 0bbf 2a64 c83e 5256 853e
00000350: 5e1f ca3f aba4 233f 0579 abbd a47b c2bc
00000360: b5c5 4abf 0002 003f ae7d 5b3f 148a 84bf
00000370: 1e22 54bf 6c38 c33f 7623 73bf b641 a5be
00000380: 54c9 fa3e a30a 913f fd52 02bf 6b08 e83e
00000390: 35cc 363c 361a 193e 5bf3 41bf 9979 683f
000003a0: 6410 9ebe 0452 4cbf dd94 aebe 4a50 1bbf
000003b0: 11dc 05bf b592 973e ad53 82bf 6211 dc3f
000003c0: 9fc3 9f3e 598c e43e 5b7a eebe 7e73 d53f
000003d0: 723c 1ebf bfd4 473e e0f3 a23f c230 8e3f
000003e0: 6d1c 8c3f 64c3 33bd a356 b7bf 8c8e 81bf
000003f0: 0a9b f53c 94c2 1cbf 1ba7 c2be eecf abbf

fc3.bias f4 [2]
-0.0461982 -0.24130623
00000000: 533a 3dbd fb18 77be

ln1.weight f4 [128]
0.89497274 1.5363543 0.4487572 0.73946553 1.61192 1.3701632 0.7519027 1.6042627
0.483548 1.006597 0.58963794 0.8273118 0.80718875 1.6759163 1.3929238 1.1562872
0.5508802 0.41030973 0.41901034 0.1712878 1.3439989 1.5438448 0.7629903 1.6841037
0.73225194 1.3219677 1.0508655 1.2084203 0.8886299 0.69383544 0.2239321 1.3652456
0.87497956 1.0818357 0.53439784 1.1295465 1.3700776 1.1543722 0.66278857 1.2246244
0.8639417 1.219824 0.59454364 0.80617404 0.7079769 0.926059 0.8970813 0.7826488
2.1456587 0.7862002 0.891154 0.9934662 1.5116065 0.8867386 1.629811 0.68356586
1.4680417 0.7985024 1.156166 1.1163083 0.55325776 0.3215208 0.50635403 1.4154903
0.86798877 0.8760259 0.20037834 1.1369714 0.76505584 1.2935429 0.8153363 0.8900706
1.423612 1.4555937 0.9492591 1.1261685 0.9410535 1.1187079 1.0508752 0.5206269
0.3469794 0.59792846 0.7718356 0.92350554 0.85710657 0.8224659 1.6681471 0.75164443
0.84870505 1.1375155 1.4311124 0.91527987 1.2443497 0.79735494 1.1557682 0.864496
0.49952394 0.94739753 0.9426322 1.2074491 1.3453542 0.58837223 1.544139 0.27682078
1.1447315 0.7213551 0.9192937 0.6189001 0.9934784 0.91681254 1.9609606 1.3826771
0.47806746 0.7089884 0.8224566 0.6936242 0.74727386 1.3012785 1.5101978 0.8546079
0.80386907 1.8223976 0.67770076 1.3104614 1.3914794 0.9679792 0.73995596 0.62211466
00000000: ef1c 653f 42a7 c43f 81c3 e53e 9d4d 3d3f
00000010: 6553 ce3f 8261 af3f b27c 403f 7b58 cd3f
00000020: 9a93 f73e 2cd8 803f 83f2 163f b5ca 533f
00000030: eca3 4e3f 6d84 d63f 544b b23f 3801 943f
00000040: 7c06 0d3f 1e14 d23e 8688 d63e 1266 2f3e
00000050: 2808 ac3f b59c c53f 5553 433f b690 d73f
00000060: dd74 3b3f 3d36 a93f c382 863f 84ad 9a3f
00000070: 407d 633f 339f 313f 754e 653e 5ec0 ae3f
00000080: a9fe 5f3f 9879 8a3f 4cce 083f fb94 903f
00000090: b45e af3f 78c2 933f 83ac 293f 7ec0 9c3f
000000a0: 492b 5d3f 3123 9c3f 0334 183f 6c61 4e3f
000000b0: f93d 353f 3412 6d3f 1fa7 653f ac5b 483f
000000c0: 7952 0940 6b44 493f ab22 643f cd53 7e3f
000000d0: 527c c13f 4d01 633f a69d d03f 2cfe 2e3f
000000e0: cae8 bb3f a76a 4c3f 3ffd 933f 31e3 8e3f
000000f0: 4da2 0d3f 609e a43e 6ba0 013f c92e b53f
00000100: 8334 5e3f 3c43 603f fb2f 4d3e 4788 913f
00000110: b3da 433f d092 a53f e1b9 503f abdb 633f
00000120: eb38 b63f e550 ba3f a502 733f 4a26 903f
00000130: e2e8 703f d231 8f3f 1483 863f ce47 053f
00000140: 49a7 b13e d711 193f 0597 453f dc6a 6c3f
00000150: 566b 5b3f 208d 523f d885 d53f c56b 403f
00000160: bc44 593f 1c9a 913f b12e b73f c84f 6a3f
00000170: da46 9f3f 741f 4c3f 36f0 933f 9c4f 5d3f
00000180: 9ac1 ff3e a588 723f 5850 713f b18d 9a3f
00000190: 9134 ac3f 909f 163f 59a6 c53f 74bb 8d3e
000001a0: 9086 923f baaa 383f d556 6b3f 3d70 1e3f
000001b0: 9a54 7e3f 3ab4 6a3f c200 fb3f 90fb b03f
000001c0: 42c5 f43e 4480 353f 848c 523f 5b91 313f
000001d0: 574d 3f3f 4b90 a63f 294e c13f 95c7 5a3f
000001e0: 5dca 4d3f 5344 e93f cc7d 2d3f 33bd a73f
000001f0: ff1b b23f 7ccd 773f c16d 3d3f e842 1f3f

ln1.bias f4 [128]
-0.54670274 -0.26583067 -0.73681706 -0.3802106 -0.05685372 -0.23227145 -0.6091982 -0.2967784
-0.6813405 -0.36813143 -0.4937304 -0.40830475 -0.5213332 -0.34549448 -0.18173315 -0.16649067
-0.6832104 -0.7267532 -0.7926918 -0.845275 -0.25602722 -0.07310114 -0.57987314 -0.22859554
-0.47349352 -0.40232846 -0.36627403 -0.24802181 -0.5261165 -0.6148469 -0.8513077 -0.2875166
-0.6612961 -0.43617734 -0.63994366 -0.26666322 -0.28587055 -0.21055003 -0.53619343 -0.68587023
-0.5236814 -0.15376835 -0.47139204 -0.66723067 -0.37080464 -0.49410832 -0.35500982 -0.662744
0.0559966 -0.4354112 -0.49467698 -0.37811416 -0.09839268 -0.57859194 -0.3345713 -0.5162145
-0.21197867 -0.61812353 -0.50737894 -0.34465304 -0.44304505 -0.7280726 -0.5895819 -0.3796709
-0.65528464 -0.7647184 -0.89954656 -0.383471 -0.6999867 -0.66945046 -0.4777886 -0.68107206
-0.26661688 -0.1915397 -0.21900287 -0.3067074 -0.20699441 -0.45460328 -0.3841021 -0.6480403
-0.4718308 -0.74313706 -0.560887 -0.46873334 -0.47623095 -0.6087191 -0.4737046 -0.63198096
-0.56242406 -0.3185058 -0.2670653 -0.49233943 -0.54856074 -0.7859068 -0.35348332 -0.48423132
-0.79008204 -0.6206033 -0.33218893 -0.28145757 -0.261234 -0.65494484 -0.15663922 -0.84788394
-0.42248932 -0.6225435 -0.29886824 -0.6858365 -0.38847423 -0.8167807 -0.10709736 -0.28436893
-0.9537098 -0.5679879 -0.4627317 -0.5159418 -0.84151655 -0.7323119 -0.08609583 -0.70014113
-0.4984737 -0.2258197 -0.4921297 -0.1432681 -0.36917993 -0.3920438 -0.40492293 -0.6604573
00000000: b6f4 0bbf f51a 88be 0ba0 3cbf f7aa c2be
00000010: 72df 68bd 91d8 6dbe 6af4 1bbf 57f3 97be
00000020: 556c 2ebf b97b bcbe 3bca fcbe 520d d1be
00000030: 1876 05bf a7e4 b0be 4118 3abe 887c 2abe
00000040: e0e6 2ebf 7f0c 3abf daed 4abf f163 58bf
00000050: 0016 83be 0db6 95bd 9172 14bf f314 6abe
00000060: be6d f2be fffd cdbe 4588 bbbe 6ef9 7dbe
00000070: 92af 06bf 9b66 1dbf 4def 59bf 6035 93be
00000080: b44a 29bf a352 dfbe 59d3 23bf 1588 88be
00000090: a05d 92be 6d9a 57be f943 09bf 3195 2fbf
000000a0: fc0f 06bf 7375 1dbe 4c5a f1be a1cf 2abf
000000b0: 1bda bdbe c4fb fcbe d9c3 b5be 97a9 29bf
000000c0: b15c 653d 38ee debe 4d46 fdbe 2e98 c1be
000000d0: 1a82 c9bd 9a1e 14bf ee4c abbe a226 04bf
000000e0: f010 59be 583d 1ebf 96e3 01bf 5d76 b0be
000000f0: cdd6 e2be f762 3abf d7ee 16bf 3964 c2be
00000100: bcc0 27bf 96c4 43bf af48 66bf 5056 c4be
00000110: 5432 33bf 1b61 2bbf b5a0 f4be bd5a 2ebf
00000120: 0282 88be fc22 44be 4a42 60be c108 9dbe
00000130: 58f6 53be c3c1 e8be 08a9 c4be f8e5 25bf
00000140: ce93 f1be 3b3e 3ebf 4a96 0fbf d1fd efbe
00000150: 8bd4 f3be 04d5 1bbf 6989 f2be 81c9 21bf
00000160: 06fb 0fbf 3113 a3be c8bc 88be ea13 fcbe
00000170: 7a6e 0cbf 3031 49bf c4fb b4be 2bed f7be
00000180: d142 4abf dcdf 1ebf ab14 aabe 351b 90be
00000190: 76c0 85be 77aa 27bf 0866 20be ec0e 59bf
000001a0: 8550 d8be 035f 1fbf 4205 99be fb92 2fbf
000001b0: 18e6 c6be 8a18 51bf dc55 dbbd ce98 91be
000001c0: 5326 74bf a867 11bf 2beb ecbe c314 04bf
000001d0: a16d 57bf cb78 3bbf 0353 b0bd 733c 33bf
000001e0: f237 ffbe 483d 67be 6df8 fbbe dfb4 12be
000001f0: 2705 bdbe f7b9 c8be 0f52 cfbe bb13 29bf

ln2.weight f4 [128]
0.296084 0.24150956 2.1409345 1.013238 2.3039973 1.4493415 2.1773927 1.934572
1.9946673 1.8010803 1.7213049 2.4474015 0.46666068 0.2314467 1.1781971 2.031723
0.18015848 2.0013716 1.4111433 1.6447424 1.8385782 1.0510466 2.3832748 1.1747627
1.8253232 1.7469923 0.9112747 1.8597565 1.571495 1.7613109 2.1392877 1.9304435
0.87004054 2.1063693 0.6797319 1.810007 1.8502661 0.8542149 0.2076902 1.7960519
1.7679125 1.5051948 1.9217646 1.0141253 1.9005461 0.56081355 2.62538 1.0794414
3.0203447 1.3892403 2.777379 1.7765813 2.323704 1.1107478 2.265792 1.2391763
2.3208592 2.0240157 1.9243081 1.3454925 1.5819162 1.93641 1.3016353 0.7647483
2.0357287 1.6631064 1.7527303 1.9426919 2.011014 1.9470563 2.4201505 2.5268383
1.9691124 1.3992645 0.25883138 1.7393425 1.9422185 1.7160497 1.7907052 0.3685208
1.0832096 1.5151263 2.096888 1.1743816 2.9454172 1.3492156 0.27883613 0.19483784
0.61362714 1.3665619 2.0037546 2.4160547 1.1869949 1.1013601 2.1327593 1.698456
1.4848186 2.3048878 1.7838427 1.9460908 0.17173472 0.67227423 1.7896477 1.4087678
2.0517402 1.5240272 1.8610901 1.3409481 1.035752 1.2660882 1.598552 1.765612
1.834112 0.3465229 1.2178999 1.4473528 1.6563959 2.3841035 1.7359596 2.392941
0.7837025 1.075294 2.6591575 1.0476991 0.238619 1.8424938 2.3884385 2.293691
00000000: 5298 973e 484e 773e 1205 0940 c8b1 813f
00000010: b174 1340 0684 b93f 675a 0b40 0ea0 f73f
00000020: 4251 ff3f cd89 e63f b853 dc3f 3aa2 1c40
00000030: 26ee ee3e 5d00 6d3e 2acf 963f c007 0240
00000040: 777b 383e 7916 0040 58a0 b43f eb86 d23f
00000050: 8856 eb3f b288 863f 9387 1840 a05e 963f
00000060: 31a4 e93f 729d df3f 4c49 693f 800c ee3f
00000070: c026 c93f a372 e13f 17ea 0840 c618 f73f
00000080: faba 5e3f c1ce 0640 e902 2e3f 4fae e73f
00000090: 85d5 ec3f d4ad 5a3f bdac 543e 07e5 e53f
000000a0: f54a e23f 39aa c03f 62fc f53f dcce 813f
000000b0: 1845 f33f 7a91 0f3f 3a06 2840 232b 8a3f
000000c0: 544d 4140 a0d2 b13f 94c0 3140 0467 e33f
000000d0: 91b7 1440 fc2c 8e3f bc02 1140 549d 9e3f
000000e0: f588 1440 7989 0140 ba4f f63f 1939 ac3f
000000f0: 3b7c ca3f 48dc f73f fc9b a63f 8bc6 433f
00000100: 6149 0240 ace0 d43f 7759 e03f 21aa f83f
00000110: 74b4 0040 2439 f93f bfe3 1a40 b8b7 2140
00000120: e00b fc3f 191b b33f 8c85 843e c6a2 de3f
00000130: 9e9a f83f 84a7 db3f d435 e53f c2ae bc3e
00000140: 9da6 8a3f a9ef c13f 6a33 0640 2352 963f
00000150: b781 3c40 19b3 ac3f 9cc3 8e3e 9283 473e
00000160: ab16 1d3f 80eb ae3f 843d 0040 a4a0 1a40
00000170: 73ef 973f 5ef9 8c3f 217f 0840 0267 d93f
00000180: 890e be3f 4883 1340 f554 e43f 8119 f93f
00000190: 3adb 2f3e 2a1a 2c3f 2d13 e53f 8152 b43f
000001a0: b64f 0340 5313 c33f 3338 ee3f 30a4 ab3f
000001b0: 8693 843f 2e0f a23f 5a9d cc3f 93ff e13f
000001c0: 2fc4 ea3f 736b b13e 25e4 9b3f db42 b93f
000001d0: c804 d43f 2795 1840 ed33 de3f f225 1940
000001e0: baa0 483f 3ca3 893f a32f 2a40 011b 863f
000001f0: 8a58 743e d6d6 eb3f 2ddc 1840 d5cb 1240

ln2.bias f4 [128]
-0.7427995 -0.84320086 -0.4060347 -0.6440204 -0.20618887 -0.5281849 -0.4603782 -0.017349266
-0.36636594 -0.46598157 -0.3421898 -0.5007537 -0.81138194 -0.8224407 -0.47944963 -0.059940316
-0.81698614 -0.4267226 -0.40182415 -0.34404984 -0.36630976 -0.64892775 -0.6265186 -0.4300324
-0.594759 -0.31451946 -0.4171271 -0.1948101 -0.5801611 -0.32121587 -0.092345364 -0.24313432
-0.39799172 -0.46673667 -0.5991982 -0.42316654 -0.40949574 -0.5542643 -0.62200576 -0.5836879
-0.49833247 -0.4391785 -0.25031057 -0.63430285 -0.3184576 -0.80277276 -0.8355617 -0.7541595
-0.42096582 -0.4317905 -0.19111243 -0.18880439 -0.38193965 -0.6187931 -0.4679694 -0.3876173
-0.29290307 -0.060877405 -0.08945346 -0.2605851 -0.2520553 -0.051236317 -0.5004651 -0.8664699
-0.3084518 -0.61989117 -0.552252 -0.2330786 -0.26017648 -0.18797147 -0.13681775 -0.3946827
-0.41687155 -0.6231846 -0.83747613 -0.47878927 -0.19757558 -0.36236322 -0.29590473 -0.6770987
-0.5893469 -0.2428419 0.0011745808 -0.4918387 -0.26042426 -0.33088568 -0.7734815 -0.82052547
-0.6654573 -0.47685373 -0.4166523 -0.26386616 -0.4231486 -0.7156553 -0.49243262 -0.044550866
-0.59946877 0.005389931 -0.09066576 -0.48138493 -0.6707505 -0.76005954 -0.23427807 -0.5669215
-0.41107216 -0.42829475 -0.17873162 -0.35307115 -0.5509349 -0.52752537 -0.5064712 -0.44489712
-0.4346745 -0.6257944 -0.28241727 -0.6092052 -0.23420544 -0.09565877 -0.4198522 -0.22447735
-0.73885936 -0.18858561 -0.37940618 -0.5933783 -0.8117044 -0.3767107 -0.19119178 -0.5607184
00000000: 1c28 3ebf 03dc 57bf c8e3 cfbe 85de 24bf
00000010: 2d23 53be 2037 07bf b1b6 ebbe 0c20 8ebc
00000020: 5194 bbbe 2395 eebe 8033 afbe 6531 00bf
00000030: bab6 4fbf 798b 52bf 6c7a f5be fa83 75bd
00000040: 0126 51bf 627b dabe e5bb cdbe 4d27 b0be
00000050: f48c bbbe 2120 26bf 8663 20bf 352d dcbe
00000060: 2042 18bf b208 a1be af91 d5be 4d7c 47be
00000070: 7085 14bf 6876 a4be 911f bdbd 34f8 78be
00000080: 92c5 cbbe 1cf8 eebe 0e65 19bf 49a9 d8be
00000090: 6da9 d1be 44e4 0dbf c53b 1fbf 926c 15bf
000000a0: 6f25 ffbe 01dc e0be b528 80be ac61 22bf
000000b0: e00c a3be 8482 4dbf 5fe7 55bf 9910 41bf
000000c0: d588 d7be a513 ddbe fab2 43be f055 41be
000000d0: 988d c3be 3969 1ebf af99 efbe c675 c6be
000000e0: 64f7 95be 965a 79bd 6033 b7bd 696b 85be
000000f0: 640d 81be 2cdd 51bd 7b1e 00bf f9d0 5dbf
00000100: 65ed 9dbe 30b1 1ebf 6360 0dbf 28ac 6ebe
00000110: da35 85be 987b 40be f419 0cbe da13 cabe
00000120: 3070 d5be 0789 1fbf d664 56bf de23 f5be
00000130: 4151 4abe ac87 b9be d380 97be 5756 2dbf
00000140: 70df 16bf 8cab 78be 64f4 993a 48d2 fbbe
00000150: 5456 85be d969 a9be e202 46bf f50d 52bf
00000160: 695b 2abf 2c26 f4be 7353 d5be 7719 87be
00000170: efa6 d8be 3035 37bf 2120 fcbe f87a 36bd
00000180: c976 19bf 059e b03b f8ae b9bd 1678 f6be
00000190: 4eb6 2bbf 4393 42bf 97e6 6fbe c421 11bf
000001a0: 0d78 d2be 7349 dbbe 6c05 37be bec5 b4be
000001b0: 120a 0dbf e70b 07bf 19a8 01bf 8ec9 e3be
000001c0: a88d debe 1034 20bf ff98 90be dff4 1bbf
000001d0: 8dd3 6fbe bfe8 c3bd def6 d6be 64dd 65be
000001e0: e325 3dbf 961c 41be 8741 c2be a4e7 17bf
000001f0: dccb 4fbf 3ae0 c0be c7c7 43be 3e8b 0fbf
