projects/malfunction-prediction-system/saved_weights/model_seq_len_60.pth (torch, 309950 bytes, 20 tensors)

input_projection.weight f4 [64, 38]
0	0xbd52abad	-0.051433254
1	0x3d4bd778	0.049766034
2	0xbdc21b50	-0.09477866
3	0xbd23e973	-0.040017556
4	0x3e3577ea	0.17721525
5	0x3d4c4ed8	0.04987988
6	0xbdddc698	-0.108288944
7	0x3e025d38	0.12730873
8	0x3dd662be	0.10468052
9	0x3daa0c98	0.08303183
10	0x3d374dbf	0.04475188
11	0x3ceac036	0.028656106
12	0xbc800b74	-0.015630461
13	0x3da5eddf	0.08102011
14	0xbd0198fb	-0.031640034
15	0x3da294f8	0.0793857
16	0xbdb62af3	-0.08894911
17	0xbb8ff1e0	-0.0043928474
18	0xbc438ac1	-0.011934937
19	0x3ce77cd0	0.028257757
20	0xbe246605	-0.16054542
21	0xbe0ee7b3	-0.13955574
22	0x3dad90f2	0.08474912
23	0x3d513b3f	0.051081892
24	0xbd2f9c6e	-0.042873792
25	0xbc538139	-0.012909227
26	0xbe5b562b	-0.21419589
27	0xbc51f05a	-0.012813652
28	0xbd359a59	-0.04433665
29	0x3d9c05a4	0.07618263
30	0x3d863dfb	0.065547906
31	0x3d16424f	0.03668433
32	0xbe52d11d	-0.20587583
33	0xbd158afa	-0.03650949
34	0x3d09fe1d	0.033689607
35	0x3dae6b61	0.08516575
36	0x3d11d261	0.035601024
37	0xbd91e197	-0.07123106
38	0xbd5a9b75	-0.05337091
39	0x3c831353	0.016000425
40	0x3e1cc6fb	0.1531028
41	0x3df74ba9	0.12074978
42	0x3e2d0d94	0.16899711
43	0xbd59be31	-0.053159896
44	0x3dc5c7f7	0.09657281
45	0xbce924b7	-0.02845989
46	0x3cf23a3f	0.02956879
47	0x3e40a195	0.18811639
48	0x3c6809fe	0.014162539
49	0x3dce31df	0.10068106
50	0x3d536434	0.051609233
51	0x3d0d7530	0.034535587
52	0xbd8d6168	-0.069033444
53	0xbdf7afa5	-0.120940484
54	0xbcc98b09	-0.02460243
55	0x3e42ef90	0.19036698
56	0x3bdcb873	0.0067358552
57	0xbd764b70	-0.060130537
58	0xbe1e33f4	-0.15449506
59	0x3da40281	0.0800829
60	0xbd9d2a33	-0.076740645
61	0x3d9cde35	0.0765957
62	0xbcd2e9ff	-0.025746344
63	0x3c17a8db	0.009256567
64	0xbe156ffb	-0.14593498
65	0xbd5a6b16	-0.05332478
66	0xbdccac8d	-0.09993849
67	0x3e0917a2	0.13387921
68	0x3d5198e4	0.0511712
69	0xbc20e95f	-0.009821265
70	0xbe3e6a1d	-0.18595167
71	0xbd90f33a	-0.07077642
72	0x3dcbc9e2	0.099506155
73	0x3dd606a4	0.10450485
74	0xbc62d811	-0.01384546
75	0x3bae6346	0.005321893
76	0x3d5f2a71	0.054483835
77	0xbd1e5b14	-0.038661078
78	0xbb32ef4d	-0.002730328
79	0xbddb7cd7	-0.10717171
80	0x3cfbf903	0.030758386
81	0xbdd20127	-0.10254126
82	0xbd4ca68b	-0.049963515
83	0xbe1dd5f7	-0.15413652
84	0xbe7700b2	-0.24121359
85	0x3c2c68db	0.010523046
86	0xbe037b85	-0.12840088
87	0x3c784863	0.015153977
88	0x3d272202	0.040803917
89	0x3d2a1c3e	0.04153084
90	0x3cf4da44	0.029889233
91	0x3e284dc6	0.16435918
92	0x3e16e957	0.1473745
93	0xbd13a55a	-0.036046363
94	0xbb10d13a	-0.0022097365
95	0xbaa020e2	-0.0012216831
96	0x3e07ebf8	0.13273609
97	0x3c9924d8	0.018694326
98	0xbd328e3c	-0.043592677
99	0xbc7444eb	-0.014909009
100	0x3dac51f6	0.0841407
101	0x3d87d0cb	0.06631621
102	0x3ca3dd81	0.020003082
103	0xbd51ad70	-0.051190794
104	0x3d0819d3	0.033227753
105	0xbdffd008	-0.12490851
106	0xbcf54fc2	-0.029945258
107	0xbc978546	-0.018496167
108	0xbda85633	-0.08219566
109	0x3bac77ef	0.0052633206
110	0xbdcc1a5d	-0.09965966
111	0x3d8845d9	0.066539474
112	0xbcda8625	-0.026675293
113	0xbc2ea535	-0.010659506
114	0xbd8110d6	-0.06302039
115	0xbd2c300f	-0.04203802
116	0x3e1560ad	0.1458766
117	0x3cc3b06c	0.023887835
118	0x3e0f0252	0.13965729
119	0x3da6e73b	0.081495725
120	0xbde4863e	-0.11158417
121	0x3e43cd77	0.19121347
122	0x3e25874e	0.16164896
123	0x3e416481	0.18885995
124	0x3dc8c9c5	0.098041095
125	0x38b8e43e	8.816317e-05
126	0x3e439689	0.19100393
127	0x3c3b667f	0.011438011
128	0x3cde7461	0.027155103
129	0xbcf94aea	-0.03043123
130	0x3d43e0c7	0.047821786
131	0x3e513433	0.20430069
132	0x3d8d9fb9	0.0691523
133	0xbd7d703b	-0.06187461
134	0xbdcba0ee	-0.09942804
135	0xbc92afb0	-0.01790604
136	0xbd717c8f	-0.05895668
137	0x3e50c4f7	0.20387636
138	0xbcc90d84	-0.024542578
139	0x3d8a9c4b	0.06768092
140	0xbbd5b43b	-0.0065217293
141	0xbd8c7cd4	-0.068597466
142	0xbddec64a	-0.108776644
143	0x3df0e274	0.117619425
144	0x3d3be1bc	0.045869574
145	0x3d7749ed	0.060373235
146	0xbd91354c	-0.07090244
147	0xbd9791fd	-0.07400892
148	0x3c0801a8	0.008301176
149	0xbe0da972	-0.1383417
150	0x3c332e8a	0.010936389
151	0xbd3917a4	-0.04518856
152	0xbd729990	-0.05922848
153	0x3bdf71ec	0.0068190005
154	0x3dd5cc8a	0.10439403
155	0x3ca642ea	0.020295579
156	0x3c729a92	0.01480736
157	0x3dda233b	0.10651251
158	0xbd9d4b6f	-0.076804034
159	0x3e37aebf	0.17937754
160	0x3e97c2d1	0.2964082
161	0x3e17cb1b	0.14823572
162	0xbe1b12e5	-0.15143926
163	0x3dea05f2	0.11426915
164	0xbc46c120	-0.0121310055
165	0xbda40978	-0.080096185
166	0x3e5a1af5	0.21299346
167	0xbe3e9e7b	-0.18615143
168	0xbc846353	-0.016160643
169	0x3e45494a	0.19266239
170	0x3bf9387b	0.00760561
171	0x3d98f3d2	0.0746838
172	0x3c386f1e	0.011256961
173	0xbc0584da	-0.00814935
174	0xbd169023	-0.036758553
175	0x3e927817	0.28607246
176	0xbd9aec45	-0.07564596
177	0x3d2cf510	0.042225897
178	0x3c944054	0.01809708
179	0xbd279f4c	-0.0409234
180	0xbd47565c	-0.048666343
181	0xbd6081a2	-0.054811127
182	0x3d1f7f69	0.038939867
183	0x3d6c4aaa	0.057688393
184	0x3d3b50df	0.04573142
185	0xbd61ae81	-0.05509806
186	0x3d8a4ba5	0.06752709
187	0xbd44d56f	-0.04805511
188	0xbc5116bf	-0.012761771
189	0x3dbfc9ab	0.09364637
190	0x3d0be143	0.034150373
191	0xbd49db1c	-0.049281225
192	0xba6c6dd8	-0.00090190535
193	0x3d1eb7bc	0.03874944
194	0x3e4305b0	0.19045138
195	0x3d8d9284	0.06912711
196	0xbe5eae95	-0.21746285
197	0x3d615dc0	0.055021048
198	0x3ea59b23	0.32344922
199	0x3e0c4007	0.136963
200	0xbde05802	-0.10954286
201	0x3cd88399	0.026429938
202	0x3dda2d3b	0.10653158
203	0x3e2f107f	0.17096137
204	0xbccba8e6	-0.02486081
205	0xbcf9e786	-0.030505907
206	0xbdecaf5f	-0.11556887
207	0x3e818b71	0.25301698
208	0x3dd7707f	0.10519504
209	0xbd59154d	-0.05299883
210	0xbe0fd3e3	-0.14045672
211	0xbc14f227	-0.009090937
212	0xba873af7	-0.0010317256
213	0xbca1f724	-0.019771166
214	0x3cc30f13	0.023810899
215	0xba805b64	-0.0009792862
216	0xbd77d28b	-0.060503524
217	0xbbe879d0	-0.0070945993
218	0x3da6fce4	0.08153704
219	0x3d82b002	0.06381227
220	0xbbdf37f3	-0.0068120896
221	0xbc77fa96	-0.015135428
222	0xbd002175	-0.031281907
223	0x3dc427d5	0.0957791
224	0x3d809115	0.06277672
225	0x3daa2d3a	0.083094075
226	0x3d912c8c	0.07088575
227	0x3bef9ace	0.0073121553
228	0xbdae830b	-0.08521088
229	0x3ddb63e5	0.10712413
230	0xbd9834d8	-0.07431954
231	0x3a95cb0c	0.001142831
232	0xbde835cf	-0.11338388
233	0xbd39f977	-0.045403924
234	0xbd4f6737	-0.050635543
235	0xbd4936e8	-0.04912463
236	0xbd07bcf7	-0.033139195
237	0xbe3fdba2	-0.18736127
238	0x3dc69b2e	0.09697567
239	0xbdd34e72	-0.10317697
240	0xbc2912a9	-0.01031939
241	0x3e059004	0.13043219
242	0xbdc2677a	-0.09492393
243	0x3cb2858d	0.021792198
244	0xbd4b43e1	-0.04962528
245	0x3dee8f13	0.11648383
246	0xbdab443f	-0.08362626
247	0xbc18888a	-0.009309897
248	0xbd00f3df	-0.031482574
249	0x3d3ffa57	0.046869602
250	0x3e32b5c5	0.17452152
251	0x3dc45180	0.095858574
252	0xbc76eff8	-0.015071861
253	0xbd8b5ca2	-0.06804778
254	0xbd2644a3	-0.0405928
255	0xbe143b42	-0.1447573

input_projection.bias f4 [64]
0	0xbb9fdc34	-0.004878545
1	0x3c5e4ad4	0.013567645
2	0x3d9343e4	0.071906835
3	0xbe65075e	-0.22366092
4	0x3d834e3e	0.06411408
5	0xbe0a2ca3	-0.1349359
6	0x3e48ffb0	0.19628787
7	0x3e87de31	0.26536706
8	0x3b864676	0.004097755
9	0x3d9274b2	0.07151164
10	0xbdc122e7	-0.09430485
11	0x3ddbb73c	0.107283086
12	0xbe46577a	-0.19369307
13	0x3e04a1e1	0.12952377
14	0x3ded89d4	0.11598554
15	0x3e23c176	0.15991768
16	0xbe87dec1	-0.26537135
17	0x3cf691d4	0.030098833
18	0x3e3281de	0.17432353
19	0xbe195261	-0.14972831
20	0x3e0a5d93	0.13512258
21	0x3e261eba	0.16222659
22	0xbb81020f	-0.003937013
23	0xbe4f0a0e	-0.2021868
24	0x3e6c6ade	0.23087642
25	0x3e4765bb	0.19472401
26	0x3db8178d	0.08988867
27	0x3e041f43	0.1290255
28	0x3dde5d79	0.10857672
29	0xbdd4f664	-0.10398558
30	0x3dfbbd52	0.12291969
31	0x3db82042	0.08990528
32	0xbdaba810	-0.08381665
33	0xbe7f9725	-0.24960001
34	0x3d86b5ea	0.06577666
35	0xbd3c8e1d	-0.046033967
36	0x3ddc01f8	0.10742563
37	0x3dd23834	0.10264626
38	0x3e5be3c9	0.21473612
39	0x3e4a7012	0.19769314
40	0xbdb3b84d	-0.08775387
41	0xbd9c63a4	-0.076361924
42	0x3e1435bf	0.14473628
43	0xbe371fd3	-0.17883234
44	0x3e2ffe53	0.1718686
45	0x3e19d53e	0.15022752
46	0x3e4f6309	0.20252623
47	0xbda3a51d	-0.07990477
48	0xbea03f90	-0.31298494
49	0x3e11aee2	0.14226869
50	0xbcd530f9	-0.026024329
51	0x3d061387	0.032733466
52	0xbe071798	-0.13192594
53	0x3e06405f	0.13110493
54	0xbc149b6f	-0.009070261
55	0xbe6911e7	-0.22760735
56	0x3cf70160	0.030152023
57	0xbd8c8928	-0.06862098
58	0xbe1e9925	-0.15488108
59	0xbe480606	-0.19533548
60	0xbd5fba7c	-0.054621205
61	0x3dc78e83	0.09743979
62	0xbe1574a5	-0.14595278
63	0xbd9d17ce	-0.07670556

transformer_encoder.layers.0.self_attn.in_proj_weight f4 [192, 64]
0	0xbbcd1ca8	-0.0062595196
1	0x3d58dc16	0.052944265
2	0x3da4b4bb	0.08042284
3	0xbc8f3fd6	-0.017486494
4	0x3e499601	0.19686128
5	0x3d8b4352	0.0679995
6	0x3d494106	0.049134277
7	0x3dcbeca0	0.09957242
8	0xbd59734b	-0.053088468
9	0x3e4432fc	0.19160074
10	0x3e35bf86	0.17748842
11	0xbd7c8237	-0.06164762
12	0x3d2d8abc	0.042368636
13	0xbe347a6e	-0.17624828
14	0x3de1cc1c	0.11025259
15	0xbdd5eed9	-0.10445947
16	0x3e07769e	0.13228843
17	0x3b2112c1	0.0024577829
18	0xbe4f462c	-0.20241612
19	0xbd10acd7	-0.035321083
20	0x3b60a4cd	0.0034277916
21	0x3e100737	0.14065252
22	0xbd81749f	-0.06321072
23	0x3c184cca	0.009295652
24	0x3de85ac2	0.11345436
25	0x3dcef066	0.10104446
26	0x3c93b6c6	0.01803149
27	0xbd0d4e7b	-0.034498673
28	0xbd0019c2	-0.031274565
29	0x3e2b5208	0.16730511
30	0x3d77374c	0.06035547
31	0x3b86395d	0.0040961937
32	0x3d3d8744	0.046271577
33	0x3e842dad	0.25816098
34	0x3d809d83	0.06280043
35	0x3d6aebb3	0.057353687
36	0x3e0e11eb	0.13874023
37	0x3cab3d2d	0.020903194
38	0xbd4215dc	-0.047384128
39	0xbd4cfefc	-0.05004786
40	0x3e074bc0	0.1321249
41	0x3dbd8a5e	0.09254907
42	0xbe58c53a	-0.21168986
43	0x3ad5b4bc	0.0016304473
44	0xbe36c489	-0.1784841
45	0x3d992464	0.07477644
46	0xbe17d77f	-0.14828299
47	0x3e52d50d	0.20589085
48	0x3c975822	0.018474642
49	0xbdd773b7	-0.10520118
50	0x3e68f6b6	0.22750363
51	0xbdce274e	-0.100660905
52	0x3e122d8c	0.14275187
53	0x3d71fe33	0.059080314
54	0xbd5b6aa6	-0.053568505
55	0x3ddd790a	0.10814102
56	0xbe00b788	-0.12570012
57	0x3e5f4d19	0.21806754
58	0x3dc67751	0.096907265
59	0x3de9e46c	0.11420521
60	0x3d45baf8	0.04827401
61	0x3e271c81	0.16319467
62	0xbd10045d	-0.03516041
63	0xbc8f2e8b	-0.017478248
64	0x3e22545c	0.15852493
65	0x3d159eca	0.036528386
66	0xbe3ef71a	-0.1864895
67	0x3d2ff0a8	0.042954117
68	0xbda7ac4d	-0.08187161
69	0x3e13140a	0.14363113
70	0x3c07bfd4	0.0082854815
71	0x3d2080a4	0.03918518
72	0x3d48cdb5	0.049024303
73	0x3dc7aab1	0.09749354
74	0xbcb2b965	-0.021816919
75	0xbd0c0253	-0.034181904
76	0xbd679139	-0.05653498
77	0xbe19c01a	-0.15014687
78	0xbe35a2c7	-0.17737876
79	0x3e16af60	0.14715338
80	0x3c6cc8b2	0.014452146
81	0x3d03d264	0.032183066
82	0x3d6e828f	0.05822998
83	0x3ccc8a74	0.024968363
84	0x3bb3e7a8	0.005490262
85	0xbd167f7a	-0.036742665
86	0xbbfb46d5	-0.007668356
87	0xbdcb3d1c	-0.09923765
88	0x3c986e54	0.018607296
89	0x3d872811	0.06599439
90	0xbdc4c306	-0.0960751
91	0xbd9ace2d	-0.07558856
92	0x3df70cd9	0.12062997
93	0xbdc6b3c0	-0.09702253
94	0xbd1da22d	-0.03848474
95	0xbdd49ab0	-0.10381067
96	0xbc30e7d6	-0.0107974615
97	0x3e1556c1	0.14583875
98	0xbc8c7b0c	-0.017148517
99	0x3d4ab73f	0.049491163
100	0xbc856d1a	-0.016287375
101	0x3a2c51c2	0.0006573462
102	0x3dc8a024	0.097961694
103	0x3d7b249e	0.061314218
104	0x3dd67aca	0.10472639
105	0xbcf32245	-0.029679427
106	0xbe0474ac	-0.12935132
107	0xbde01b39	-0.10942692
108	0x3d8f7faa	0.07006772
109	0xbe233a70	-0.15940261
110	0xbdd46cf5	-0.103723444
111	0xbdc04b0e	-0.093893155
112	0xbd29e9d5	-0.041482765
113	0xbd9ffad4	-0.078115135
114	0x3e1332bc	0.14374822
115	0xbe0b3a7f	-0.13596533
116	0x3c6f3a33	0.014601278
117	0x3d72dfea	0.059295572
118	0x3ce94692	0.028476033
119	0xbb8bdc5b	-0.004268212
120	0x3c1ec5ed	0.009690744
121	0x3dad95b4	0.08475819
122	0x3dc76558	0.09736127
123	0x3e0e63b1	0.13905217
124	0xbde1fb27	-0.11034232
125	0x3db540bf	0.0885024
126	0xbdc5622c	-0.096378654
127	0xbcb442f3	-0.02200458
128	0xbd8a9bf4	-0.06768027
129	0xbd0ccbde	-0.03437411
130	0x3dc2c40a	0.09510048
131	0xbd22ce37	-0.039747443
132	0x3da325a9	0.079661675
133	0xbdfe150f	-0.1240636
134	0x3ae9501c	0.0017800364
135	0x3b88bc54	0.004172841
136	0xbd23757c	-0.039906964
137	0xbdee20fb	-0.11627384
138	0x3d402099	0.046906088
139	0xbe25afb5	-0.16180308
140	0x3d8389d8	0.06422776
141	0xbe312609	-0.17299666
142	0xbc82e518	-0.015978381
143	0xbc0128c5	-0.007883255
144	0x3c7dc8a0	0.015489727
145	0x3d517087	0.051132705
146	0xbdddfccd	-0.108392335
147	0x3d553d13	0.052060198
148	0xbe23ed27	-0.16008435
149	0x3d10fbc3	0.03539635
150	0xbdc43efb	-0.09582325
151	0x3de204d1	0.11036075
152	0xbd1f1394	-0.03883703
153	0x3cd29359	0.025705026
154	0xbdca25cc	-0.098704904
155	0xbd0fcb09	-0.03510574
156	0xbddeb0f4	-0.10873595
157	0xbd6f4694	-0.058416918
158	0x3d880f6e	0.06643568
159	0xbda501dc	-0.08056995
160	0xbde8817e	-0.11352824
161	0x3e0714b5	0.13191493
162	0x3e3f70a7	0.18695317
163	0xbcf1fbb9	-0.029538976
164	0x3e3011c0	0.17194271
165	0xbd859448	-0.06522423
166	0xbc8d64a7	-0.017259909
167	0x3dc33669	0.09531862
168	0xbd69532d	-0.05696409
169	0xbdcd9e92	-0.100400105
170	0xbddf2ed6	-0.10897605
171	0x3d6dc182	0.05804587
172	0x3e09cbd6	0.13456663
173	0xbc193af0	-0.009352431
174	0xbdbe6a2c	-0.092975944
175	0xbd06d71e	-0.032919995
176	0x3d897a8c	0.06712827
177	0x3dade2e1	0.08490539
178	0x3e2aca60	0.16678762
179	0xbdea936a	-0.11453898
180	0x3db0249e	0.08600734
181	0xbcd6c172	-0.026215289
182	0xbdcdbeec	-0.10046181
183	0x3de11cfa	0.10991855
184	0x3d313db4	0.043271735
185	0x3e21c2ca	0.15796962
186	0x3e01042b	0.12599246
187	0xbdea85a5	-0.11451272
188	0xbe247efc	-0.16064066
189	0xbda1c3f8	-0.07898706
190	0x3e3d9b30	0.1851623
191	0x3c45842a	0.012055436
192	0x3de54bf3	0.11196127
193	0x3de505ad	0.11182723
194	0xbe4393ef	-0.19099401
195	0x3dbda4ac	0.09259924
196	0x3e277c60	0.16356039
197	0x3dfdb3d4	0.12387815
198	0xbe06bd37	-0.13158117
199	0xbd0f4a44	-0.034982935
200	0x3e1caea0	0.15300989
201	0x3e3fba5e	0.18723437
202	0xbdd508ca	-0.10402067
203	0xbd20ba2d	-0.03924005
204	0x3db3f619	0.08787174
205	0xbbe22832	-0.0069017643
206	0x3e22d2cb	0.15900724
207	0xbdd27f98	-0.10278243
208	0xbc8d8959	-0.017277407
209	0x3e71cddb	0.23613684
210	0x3e00a293	0.12562017
211	0x3ca1dc88	0.019758478
212	0x3dfff11c	0.1249716
213	0xbde21d75	-0.11040775
214	0x3da07a71	0.07835854
215	0xbe182ec5	-0.14861591
216	0x3c43acc8	0.01194305
217	0xbe182743	-0.14858727
218	0xbda03295	-0.07822148
219	0xbdf9ba19	-0.121936984
220	0x3de951e3	0.11392572
221	0x3db682ea	0.089116886
222	0x3cc6b383	0.02425552
223	0xbcd6438e	-0.02615526
224	0x3d14a1ec	0.036287233
225	0x3e2ff74d	0.17184182
226	0x3e37bc52	0.17942932
227	0x3dbd1bd0	0.092338204
228	0x3ca2c74d	0.019870425
229	0x3cb570ee	0.022148576
230	0xbd997fac	-0.074950546
231	0x3dba014b	0.09082278
232	0xbd792826	-0.060829304
233	0x3c849abf	0.01618707
234	0xbcaf6586	-0.021410715
235	0x3e728838	0.23684776
236	0x3daaf72e	0.08347927
237	0xbc4ddb5e	-0.012564508
238	0xbdd5d7b8	-0.10441536
239	0x3d813815	0.06309525
240	0xbd107bb8	-0.035274237
241	0x3e345aee	0.17612812
242	0xbcfee9f0	-0.03111741
243	0x3e3f3230	0.18671489
244	0xbb0d75f9	-0.002158521
245	0x3cf7c890	0.030247003
246	0x3e6080c6	0.21924123
247	0x3e136b9c	0.14396518
248	0x3bb456c3	0.005503507
249	0x3e4336c6	0.19063863
250	0x3e520812	0.20510891
251	0x3e1f52b4	0.15558892
252	0x3db818bd	0.089890935
253	0xbd6759e0	-0.056482196
254	0xbe1bab63	-0.15202098
255	0x3cb19f41	0.021682383

transformer_encoder.layers.0.self_attn.in_proj_bias f4 [192]
0	0x3dc9d4a6	0.098550126
1	0x3cba1db9	0.022719251
2	0x3c9ccf9d	0.019141966
3	0x3dc87f80	0.09789944
4	0xbd34b295	-0.04411562
5	0x3cd2f947	0.02575363
6	0xbd5bb65e	-0.053640716
7	0x3b3154c6	0.0027058586
8	0xbcc44f2a	-0.02396353
9	0xbdb734fd	-0.089456536
10	0xb9a63c99	-0.00031707136
11	0xbd3d76ea	-0.046255983
12	0x3c612ea8	0.013744034
13	0xbcf57b32	-0.02996597
14	0x3d69f476	0.0571179
15	0x3dbb0cf5	0.09133331
16	0xbc84e887	-0.016224159
17	0x3d84223f	0.064518444
18	0xbd7c7e56	-0.06164392
19	0x3da16e19	0.078823276
20	0x3d8196a8	0.063275635
21	0x3d277444	0.040882364
22	0x3c91ec28	0.017812803
23	0x3b827600	0.003981352
24	0x3cc7e981	0.024403336
25	0xbc033a55	-0.008009513
26	0x3cb671d8	0.022271082
27	0xbddaa2ef	-0.10675608
28	0x3d9b1109	0.075716086
29	0xbc4b761f	-0.012418299
30	0x3cad437a	0.02115034
31	0x3cba56d6	0.022746485
32	0x3b826884	0.0039797444
33	0xbd2d2fc3	-0.042281877
34	0x3d14ce9c	0.03632985
35	0xbcd5d35c	-0.02610176
36	0x3ce94956	0.028477352
37	0xbb2124fd	-0.0024588697
38	0xbcbcb682	-0.023036245
39	0xba4f6a2b	-0.00079122436
40	0x3d520065	0.051269908
41	0x3d353e22	0.044248708
42	0x3c30b016	0.01078417
43	0xbd8b18b9	-0.06791825
44	0x3d164e98	0.036696047
45	0xbd06f65b	-0.032949787
46	0x3bbdf249	0.005796705
47	0xbd30f1ff	-0.043199535
48	0x3c3171d9	0.010830366
49	0xbda427d5	-0.0801541
50	0x3c7cb278	0.01542341
51	0x3c750824	0.014955554
52	0xbdd086a7	-0.10181933
53	0x3bc81441	0.00610593
54	0xbc38c72d	-0.011277956
55	0x3d860e73	0.06545725
56	0x3d04b801	0.032402042
57	0xbcdeb179	-0.027184235
58	0xbdc88105	-0.097902335
59	0xbd6548a3	-0.055977475
60	0x3d0a984c	0.033836648
61	0xbd9a6fce	-0.07540856
62	0xbc01629d	-0.007897046
63	0x3d9ee6e8	0.077588856
64	0x3e21f1f2	0.15814951
65	0x3d4baed4	0.049727276
66	0x3d8db900	0.069200516
67	0x3cf94518	0.030428454
68	0xbe18044a	-0.14845386
69	0x3e07e702	0.13271716
70	0x3d267d43	0.040646803
71	0xbdb119db	-0.0864751
72	0xbdc24ab7	-0.09486907
73	0x3c62ba28	0.013838328
74	0xbd4dbb02	-0.050227173
75	0x3d78bef2	0.060728975
76	0x3d4fe392	0.050754137
77	0xbcf9e2f2	-0.030503724
78	0xbd047f2a	-0.032347836
79	0xba8b715b	-0.0010638641
80	0x3e42b1b2	0.19013098
81	0xbe45b118	-0.19305837
82	0x3d45d9b6	0.04830333
83	0x3ddb8751	0.10719169
84	0x3d9d4fb6	0.07681219
85	0xbdc5c434	-0.096565634
86	0xbe0b1f35	-0.13586123
87	0xbdfd2876	-0.12361233
88	0xbdf9b7ba	-0.12193246
89	0x3e4a6f29	0.19768967
90	0xbca896b5	-0.020579675
91	0x3d144ac8	0.03620413
92	0x3e4f258a	0.20229164
93	0xbe4a19ab	-0.19736354
94	0xbd80a075	-0.06280605
95	0x3e06e122	0.13171819
96	0x3da61336	0.08109133
97	0xbde9c530	-0.11414564
98	0x3e1c0462	0.15236047
99	0xbce84b32	-0.028356168
100	0x3e05499a	0.13016358
101	0x3d3e556a	0.046468176
102	0xbe31d060	-0.17364645
103	0x3ba946f3	0.0051659285
104	0x3db5040b	0.08838662
105	0x3d3b666a	0.045751967
106	0x3dc0bc0b	0.09410866
107	0xbd890aa8	-0.06691486
108	0xbc91fbba	-0.017820228
109	0xbdf47cf9	-0.11937899
110	0xbdbc6473	-0.09198847
111	0xbdeab4a8	-0.11460239
112	0x3baa9a42	0.0052063772
113	0xba307fad	-0.00067328924
114	0xbd8bfbf7	-0.06835168
115	0x3df98b2e	0.121847495
116	0xbe679007	-0.22613536
117	0x3e0879c6	0.13327703
118	0x3e0b961f	0.13631485
119	0x3d3f5080	0.04670763
120	0x3d8f3651	0.06992782
121	0xbc51a0b3	-0.012794661
122	0xbe747b6c	-0.23875207
123	0x3dea8372	0.114508525
124	0xbe1a5cc3	-0.15074448
125	0xbe554fe1	-0.20831253
126	0x3d4cea3f	0.050028082
127	0xbd389c76	-0.045071088
128	0x3ba0b61f	0.004904523
129	0x3c659c46	0.014014309
130	0x3d2f5291	0.04280335
131	0x3d094bbe	0.0335195
132	0x3d7c60b8	0.061615676
133	0x3cb75582	0.02237964
134	0xbcbbd983	-0.022930866
135	0xbd7e56d3	-0.06209452
136	0x3d2f9e1e	0.0428754
137	0xbbc3b268	-0.0059721954
138	0xbd8b3612	-0.067974225
139	0xbcaa85dd	-0.020815784
140	0xbcd6f470	-0.026239604
141	0xbc982697	-0.018573089
142	0x3a547e1f	0.0008105952
143	0x3c2feecf	0.010738089
144	0xbcc86213	-0.024460828
145	0xbd8ab6ac	-0.06773123
146	0x3d1be7fb	0.03806303
147	0x3d16844f	0.036747273
148	0x3d01ac98	0.03165874
149	0xbc33a8ad	-0.010965508
150	0x3c9873c4	0.018609889
151	0x3c016f9b	0.007900144
152	0x3d212bbd	0.039348353
153	0xbb0e2185	-0.002168746
154	0xbd5582c0	-0.052126646
155	0xbb29f2e9	-0.002593214
156	0xbca3e3c4	-0.020006068
157	0x3c54330e	0.0129516255
158	0xbc93488e	-0.017978933
159	0xbc28febb	-0.010314639
160	0xbc233cf7	-0.009963266
161	0x3d28a856	0.041176163
162	0x3c626a3d	0.0138192745
163	0xbcef3261	-0.029198827
164	0xbc42285e	-0.011850445
165	0xbca8eea9	-0.020621615
166	0x3b85e139	0.0040856865
167	0xbd42e0a8	-0.04757753
168	0x3d6d9055	0.057998974
169	0x3ca36486	0.019945394
170	0x3b9fc683	0.0048759594
171	0xbbe99021	-0.007127777
172	0x3b3f8aef	0.0029227098
173	0x3d106845	0.03525569
174	0x3b3cb790	0.0028795935
175	0xbc2da868	-0.010599233
176	0xbc8c8ecd	-0.017157936
177	0x3c3ea341	0.011635602
178	0x3c2ac4b8	0.010422878
179	0xbc97bde9	-0.018523173
180	0x3c46734c	0.01211245
181	0xbd2ab263	-0.04167403
182	0xbc84af3e	-0.016196843
183	0xbd26e6f6	-0.040747605
184	0xbb7705ce	-0.003769267
185	0x3c774191	0.015091316
186	0x3bbbe5af	0.0057341675
187	0x3be18b21	0.0068830405
188	0x3ccece4b	0.025244853
189	0xbd0ce336	-0.034396373
190	0xbcbb2f70	-0.022849768
191	0xbd65a0c3	-0.056061517

transformer_encoder.layers.0.self_attn.out_proj.weight f4 [64, 64]
0	0x3d96d89c	0.07365534
1	0x3cdb0a21	0.026738228
2	0x3de6808b	0.112549864
3	0x3d52b3a5	0.051440854
4	0xbae3c5a8	-0.0017377632
5	0x3d04d2d1	0.032427613
6	0xbddcce9d	-0.10781596
7	0xbdfe9852	-0.124313965
8	0x3d20e7d3	0.039283585
9	0xbcba49a5	-0.022740195
10	0xbd9f2e82	-0.077725425
11	0xbd5d4d6a	-0.054028906
12	0x3dc26106	0.09491162
13	0xbca5b66b	-0.020228585
14	0xbc561165	-0.013065671
15	0x3cec7ee6	0.028869104
16	0xbb83ee4a	-0.004026209
17	0xbe30f0a0	-0.17279291
18	0xbdd2b645	-0.102886714
19	0x3dd31978	0.10307592
20	0xbd90af09	-0.07064635
21	0xbb9040aa	-0.00440224
22	0x3d558730	0.052130878
23	0x3db45d59	0.08806867
24	0xbd9cd8bb	-0.076585256
25	0x3cf12fa4	0.029441662
26	0xbc4c15ce	-0.0124563705
27	0xbd8c721e	-0.068577036
28	0xbe046bc3	-0.12931733
29	0x3bac738c	0.0052627977
30	0xbdcd8e23	-0.10036876
31	0x3d3b719e	0.04576265
32	0xbd6fb7a2	-0.058524735
33	0xbcaebecc	-0.021331213
34	0x3caba6a9	0.020953493
35	0x3cd442f5	0.025910834
36	0xbdb22490	-0.0869838
37	0x3d2009f4	0.039071992
38	0xbd829e24	-0.06377819
39	0x3dcc6392	0.09979929
40	0x3ce76ba8	0.028249577
41	0x3d541b61	0.051783923
42	0x3d2857fa	0.041099526
43	0xbd0a8eb6	-0.033827506
44	0xbceb082f	-0.028690426
45	0x3c95c33a	0.018281568
46	0x3d72ae80	0.059248447
47	0xbdb69c70	-0.08916557
48	0xbe135594	-0.14388114
49	0x3e0b3d7f	0.13597678
50	0xbdd7fb7d	-0.105460145
51	0xbd2e25c4	-0.042516485
52	0x3dc109de	0.0942571
53	0x3c6ded0a	0.014521847
54	0xbe3a16df	-0.18172787
55	0xbd872971	-0.06599701
56	0x3d968955	0.07350413
57	0x3e32d492	0.17463902
58	0x3dba8c82	0.09108831
59	0xbc65e7d2	-0.014032321
60	0x3dc01b7d	0.09380243
61	0xbde5a445	-0.112129726
62	0x3b3ed140	0.0029116422
63	0x3d4c0974	0.049813703
64	0x3cbb14cb	0.022837063
65	0xbb81518b	-0.0039464883
66	0x3dcf98e8	0.101365864
67	0xbd134989	-0.0359588
68	0xbddd5b55	-0.10808436
69	0xbc561b7f	-0.013068079
70	0xbd141ca9	-0.036160145
71	0xbd959be2	-0.07305123
72	0x3d243209	0.04008678
73	0x3ca22aa2	0.01979572
74	0xbd83f4ae	-0.06443153
75	0xbe03900e	-0.12847921
76	0x3d697fd9	0.05700669
77	0xbcec96f3	-0.028880572
78	0xbdf8ce64	-0.12148741
79	0x3b1f033c	0.0024263402
80	0xbce58b9b	-0.02802067
81	0x3e00822a	0.12549654
82	0x3d69ea94	0.057108477
83	0xbd0864d7	-0.033299293
84	0x3d36fea6	0.044676445
85	0x3c923286	0.017846357
86	0x3d0acf91	0.033889357
87	0x3e3485ea	0.17629209
88	0x3d7f6345	0.06235053
89	0xbc147c21	-0.009062798
90	0x3ce279c0	0.027645946
91	0x3e052dbc	0.13005728
92	0x3cbe42fd	0.023225302
93	0x3d67ff8b	0.05664019
94	0x3dd6501f	0.10464501
95	0xbd6698cb	-0.05629806
96	0xbdbb2b21	-0.091390856
97	0xbdb47a6c	-0.088124126
98	0xbc2a8290	-0.010407105
99	0xbc3f9aca	-0.011694619
100	0x3dff17cd	0.124557115
101	0x3da95560	0.08268237
102	0xbd483dc8	-0.048887044
103	0xbd292b7d	-0.04130124
104	0x3ce7fee9	0.028319793
105	0xbd8ae02c	-0.06781039
106	0x3cebf344	0.028802522
107	0x3c828500	0.01593256
108	0xbdf412aa	-0.119176224
109	0x3bd9618b	0.0066339425
110	0xbcbd7462	-0.023126785
111	0xbd2d0198	-0.042237848
112	0xbc2cc26a	-0.010544399
113	0x3d810f33	0.06301727
114	0x3e00f63a	0.12593928
115	0xbdd32769	-0.10310251
116	0x3dd3b7b2	0.103377715
117	0x3df41047	0.11917167
118	0x3dfeae62	0.12435605
119	0x3d2b53ee	0.04182809
120	0x3caf032d	0.021363819
121	0xbd1125a9	-0.035436306
122	0xbd642535	-0.055699546
123	0x3df12588	0.11774737
124	0x3c5b6b61	0.0133923
125	0x3d915ae1	0.07097412
126	0x3d9571aa	0.0729707
127	0xbd720cbd	-0.05909418
128	0xbd583a8a	-0.052790202
129	0x3d1e3318	0.038622946
130	0x3d45f16e	0.04832595
131	0x3dbee796	0.09321515
132	0xbdc0f533	-0.09421768
133	0xbe081da3	-0.13292556
134	0xbdab2584	-0.08356765
135	0x3de145f5	0.10999671
136	0xbe05ee30	-0.13079143
137	0x3de33376	0.110938
138	0x3d826264	0.06366423
139	0xbd496c74	-0.049175695
140	0x3da45915	0.080248035
141	0xbbb394cb	-0.005480384
142	0x3e0bf061	0.13665916
143	0xbe196dab	-0.14983241
144	0xbdef2a9f	-0.11678051
145	0x3d3699f2	0.044580407
146	0x3d744143	0.05963255
147	0xbd431863	-0.04763068
148	0xbd34ff79	-0.04418895
149	0x3c39cb1c	0.011339929
150	0xbd3e4d4a	-0.046460427
151	0xbda66146	-0.08124022
152	0x3b00be84	0.0019644806
153	0xbe3f9baf	-0.18711732
154	0xbd0463b7	-0.032321658
155	0x3ded97b2	0.11601199
156	0x3e4d584b	0.20053212
157	0xbd436d57	-0.047711696
158	0x3e140fa6	0.14459094
159	0x3ccab76d	0.024745667
160	0x3d0d49c8	0.03449419
161	0x3d8c01cf	0.068362825
162	0x3ded87f8	0.115981996
163	0x3bf8c373	0.0075916587
164	0xbc4ac9a8	-0.01237718
165	0xbe0e5b3c	-0.1390199
166	0x3dcccce8	0.1000002
167	0x3bc8b49a	0.006125045
168	0xbd44e773	-0.04807229
169	0xbd425082	-0.04744006
170	0x3e186a64	0.14884335
171	0xbbb3ae35	-0.0054834136
172	0xbd90cf59	-0.070707984
173	0xbd7f2062	-0.062286742
174	0x3dcfd8d7	0.10148781
175	0xbdc05d58	-0.09392804
176	0xbb7bbe86	-0.0038413121
177	0xbd4b2cd7	-0.04960331
178	0xbd177ff2	-0.036987253
179	0xbdcb115f	-0.09915423
180	0xbda78f6d	-0.08181653
181	0xbded7d3b	-0.115961514
182	0xbcebe302	-0.02879477
183	0x3b9244eb	0.004463782
184	0x3c5ba6d1	0.013406471
185	0xbe30c19f	-0.1726136
186	0xbc73e34d	-0.014885736
187	0xbd8b3201	-0.06796647
188	0xbd478a7b	-0.04871605
189	0x3e16edf9	0.14739217
190	0x3d33b82b	0.043876808
191	0xbdb65e30	-0.089046836
192	0x3d9bc7fc	0.07606503
193	0xbd8c7243	-0.06857731
194	0x3d9dc9ff	0.07704543
195	0x3e2db14d	0.16962166
196	0xbc8ebf15	-0.0174251
197	0x3da296e5	0.07938937
198	0x3ca8eff2	0.020622227
199	0xbe181118	-0.14850271
200	0x3e23bc72	0.15989855
201	0xbd425035	-0.047439773
202	0xbdb0cf1f	-0.08633255
203	0xbd80a741	-0.06281901
204	0xbd09af30	-0.033614337
205	0xbdc15413	-0.09439864
206	0xbdee64a5	-0.1164029
207	0x3e053e3e	0.13012025
208	0x3d0bff96	0.034179293
209	0xbdf0a3cd	-0.117499925
210	0xbdac3a4c	-0.08409557
211	0x3dc123b7	0.0943064
212	0x3dbd5a5c	0.0924575
213	0xbd0a1a97	-0.033716764
214	0xbd767d64	-0.060178176
215	0x3d9be541	0.07612086
216	0xbd894be1	-0.06703926
217	0x3e0c06a4	0.13674408
218	0xbd3e912b	-0.04652516
219	0xbdf51c9d	-0.11968348
220	0xbd47f280	-0.04881525
221	0x3d7785df	0.060430404
222	0x3ca04598	0.019564435
223	0x3d23ac29	0.039959107
224	0xbd94d45d	-0.072670676
225	0xbda48a4c	-0.080341905
226	0x3d717bda	0.058956005
227	0x3c265769	0.010152676
228	0xbd839751	-0.06425346
229	0xbd937044	-0.07199147
230	0xbd4e716c	-0.050401136
231	0xbc77589a	-0.015096808
232	0x3d0a857e	0.033818714
233	0xbd19eb00	-0.03757763
234	0xbe01aac4	-0.12662798
235	0xbe065f4a	-0.13122287
236	0xbc766b0d	-0.015040171
237	0x3df8c4c3	0.12146904
238	0xbcdc846f	-0.026918618
239	0x3da807a1	0.0820458
240	0xbe3be9c9	-0.183509
241	0x3e43c032	0.19116285
242	0x3dfe4d67	0.12417107
243	0xbd97f4da	-0.074197486
244	0xbe033d26	-0.12816295
245	0xbd2aab66	-0.041667365
246	0x3adeb629	0.0016991544
247	0x3c5c8cf7	0.013461343
248	0x3df7a17c	0.120913476
249	0x3def5f15	0.11688057
250	0xbd92bf2f	-0.071653716
251	0xbe0f9516	-0.14021716
252	0x3e3a5f6a	0.1820046
253	0xbcdeafdc	-0.027183466
254	0x3e09fd2f	0.13475488
255	0xbdfdc8ac	-0.12391791

transformer_encoder.layers.0.self_attn.out_proj.bias f4 [64]
0	0x3babd8d4	0.005244354
1	0xbcce7818	-0.02520375
2	0x3ce8d04c	0.028419636
3	0x3ce89e39	0.028395759
4	0x3bc1694c	0.005902445
5	0xbba6a032	-0.0050850147
6	0x3d09625a	0.03354106
7	0x3bff6db7	0.0077950615
8	0xbc1d3b9a	-0.00959673
9	0x3d762da6	0.060102127
10	0x3cd774ee	0.026300874
11	0x3cd501de	0.026001867
12	0xbc003574	-0.007825244
13	0x3bfc15b6	0.007693018
14	0x3d0a56b8	0.033774108
15	0x3bcd1b1a	0.0062593343
16	0x3b4f7cc8	0.0031660069
17	0xbbfc5e8d	-0.007701701
18	0x3bcc1fb9	0.0062293676
19	0x3c6c96f3	0.014440286
20	0xbcec2e89	-0.028830783
21	0x3ca28c07	0.01984216
22	0xbb578ecc	-0.003289151
23	0xbc32e40f	-0.010918631
24	0x3bb4b77d	0.0055150376
25	0xbd001e93	-0.031279158
26	0x3d64890f	0.05579477
27	0xbd8550a1	-0.06509519
28	0x3c197792	0.009366887
29	0xbcf71f6a	-0.030166347
30	0xbc10c8f4	-0.008836973
31	0x3b814fb8	0.003946271
32	0x3c41066b	0.011781315
33	0xbd660de4	-0.05616559
34	0x3d2b4daa	0.041822113
35	0x3cc7562e	0.024333086
36	0x3cbbb642	0.022914056
37	0x3ca703dc	0.020387582
38	0xbc72fdac	-0.014830988
39	0xbccdb2e8	-0.025109723
40	0x3c86f966	0.016476344
41	0xbcaf40c8	-0.021393195
42	0xbc4707b2	-0.012147831
43	0xbcab093d	-0.020878429
44	0x3d3c5251	0.04597694
45	0xbd1a57f4	-0.037681535
46	0x3d18714a	0.037217416
47	0xbc3fe7c1	-0.011712969
48	0xbc6af319	-0.014340186
49	0x3caeb4b9	0.02132641
50	0x3bffa1b8	0.007801261
51	0xbd052518	-0.03250608
52	0xbb510adf	-0.0031897349
53	0xbd5c67a1	-0.053809766
54	0x3c09b91c	0.00840595
55	0xbd08f49e	-0.03343641
56	0x3c995a23	0.018719738
57	0xbd7bdb18	-0.06148824
58	0xbc35c34d	-0.011093927
59	0xbcdf8649	-0.027285712
60	0x3d37102f	0.04469317
61	0x3cdc95c8	0.02692689
62	0x3cf5c988	0.030003324
63	0xbd497a0e	-0.049188666

transformer_encoder.layers.0.linear1.weight f4 [384, 64]
0	0xbc298368	-0.010346271
1	0x3dafb5aa	0.085795715
2	0x3d0e63cb	0.03476314
3	0x3d86624b	0.06561717
4	0x3da17d8c	0.07885274
5	0xbd84598e	-0.06462394
6	0xbc2e1c55	-0.010626872
7	0xbe099333	-0.13435058
8	0x3db6aafe	0.08919333
9	0x3dd766f2	0.10517682
10	0x3d84c234	0.06482354
11	0x3db29dd7	0.08721512
12	0xbce662be	-0.028123256
13	0xbddb3d9e	-0.10705112
14	0xbd8a2791	-0.06745828
15	0xbdf4bbf0	-0.11949909
16	0x3e2a8ffd	0.1665649
17	0xbce409fd	-0.027836794
18	0xbddf0424	-0.10889462
19	0xbd5da208	-0.054109603
20	0x3dc5f688	0.09666163
21	0x3db19b1e	0.086721644
22	0xbd247d7f	-0.040158745
23	0xbd229a8a	-0.03969816
24	0xbd84182c	-0.06449923
25	0x3def89c1	0.11696196
26	0x3ce70f88	0.028205648
27	0xbde677d2	-0.11253323
28	0x3d435567	0.047688868
29	0x3cc2341b	0.023706486
30	0xbcb1cf4f	-0.021705298
31	0x3cec7571	0.028864594
32	0xbdb89624	-0.09013012
33	0xbd355e56	-0.04427942
34	0xbdeca133	-0.11554184
35	0xbde8e439	-0.11371655
36	0xbe255a7f	-0.16147803
37	0xbd3bc05a	-0.045837738
38	0xbdbec521	-0.09314943
39	0x3dc6ccc4	0.09707025
40	0xbc3fe4a4	-0.011712227
41	0xbcdfdc38	-0.027326688
42	0xbd881a75	-0.06645671
43	0xbd8fda60	-0.070240736
44	0xbdced324	-0.10098866
45	0x3dcd7a45	0.10033087
46	0x3dd9f8e6	0.10643177
47	0xbdbd28c8	-0.09236294
48	0x3d8f2cdd	0.06990979
49	0xbe13d38e	-0.1443617
50	0xbda7a7e2	-0.08186318
51	0xbdf5e71d	-0.12006972
52	0xbd9bb7f5	-0.076034464
53	0xbca60c39	-0.0202695
54	0x3e2853b2	0.16438177
55	0xbdaea68f	-0.08527862
56	0x3cae36fc	0.021266453
57	0xba6ed8a2	-0.00091112603
58	0x3d8d93b0	0.06912935
59	0x3d04a374	0.032382444
60	0x3d362c27	0.0444757
61	0xbcea110a	-0.028572578
62	0x3df67d6d	0.12035642
63	0xbde9962d	-0.11405597
64	0xbd5550f7	-0.052079167
65	0xbd1c50e7	-0.038163092
66	0xbd915b76	-0.07097523
67	0xbd80ca86	-0.06288628
68	0xbd26bcb8	-0.04070732
69	0x3df559d1	0.11980022
70	0x3cb30a4f	0.021855501
71	0x3d3b7251	0.045763317
72	0x3e05788b	0.13034265
73	0xbd3aa5cd	-0.045568276
74	0x3d796dcf	0.060895737
75	0xbe129935	-0.14316256
76	0xbd12f28f	-0.035875853
77	0xbcf25dae	-0.029585686
78	0x3df070f8	0.11740297
79	0xbccddfb3	-0.025131082
80	0xbd817fc4	-0.063231975
81	0x3c77594b	0.015096973
82	0xbe4a2f31	-0.19744565
83	0xbd8cae9f	-0.06869244
84	0xbe167cbb	-0.14696018
85	0x3c6bd637	0.0143943345
86	0xbdd54e38	-0.1041531
87	0x3e06dd01	0.13170244
88	0x3c91f2c8	0.017815962
89	0xbc90782e	-0.017635431
90	0xbe17b9ab	-0.1481692
91	0x3caeb4a9	0.02132638
92	0x3a15442a	0.0005694056
93	0xbb396827	-0.002829084
94	0x3d813d69	0.06310541
95	0x3d27ff7c	0.041015133
96	0x3e0a3508	0.13496792
97	0x3d632aeb	0.05546085
98	0x3c1e33e5	0.009655927
99	0x3d82a681	0.06379414
100	0xbe017b12	-0.12644604
101	0x3c9e2eca	0.01930942
102	0xbd9d78d3	-0.07689061
103	0xbd916997	-0.07100218
104	0x3e23221d	0.15930982
105	0xbdcd2fff	-0.1001892
106	0xbd1b58e4	-0.03792657
107	0xbd9c6dea	-0.07638152
108	0xbab0987a	-0.0013473176
109	0xbd9da9b9	-0.07698388
110	0x3e05d695	0.13070138
111	0xbd7a0f77	-0.061049905
112	0x3cd29ea9	0.02571042
113	0x3d8f5016	0.06997697
114	0x3de024e9	0.1094454
115	0xbd7b2966	-0.061318778
116	0x3d165b01	0.03670788
117	0x3dab0c79	0.08351988
118	0x3d8d2e54	0.06893602
119	0xbd1e4bf0	-0.03864664
120	0xbb0a5f98	-0.0021114107
121	0xbd12d7b0	-0.035850227
122	0xbd3e29b0	-0.046426475
123	0xbc7b1ff4	-0.015327442
124	0xbda3ab65	-0.07991675
125	0x3de02592	0.10944666
126	0x3bdec0f8	0.006797906
127	0xbdd55278	-0.1041612
128	0x3cecdab9	0.028912889
129	0x3df01c80	0.11724186
130	0xbcd168d4	-0.025562681
131	0x3d9608d8	0.073259056
132	0xbd83737b	-0.064185105
133	0x3d00e9f2	0.031473108
134	0xbd1b4308	-0.037905723
135	0xbbe64c49	-0.007028137
136	0x3de193f7	0.1101455
137	0x3d309a45	0.043115873
138	0xbc8c8ff2	-0.017158482
139	0xbde762d6	-0.11298148
140	0x3e09a488	0.1344167
141	0xbde25729	-0.11051781
142	0xbe335d67	-0.17516099
143	0x3dccbc6d	0.09996877
144	0x3d4c5e52	0.04989464
145	0x3c53e3d5	0.012932737
146	0x3d8c6d80	0.06856823
147	0xbdca2c33	-0.098717116
148	0x3dea86fa	0.11451526
149	0xbd9fddd5	-0.07805983
150	0x3e08e688	0.1336919
151	0x3b9d9da5	0.0048100525
152	0xbc3fb6d5	-0.011701305
153	0xbdc351ad	-0.09537063
154	0xbd8e9da9	-0.06963665
155	0xbd501336	-0.05079957
156	0xbdb88c7b	-0.090111695
157	0xbcf8603a	-0.030319322
158	0xbbc7ab8b	-0.0060934476
159	0xbd9e6115	-0.07733361
160	0xbda8d388	-0.082434714
161	0xbd8e4f5d	-0.06948731
162	0x3d3be6a8	0.045874268
163	0x3dd06fb8	0.10177559
164	0x3c67180d	0.014104855
165	0xbd34c8db	-0.044136863
166	0x3bbe397d	0.005805193
167	0x3dbec820	0.093155146
168	0xbd90845a	-0.07056494
169	0x3d245e24	0.040128842
170	0xbde2c80a	-0.11073311
171	0xbd3bb492	-0.045826502
172	0x3e02504d	0.12725945
173	0x3d4f27bc	0.050575003
174	0xbc3969f7	-0.011316768
175	0xbdb1920b	-0.086704336
176	0xbd00ef4a	-0.031478204
177	0x3cc94fb9	0.024574148
178	0x3ca262fc	0.01982259
179	0x3c1ef348	0.009701557
180	0xbdccb3ed	-0.099952556
181	0xbc09abb4	-0.008402754
182	0x3cdfb9a6	0.027310204
183	0xbc7b23fb	-0.015328403
184	0xbdac6cf1	-0.084192164
185	0x3d9900ca	0.074708536
186	0xbd3183b9	-0.04333851
187	0x3de7fde6	0.11327724
188	0xbe0da5de	-0.13832805
189	0x3dccddcd	0.10003243
190	0x3ddac9ae	0.106829986
191	0xbd466c0e	-0.048442893
192	0x3da4f88d	0.0805522
193	0xbd2bcbd1	-0.04194242
194	0xbc3e916f	-0.011631354
195	0x3d471362	0.04860247
196	0x3d3d2aae	0.04618328
197	0xbe11e4bc	-0.14247411
198	0xbdc7c9ee	-0.09755312
199	0xbc23a197	-0.0099872565
200	0x3e0d7418	0.13813818
201	0x3cab477b	0.020908108
202	0x3dc0ea76	0.0941972
203	0x3dfea18a	0.12433155
204	0x3de0b3dc	0.109718055
205	0x3c2b9e9b	0.010474826
206	0xbde8ac4b	-0.11360987
207	0x3de20098	0.110352695
208	0xbd2fa981	-0.04288626
209	0xbd0830df	-0.033249732
210	0x3d65ad01	0.056073193
211	0x3e2dc26d	0.16968699
212	0xbc917128	-0.017754152
213	0x3de6eca2	0.11275603
214	0xbdba395c	-0.09092972
215	0xbd49417a	-0.04913471
216	0xbd43aa99	-0.047770116
217	0x3d85b8b5	0.06529371
218	0x3c9239c1	0.017849805
219	0xbe0de55d	-0.13857026
220	0x3c9fad12	0.019491706
221	0xbd2fb6ee	-0.042899065
222	0xbbcc43a2	-0.0062336484
223	0xbdbbc523	-0.0916846
224	0xbccc2a2b	-0.024922451
225	0x3be40f92	0.006959864
226	0xbc6b64e4	-0.014367316
227	0xbdabe793	-0.08393779
228	0xbdd22b49	-0.10262162
229	0xbd96d460	-0.07364726
230	0xbd392825	-0.0452043
231	0xbd6a7e56	-0.05724939
232	0x3d3fa9bb	0.046792727
233	0x3d909973	0.07060518
234	0x3b754a07	0.0037428157
235	0x3db48ee3	0.08816316
236	0xbdf4abc9	-0.11946828
237	0xbda126ac	-0.07868704
238	0xbd842c0d	-0.064537145
239	0xbdaac12a	-0.08337624
240	0x3da4d43a	0.080482915
241	0x3d4cd8e4	0.05001153
242	0x3e0555cf	0.13021015
243	0x3dbb3a45	0.091419734
244	0xbd31f329	-0.043444786
245	0x3de703c1	0.11280013
246	0x3c054af0	0.008135542
247	0xbc666a58	-0.01406344
248	0x3d8f8428	0.07007629
249	0xbdaabfc8	-0.083373606
250	0x3ca8a96e	0.020588603
251	0xbce862c4	-0.028367408
252	0x3db2da86	0.08733086
253	0xbd32d8a9	-0.043663654
254	0x3df757b3	0.12077274
255	0x3d494e5a	0.049146987

transformer_encoder.layers.0.linear1.bias f4 [384]
0	0xbcf14b68	-0.029454902
1	0xbd8f0efd	-0.06985281
2	0x3d654b8f	0.05598026
3	0xbe17758c	-0.14790934
4	0xbe37f29b	-0.1796364
5	0x3d2e4f91	0.04255635
6	0x3d2633bb	0.040576678
7	0xbe076d2b	-0.13225238
8	0x3bead383	0.0071663274
9	0xbcdc116d	-0.026863778
10	0xbe23bb89	-0.15989508
11	0xbd66fd31	-0.056393806
12	0xbd8923d8	-0.0669629
13	0xbd377426	-0.044788502
14	0xbe05e8ad	-0.1307704
15	0x3c9abf99	0.018890189
16	0x3d5da59d	0.05411302
17	0xbe4072ed	-0.1879384
18	0x3c98963e	0.018626329
19	0x3da6f3f0	0.08151996
20	0xbbe1d7ec	-0.006892195
21	0x3d1ee6af	0.038794216
22	0xbde54cd3	-0.11196294
23	0x3d5aad0c	0.053387687
24	0x3d015d11	0.031582896
25	0xbbe105dd	-0.006867154
26	0xbd43c136	-0.047791682
27	0xbd62c21e	-0.055360906
28	0x3d6b9aab	0.05752055
29	0x3c563e0d	0.0130763175
30	0xbd828f8b	-0.06375035
31	0x3e121ceb	0.14268844
32	0x3db0683d	0.08613632
33	0xbd0a91b9	-0.03383038
34	0x3d7b3077	0.061325517
35	0x3d68b9c2	0.056817777
36	0xbd8109ea	-0.06300719
37	0x3daf1507	0.085489325
38	0xbd29600c	-0.041351363
39	0x3d972642	0.07380344
40	0xb742b1b6	-1.1604678e-05
41	0xbd82c9a2	-0.06386115
42	0x3c21daf3	0.009878862
43	0xbd8f0934	-0.06984177
44	0xbe4e1ce3	-0.20128207
45	0xbe090d04	-0.13383871
46	0xbe2431ca	-0.16034618
47	0xbe198332	-0.14991453
48	0xbdd9a44a	-0.10627039
49	0xbd4b669f	-0.049658414
50	0x3d7d48f2	0.061837144
51	0x3d8f6fc5	0.0700374
52	0xbd9f5fac	-0.0778192
53	0xbe21c9d6	-0.1579965
54	0xbe03fead	-0.1289012
55	0x3d1cfcd0	0.03832704
56	0x3d801063	0.062531255
57	0xbe042b98	-0.12907255
58	0xbd7d1b28	-0.061793476
59	0x3c8af967	0.016964627
60	0xbe297365	-0.16547926
61	0xbd09c91f	-0.03363907
62	0xbdeb7365	-0.11496619
63	0xbd3b140f	-0.045673426
64	0xba5ef971	-0.00085057976
65	0xbe0a74bd	-0.13521095
66	0xbd0a7ff5	-0.033813436
67	0xbd4ebc73	-0.050472688
68	0xbba993b5	-0.0051750788
69	0xbd7c85b2	-0.06165094
70	0xbda54e0c	-0.08071527
71	0x3c3e65ef	0.011620983
72	0x3d23b3a5	0.039966244
73	0x3d44d2c4	0.048052564
74	0xbdd07639	-0.10178799
75	0x3da3d29d	0.07999156
76	0xbe2766a8	-0.16347754
77	0xbd55bfac	-0.052184746
78	0x3da85896	0.082200214
79	0x3dd0e7a2	0.102004305
80	0x3dc2fbca	0.09520681
81	0xbc16f9a8	-0.009214796
82	0xbe1a97eb	-0.15097015
83	0x3d84fe3c	0.06493804
84	0xbdceb6c5	-0.10093454
85	0xbc350a0b	-0.011049758
86	0xbe0d262e	-0.13784096
87	0xbd7fc3f2	-0.062442727
88	0xbdbd9390	-0.09256661
89	0x3e0255db	0.12728064
90	0x3d9ac482	0.07557012
91	0x3d6b3807	0.05742648
92	0xbda1643e	-0.07880448
93	0xbe0df22e	-0.13861915
94	0xbdfe7f7c	-0.124266595
95	0xbdbbce5b	-0.091702186
96	0xbd7cc4bc	-0.061711058
97	0xbe008177	-0.12549387
98	0x3dcde6c3	0.1005378
99	0xbdfdf4e6	-0.12400226
100	0xbd7f6e99	-0.062361334
101	0xbd87aeeb	-0.0662516
102	0x3d0377ec	0.03209679
103	0x3d6e2428	0.05813995
104	0x3d8526dc	0.065015525
105	0xbcc31b34	-0.023816682
106	0x3dd5adc8	0.10433537
107	0x3d70c593	0.05878217
108	0xbde01c84	-0.10942939
109	0x3d47b148	0.048753053
110	0x3db962d5	0.09052054
111	0xbc3654c7	-0.011128611
112	0xbccfd117	-0.025368256
113	0xbde2199a	-0.11040039
114	0xbe2b54d7	-0.16731583
115	0xbd033ddf	-0.032041427
116	0xbdbbe717	-0.09174936
117	0x3d29ec22	0.04148496
118	0xbdf599f6	-0.11992256
119	0x3d57b9b4	0.052667335
120	0xbde265f0	-0.11054599
121	0xbdb48b5d	-0.08815644
122	0x3de4c99e	0.11171268
123	0xbd4994f9	-0.049214337
124	0xbd2950da	-0.04133687
125	0xbd8548ce	-0.06508027
126	0x3d39faa8	0.04540506
127	0x3dcda034	0.10040322
128	0x3d6dafd1	0.058029
129	0x3d0b593d	0.03402065
130	0xbdc8ed4f	-0.09810888
131	0x3dab1377	0.08353322
132	0xbb6f339d	-0.003649927
133	0xbdfab056	-0.12240665
134	0x3ca3a9cf	0.019978432
135	0x3d14a710	0.036292136
136	0x3c40da79	0.011770838
137	0xbc9668bb	-0.018360486
138	0x3dcab808	0.098983824
139	0xbe308bdc	-0.17240852
140	0xbe111e11	-0.14171626
141	0x3d43fefa	0.047850586
142	0x3d54db2d	0.051966835
143	0xbe339e68	-0.17540896
144	0xbe2b8f5a	-0.16753903
145	0xbd18a0ee	-0.03726285
146	0x3d7b6698	0.061377138
147	0xbd92cd17	-0.07168024
148	0x3c180376	0.009278169
149	0xbe202961	-0.15640785
150	0x3dae860d	0.08521662
151	0x3d2dd3e5	0.042438406
152	0xbdd0828c	-0.1018115
153	0xbb3aaf6e	-0.0028485912
154	0xbd1e63b9	-0.03866932
155	0xba8c20e0	-0.001069095
156	0xbde8fc41	-0.113762386
157	0xbdc17d30	-0.09447706
158	0xbd634d6b	-0.055493753
159	0x3ce5655c	0.028002433
160	0xbde771b8	-0.11300987
161	0xbe376917	-0.17911182
162	0xbd3070f2	-0.043076463
163	0xbd9d9eac	-0.0769628
164	0xbe12c29c	-0.1433205
165	0x3d0d17ff	0.034446713
166	0x3a60e994	0.0008579728
167	0xbdc39ea4	-0.09551743
168	0xbe00f674	-0.12594014
169	0x3d8a2e74	0.067471415
170	0xbca1b2f3	-0.01973865
171	0xbd6f37a6	-0.05840268
172	0xbdfd7114	-0.123750836
173	0xbda98061	-0.082764395
174	0xbdc394f9	-0.09549899
175	0x3ca8b0d2	0.020592127
176	0x3d82bc8b	0.06383618
177	0x3daa295a	0.083086684
178	0x3d344855	0.044014294
179	0xbce43c07	-0.027860655
180	0x3d76248a	0.06009344
181	0x3cf29f5e	0.029617008
182	0x3d8b6747	0.06806808
183	0x3cd62959	0.026142763
184	0xbda5aef4	-0.0809001
185	0x3d9aada0	0.075526476
186	0xbbb63c4e	-0.005561388
187	0xbd828e5a	-0.06374808
188	0x3d986aff	0.07442283
189	0x3e029737	0.12752996
190	0xbcd1dcd8	-0.025618002
191	0xbd8be374	-0.068304926
192	0xbd129fc3	-0.035796892
193	0xbe137d3b	-0.1440324
194	0xbd264490	-0.04059273
195	0xb9ef611f	-0.00045657993
196	0x3d8ebb24	0.06969288
197	0xbde60463	-0.112313055
198	0xbd4c91c8	-0.049943715
199	0x3daef8b4	0.0854353
200	0xbd88737b	-0.06662651
201	0x3ccbf21e	0.024895724
202	0xbe1035e8	-0.14083064
203	0xbd879fe4	-0.066222936
204	0x3cbaea76	0.022816878
205	0x3dddeb71	0.108359225
206	0x3b05b0ca	0.0020399564
207	0xbd2f9d7d	-0.042874802
208	0xbc9e26bd	-0.019305581
209	0x3dcb27a1	0.09919668
210	0x3d199614	0.03749664
211	0xbdcb0eda	-0.09914942
212	0xbd8a55ff	-0.06754684
213	0x3cb8ece6	0.0225739
214	0xbd566e4d	-0.052351285
215	0x3d694180	0.05694723
216	0xbc16e5b2	-0.009210037
217	0xbe1596a7	-0.1460825
218	0x3bd75ae0	0.0065721124
219	0x3d583c4d	0.052791882
220	0xbd575ea7	-0.052580502
221	0xb9aa20f1	-0.0003244947
222	0xbd506ef4	-0.050887063
223	0xbe042674	-0.12905294
224	0xbd930fee	-0.07180773
225	0x3c946671	0.018115254
226	0x3c332efd	0.010936496
227	0x3d27ff12	0.04101474
228	0x3d3c0394	0.04590185
229	0xbd6a3a0f	-0.057184275
230	0xbe0b2376	-0.13587746
231	0x3d8995d5	0.06718031
232	0x3dff924a	0.12479074
233	0xbdf1a67c	-0.117993325
234	0x3dc2d81d	0.095138766
235	0xbc6cfff6	-0.014465323
236	0xbd3c28df	-0.045937415
237	0xbd97ffbd	-0.07421825
238	0x3c92cbcf	0.01791945
239	0x3cd2d422	0.025735918
240	0xbda84d40	-0.08217859
241	0xbdb20c2b	-0.08693727
242	0x3b876dda	0.0041329684
243	0xbdd8cd0a	-0.10585983
244	0xbe05a91f	-0.13052796
245	0xbdd2ced0	-0.102933526
246	0xbdab03c3	-0.08350327
247	0xbd660ec5	-0.05616643
248	0xbbe8fa62	-0.007109926
249	0x3d846399	0.06464309
250	0xbd35400a	-0.044250526
251	0xbd649fd7	-0.055816498
252	0xbb7b0562	-0.003830277
253	0x3dd96741	0.10615397
254	0xbbb0ae8b	-0.005391901
255	0xbd7b03cc	-0.061282918

transformer_encoder.layers.0.linear2.weight f4 [64, 384]
0	0xbd1dea84	-0.03855373
1	0xbcebe8f3	-0.028797602
2	0xbd338f2c	-0.04383771
3	0xbcad4765	-0.021152208
4	0x3d3e2f5e	0.04643189
5	0xbcc358fb	-0.02384614
6	0xbd0da9f5	-0.03458591
7	0xbcb727cf	-0.02235785
8	0x3d8384b8	0.064217985
9	0xbcfcd194	-0.030861653
10	0x3d71eea7	0.059065487
11	0x3ca14485	0.019685993
12	0x3d63d54f	0.05562335
13	0x3db3cdda	0.087794974
14	0xbda0df3d	-0.07855079
15	0x3c1d4a93	0.009600299
16	0xbd9776ff	-0.073957436
17	0xbc9febfd	-0.019521708
18	0xbdb86f18	-0.090055645
19	0xbd2d6ce4	-0.042340174
20	0xbbe9ffce	-0.00714109
21	0x3ce9449b	0.028475096
22	0x3d6ca182	0.057771213
23	0x3d7fbb5e	0.062434547
24	0xbdabb81d	-0.08384726
25	0xbca55271	-0.020180913
26	0x3cbfe41b	0.023424199
27	0xbd799062	-0.06092871
28	0xbe05829c	-0.13038105
29	0xbd1109aa	-0.035409607
30	0x3c7ebb06	0.01554752
31	0x3d20595e	0.039147727
32	0xbd48f2d1	-0.049059693
33	0x3d075d2d	0.033047844
34	0x3d334039	0.04376242
35	0xbd68a448	-0.056797296
36	0xbc485234	-0.01222663
37	0xbd812d85	-0.0630751
38	0xbd4e14cd	-0.050312806
39	0xbd5dcfc6	-0.054153226
40	0x3c8395d7	0.01606266
41	0xbbcf4f24	-0.006326573
42	0x3dc18eaf	0.09451043
43	0xbcb7b4c6	-0.022425067
44	0x3cd07403	0.025445944
45	0xbd0a071d	-0.03369819
46	0x3b032a23	0.002001413
47	0xbba1095e	-0.0049144467
48	0x3cfcc208	0.03085424
49	0xbd95a5c3	-0.07307007
50	0xbd1e5575	-0.038655717
51	0xbac4766c	-0.0014988906
52	0xbc36edb1	-0.0111650685
53	0xbd98b5ab	-0.074565254
54	0xbd0919ac	-0.03347175
55	0x3d5bf41e	0.053699605
56	0x3cf4176e	0.029796328
57	0xbd17cb00	-0.03705883
58	0xbd87cfcc	-0.06631431
59	0xbca91af6	-0.020642739
60	0x3d58b2f3	0.052905034
61	0xbd80e17a	-0.06293006
62	0x3a90a80b	0.0011036409
63	0xbdacfb47	-0.08446365
64	0x3de80f8f	0.113310926
65	0x3bcb6b65	0.006207871
66	0x3d29a971	0.041421358
67	0xbce52ec0	-0.027976394
68	0x3b422f13	0.002963011
69	0xbc37892a	-0.011202136
70	0x3dbf963a	0.09354825
71	0x3d093f81	0.033507828
72	0xbb553e4c	-0.0032538353
73	0xbc1a28dd	-0.009409157
74	0x3ca35079	0.019935833
75	0xbc8e920e	-0.017403629
76	0xbd79bb2f	-0.060969528
77	0x3bc55fc8	0.006023381
78	0x3719bcb3	9.163446e-06
79	0xbb45a535	-0.0030158286
80	0xbbdc50ef	-0.006723515
81	0x3d9d9b6d	0.07695661
82	0x3d9b79d3	0.075915955
83	0xbd1eb09f	-0.038742658
84	0xbd959da5	-0.07305459
85	0xbc8e430b	-0.017365953
86	0x3d3b8148	0.04577759
87	0xbb7ec4b2	-0.0038874564
88	0x3c6587c2	0.014009418
89	0x3cf10880	0.029422998
90	0xbdb5d8f8	-0.08879274
91	0xbd64c3ea	-0.0558509
92	0x3cc874b1	0.024469705
93	0x3c67a8b3	0.014139342
94	0x3d54675b	0.05185638
95	0x3cd92138	0.026505098
96	0xbce59012	-0.0280228
97	0xbd226620	-0.039648175
98	0xbd92cf12	-0.07168402
99	0xbcae2c65	-0.021261403
100	0x3beae197	0.0071680057
101	0xbd1f4380	-0.038882732
102	0x3d51cd3e	0.051221125
103	0xbd7ad310	-0.06123644
104	0xbd6eeaff	-0.05832958
105	0xbca50d06	-0.020147812
106	0xbda928bc	-0.082597226
107	0xbd6c81da	-0.057741024
108	0xbd39db8d	-0.045375396
109	0x3d8396c2	0.06425239
110	0xbba377c5	-0.004988643
111	0x3cafee5a	0.02147596
112	0xbd6d4c6d	-0.057934213
113	0xbcd1c604	-0.025607117
114	0xbd67484d	-0.056465436
115	0xbdae5479	-0.08512206
116	0xbce24017	-0.027618451
117	0x3d84ed90	0.06490624
118	0xbd7219af	-0.059106525
119	0xbc4fda36	-0.012686303
120	0x3d19ec12	0.03757865
121	0x3cd38faf	0.02582535
122	0xbdc0d764	-0.094160825
123	0x3b2f13a8	0.0026714597
124	0xbbf3284d	-0.0074205757
125	0xbdd31aca	-0.10307844
126	0x3c8382cd	0.016053582
127	0x3dba7c8d	0.091057874
128	0xbda20fc1	-0.07913161
129	0xbc2582e6	-0.010102009
130	0xbc9204e9	-0.017824607
131	0x3c730c50	0.0148344785
132	0x3cc253b8	0.02372156
133	0x3a10c4d9	0.00055224966
134	0xbd8f349b	-0.069924556
135	0x3d1d189e	0.038353555
136	0xbd4af822	-0.049553044
137	0xbcd449d4	-0.02591411
138	0xbccd237b	-0.025041332
139	0x3ac1bf54	0.0014781752
140	0xbd6ba7b6	-0.05753299
141	0x3d230351	0.039798085
142	0xbb7e7aa8	-0.0038830433
143	0xbce78b35	-0.028264621
144	0x3baf6722	0.0053528706
145	0xbcadb984	-0.021206625
146	0x3d739341	0.059466604
147	0xbccc5b9d	-0.024946028
148	0x3bf461b7	0.0074579376
149	0x3cd8df90	0.02647379
150	0xbcf6ae1b	-0.030112317
151	0x3c1fb122	0.009746822
152	0xbce09a8a	-0.02741744
153	0xb979cd8f	-0.00023823067
154	0xbc733b1e	-0.014845638
155	0x3d567a9d	0.052363027
156	0x3d806999	0.06270141
157	0x3d3e05e3	0.046392333
158	0xbc90a805	-0.017658243
159	0x3d8eb10b	0.06967362
160	0xbd67fdf9	-0.05663869
161	0xbd4c74f3	-0.04991622
162	0x3bdac47c	0.006676255
163	0xbcab12ba	-0.020882953
164	0x3d302f0c	0.043013617
165	0xbbcb52bc	-0.006204931
166	0xbcbcea1a	-0.023060847
167	0xbdcd1fbf	-0.10015821
168	0x3d821813	0.06352248
169	0x3d1bd6c3	0.03804661
170	0x3d6cd7fd	0.05782317
171	0xbd98c104	-0.0745869
172	0xbe3298ab	-0.1744105
173	0x3cc4e0c1	0.024032952
174	0x3e06f6c5	0.13180073
175	0x3df91cc5	0.121636905
176	0xbd6f2008	-0.058380157
177	0xbccfffd8	-0.02539055
178	0x3d5b9856	0.053612076
179	0xbda4e4fe	-0.08051489
180	0x3c5ffa69	0.013670542
181	0xbd9453c8	-0.072425425
182	0xbb8f108e	-0.004365987
183	0x3ded87ab	0.11598142
184	0xbd2951ea	-0.041337885
185	0x3d6e4b6c	0.058177397
186	0x3d102322	0.035189755
187	0x3d7bf811	0.06151587
188	0xbb083c51	-0.0020787905
189	0xbd5bc952	-0.05365879
190	0xbd1964bd	-0.037449587
191	0xbcef8802	-0.029239658
192	0x3d396931	0.045266334
193	0x3c351cab	0.011054198
194	0xbda8b453	-0.08237519
195	0xba1d2f9f	-0.0005996171
196	0xbc438134	-0.01193266
197	0x3d8cdcbc	0.06878039
198	0xbd223e34	-0.039610103
199	0x3d8e3559	0.06943769
200	0xbc3560e9	-0.011070468
201	0xbb138926	-0.0022512167
202	0x3d407edd	0.046995986
203	0xbccb12f3	-0.02478931
204	0x3c4f9423	0.012669596
205	0xbbf99831	-0.0076170196
206	0x3c7aa549	0.015298196
207	0xbd82fbd7	-0.06395691
208	0x3d467181	0.04844809
209	0xbd142296	-0.036165796
210	0xbd037eda	-0.032103397
211	0xbd8542bc	-0.06506869
212	0xbce0da3f	-0.027447818
213	0x3d53c467	0.051700976
214	0x3d10c384	0.03534271
215	0xbd7ed33b	-0.062213164
216	0xbb7db1ec	-0.0038710786
217	0xbd840f78	-0.06448263
218	0xbbb664ad	-0.0055662007
219	0xbcf547fb	-0.02994155
220	0x3dbcd4a4	0.092202455
221	0xbd25550d	-0.040364314
222	0x3c5ab815	0.013349553
223	0xbd090f34	-0.033461764
224	0xbdda91d5	-0.106723465
225	0x3bae75c8	0.005324099
226	0x3dc8d6ff	0.09806632
227	0xbaccaaa8	-0.0015614824
228	0xbd946f28	-0.07247764
229	0xbc991843	-0.018688327
230	0x3d4d4344	0.050112978
231	0xbdda204b	-0.10650691
232	0xbda0b7ea	-0.07847579
233	0x3d6a1ca9	0.05715624
234	0x3bf4e527	0.007473606
235	0x3b9c3f6f	0.004768304
236	0xbbbf38ad	-0.0058356137
237	0xbd6b04dd	-0.057377685
238	0xbd7d815c	-0.061890945
239	0xbca1eeca	-0.019767184
240	0xbd774005	-0.06036379
241	0xbd402371	-0.0469088
242	0xbcca2293	-0.02467469
243	0x3bc0ce74	0.005883986
244	0x3d697bb7	0.05700275
245	0x3db3540f	0.08756267
246	0x3cdacb0e	0.026708152
247	0xbd94e835	-0.072708525
248	0xbdae2eb6	-0.08505003
249	0xbd8ae1e2	-0.06781365
250	0xbbf86a49	-0.0075810296
251	0x3decd8a8	0.115647614
252	0x3d2a8a34	0.041635707
253	0xbd800904	-0.062517196
254	0x3cc0d5f3	0.023539519
255	0x3d110959	0.035409305
