projects/reinforcement-learning/continuous-control/p2_continuous-control-synchronous/saved_weights/train_ddpg/ddpg_weights_ep_40_2025-05-03_21-00-17.pth (torch, 682994 bytes, 22 tensors)

fc1.weight f4 [256, 33]
000000 06 84 e8 bc e0 0b 6f bd 39 4a 8b 3a 4f 12 0d bc
       -0.028383266 -0.058360934 0.0010626978 -0.008610322
000010 17 e5 01 bd 7d 8a 33 3d 70 67 ea bc 9b 8e 46 bd
       -0.031712618 0.043833245 -0.028613776 -0.048475843
000020 33 c0 c1 3c 7d 53 a0 bc 78 49 aa 3d 38 68 ba bb
       0.023651218 -0.01957106 0.08314794 -0.0056886934
000030 50 6f 09 3d c3 56 d1 3d e7 7e ce bb d4 52 b7 bc
       0.03355342 0.102216266 -0.006301749 -0.022378363
000040 f4 65 bd bd 05 cc c3 3c e0 4a 74 bc 51 19 20 3d
       -0.09247962 0.023900995 -0.01491043 0.039086644
000050 fd b6 b0 bd 97 4f 65 bd 57 65 81 3b 3b 12 fa 3b
       -0.08628652 -0.055984106 0.003948848 0.007631568
000060 bd b7 44 bd bf 8c fd bb 87 c5 a7 3d dc e9 30 3d
       -0.04802679 -0.0077377255 0.08191972 0.043191776
000070 d5 94 9b 3d 70 2a 01 3d 91 92 24 bc 74 00 e9 3c
       0.07596747 0.031534612 -0.01004471 0.028442599
000080 e6 d3 35 3e 16 ea a5 bd 7b 6d 43 bd 2d 07 b2 3b
       0.17756614 -0.08101289 -0.04771183 0.0054329843
000090 13 8d 9a ba 31 83 a3 3d f4 52 18 3d 75 73 88 3c
       -0.0011791311 0.07984007 0.037188485 0.016656617
0000a0 67 9f 17 3e f4 be 39 3e 4a 72 b2 bd cb 2c 13 3d
       0.14806901 0.18139249 -0.08713205 0.03593139
0000b0 95 6a d7 3d 6e b7 1a 3d 21 e5 5e bc 8d ce e5 3d
       0.10518376 0.03777259 -0.013604433 0.11221037
0000c0 1d ca c2 3d 1a 8a d4 bc 91 51 9a 3c 13 ec 96 3d
       0.09511206 -0.025944758 0.018837722 0.07369246
0000d0 09 86 75 3d 89 e9 0c bd 9c 27 e7 bc 8d 52 15 3d
       0.05994228 -0.034402404 -0.02821713 0.03645568
0000e0 f2 3b a3 bb 83 3b 4c bc 0e 49 0c 3d 87 4a 41 3e
       -0.0049815113 -0.012465361 0.034249358 0.18876086
0000f0 03 55 3c 3e 08 ba 8e 3d ca 5b 71 bd 6a 68 30 be
       0.18391804 0.069690764 -0.058925427 -0.17227331
000100 1a 4e 54 3d a6 b4 42 3d 0c 70 a3 bd 5e 45 bf bc
       0.051832296 0.04753556 -0.079803556 -0.023348507
000110 11 7b a6 bd 36 02 5d 3c 22 72 22 3c 29 9e a5 3d
       -0.08128942 0.013489297 0.009914907 0.08086807
000120 2a 65 07 bd e6 64 45 bc a9 cb 02 3e 8b c6 20 be
       -0.033055462 -0.012047982 0.12773003 -0.15700738
000130 ee 7a 03 be 7c 28 09 bd e7 fc 52 3d 31 1f b0 bd
       -0.12839863 -0.033485875 0.051510718 -0.08599699
000140 ba b8 6c 3d 16 ce aa 3b 54 d5 3d 3c 90 ad 26 bc
       0.057793356 0.0052125556 0.011586506 -0.010173216
000150 03 67 84 3d 80 69 93 bd 21 56 49 3d 6e 93 2d bd
       0.064649604 -0.07197857 0.049154405 -0.042376928
000160 37 01 8b bc fa 53 4e bd f6 9e ff bc 5d 0e e4 3c
       -0.016968353 -0.050373055 -0.031203728 0.02783888
000170 9f d7 0e be 48 ba 88 3d e8 91 7e bd 28 41 06 3d
       -0.1394944 0.06676155 -0.062150866 0.03277698
000180 73 24 04 be 7c a1 12 bd c6 42 93 bd 4d d1 26 be
       -0.1290453 -0.035798535 -0.071904704 -0.1629078
000190 f7 ed ae 3d b3 9a ae 3d 55 43 e9 bd dc 3f fa bd
       0.08541482 0.085256 -0.11389796 -0.122192115
0001a0 d0 65 29 bd b4 48 a5 bd 42 03 83 bd 9e 21 a3 bc
       -0.04135686 -0.08070508 -0.06397106 -0.01991349
0001b0 5e 69 91 bb 05 e8 02 be 61 b5 04 bd 50 c0 a8 bc
       -0.0044376096 -0.12783821 -0.03239954 -0.020599514
0001c0 c5 ae bf bd 60 bf 2a bd c4 be de bd 04 ef 86 3d
       -0.093595065 -0.041686416 -0.108762294 0.06588557
0001d0 8a af 75 bb 91 2b b3 3d 26 9c 32 bc bb 4f 78 bd
       -0.0037488663 0.08748544 -0.0109014865 -0.060622912
0001e0 42 b2 43 bd 57 cf bd 3c 03 22 65 3d 9e cc 27 be
       -0.04777742 0.023170156 0.05594064 -0.16386649
0001f0 19 65 72 3d 9a ab a8 3d 80 b9 58 3d da 4c 98 bb
       0.059178445 0.082358554 0.05291128 -0.0046478333
000200 8c 51 63 bd ff 0d bf bc 38 cd 34 bd 6e b2 0c 3d
       -0.05549769 -0.023322104 -0.044141024 0.03434985
000210 cb af cd 3c 38 89 ed 3c f1 d1 e3 3d d0 21 e9 3c
       0.025108239 0.028996095 0.111240275 0.028458506
000220 2d db c7 3c 74 bc d9 3d f2 20 84 3d c7 55 21 3c
       0.024396503 0.10631648 0.06451596 0.009847111
000230 2e 3c 94 bd 9e c0 70 3c f0 9b cf 3c 61 35 a9 bc
       -0.07238041 0.014694361 0.025342911 -0.020655336
000240 3e db 51 3d b8 a1 a1 3d b2 27 c1 3d d4 5a 56 3d
       0.051234476 0.078921735 0.094313994 0.052332714
000250 f8 d1 7d bc 6e a4 39 bd b1 a4 94 3d 62 99 6f 3c
       -0.015491955 -0.045322828 0.07257975 0.014623972
000260 61 f8 22 3c 64 83 2a bd 2e 2b 05 bd d9 61 6f 3d
       0.009946913 -0.04162921 -0.032511882 0.058442924
000270 0f d8 27 3d d4 f2 02 be 6e 03 e2 3d 8e 99 08 be
       0.040977534 -0.12787944 0.110358104 -0.13339826
000280 eb 86 0b bd b8 4f 37 3c ad 85 14 3e 28 a8 74 3d
       -0.034064215 0.01118844 0.14504118 0.05973068
000290 7f 7e ae bd b2 bd 5c bd 7b 8a ff 3d 26 52 b1 bc
       -0.08520221 -0.053891845 0.12477585 -0.021645617
0002a0 03 ff 30 3d 9f ac 0c 3d 92 2e 40 3d b2 ef 03 3d
       0.043211948 0.03434431 0.046919413 0.032211013
0002b0 08 3a 58 bc 3d 9c af bd 9e 35 a8 bb 96 c3 20 3d
       -0.0131974295 -0.08574722 -0.005133345 0.039249025
0002c0 dd c8 f3 3d db 46 aa 3d f7 d7 df bc 45 dd 83 3d
       0.11903546 0.08314296 -0.02732466 0.06438688
0002d0 c4 5c 99 3c 8e 04 94 bd 9c fd 04 bd f5 ba 33 bd
       0.018720992 -0.07227431 -0.032468423 -0.043879468
0002e0 dd f7 ce bd 0d 07 40 be 00 9d 66 3d bb c6 5e bd
       -0.1010587 -0.1875269 0.05630207 -0.054388743
0002f0 5e 71 ba bd de 29 db bc d6 ce 9c 3d 67 57 be bc
       -0.09103654 -0.026753362 0.07656638 -0.023235036
000300 8a 38 ea bd d4 36 83 3d e8 8c bf 3c e5 6e d7 3d
       -0.11436565 0.06406942 0.023382619 0.10519198
000310 b4 4c 82 3c 3c 0d 92 bd 09 41 82 bb 41 08 98 bd
       0.015905716 -0.071314305 -0.003975038 -0.07423449
000320 7c ca 34 3e 3f c5 21 bd a6 67 3b bc 59 b9 74 3d
       0.17655367 -0.03949475 -0.011438286 0.059747074
000330 5d 96 73 3d 07 21 39 bd 1a cc c4 bd 1a d4 be 3c
       0.05946957 -0.045197513 -0.09609242 0.023294497
000340 02 4c 32 3c d0 bf 2b bd 08 18 0c 3c 04 4f 65 bd
       0.0108823795 -0.041930974 0.008550651 -0.05598356
000350 57 15 a7 3d f3 76 b3 3c 7b 1e 31 bd c5 8d 1f bd
       0.08158367 0.021907305 -0.04324196 -0.03895356
000360 04 13 49 3d a6 99 96 3c bc ee 6c 3d 0b 8f 80 bd
       0.0490904 0.018383812 0.057844862 -0.06277283
000370 15 b3 e1 3c 1d 74 2d bd a5 3a b0 3a 5a e1 c4 3d
       0.027551213 -0.042347062 0.0013445212 0.09613295
000380 52 e0 33 3e e9 8b c9 ba dd d9 da 3d 90 ba 22 3d
       0.1756604 -0.001537678 0.106860854 0.0397287
000390 0c 00 62 bd 38 80 46 3c 0d ff 80 3e 62 1f c9 3d
       -0.055175826 0.012115531 0.25194588 0.09820439
0003a0 b2 59 2a bc 84 0f c8 bd a2 60 5b 3d 2c 34 8c 3d
       -0.010397362 -0.09768584 0.053558953 0.068458885
0003b0 ea d6 27 3d a7 72 93 3d a8 7b 3b 3c a3 fc 66 bc
       0.040976442 0.071996026 0.011443056 -0.014098319
0003c0 94 51 42 bd c3 ca 64 ba 73 4c e1 bc fc 8b c0 3c
       -0.04744108 -0.00087277236 -0.027502274 0.02350425
0003d0 92 b7 9c 3d b3 33 eb 3d 14 de 21 be 1c df a8 bd
       0.07652201 0.1148447 -0.15807372 -0.0824568
0003e0 51 86 26 bd 29 09 8e 3d 0f 98 1d 3d 78 d3 99 3d
       -0.040655438 0.06935341 0.038475093 0.075110376
0003f0 b7 dd c0 3c 03 14 6f bd c7 63 47 3b b7 60 c0 3c
       0.023543222 -0.058368694 0.0030424462 0.023483617

fc1.bias f4 [256]
000000 16 d1 9b 3d 02 05 19 3b 42 83 f6 bd 7b e7 ae 3d
       0.07608239 0.0023348932 -0.12036754 0.08540245
000010 0d 9a b9 3d 47 10 66 bd 61 5d 25 be d0 8f da bb
       0.09062586 -0.056167867 -0.16148902 -0.006669976
000020 00 b0 2e bc 6a 0d 28 3e f2 75 51 bc e9 c6 76 3d
       -0.010662079 0.16411367 -0.012784468 0.06024829
000030 3f e9 80 3e 2f e2 2c 3d 82 69 21 3e 81 1e 56 bd
       0.25177953 0.042207893 0.15762904 -0.052275185
000040 ab 43 9e 3d 5a 91 a4 bd e2 f0 88 3e 48 a8 a9 bd
       0.077277504 -0.08035536 0.2674628 -0.0828405
000050 78 33 6e 3d ad ce 07 3e e2 8c 16 3e 79 7d 20 3d
       0.058154553 0.13262434 0.1470218 0.03918216
000060 57 66 1a 3d 64 53 2f bd 1b 9f d6 3d fe 24 d4 bb
       0.037695255 -0.042804137 0.10479566 -0.0064741364
000070 cc 43 98 3d f6 73 0c 3e cf b5 3d 3e b5 4c 85 bd
       0.07434806 0.1371611 0.18526386 -0.06508771
000080 a1 71 4b bd c4 b0 6a 3c 03 5f c4 3d 7d 82 2c 3a
       -0.04966891 0.014324371 0.095884345 0.00065807236
000090 a7 02 55 3e a9 1b 2c 3e 88 b4 bd bd 6e c2 4d 3e
       0.20801793 0.16807427 -0.09262949 0.200937
0000a0 9e 9d 95 bd 72 1b a4 bd bb a6 db 3d cd a4 bd bd
       -0.07305454 -0.08013047 0.10725161 -0.09259949
0000b0 0a cc b3 bc 72 9b 53 be 02 cc 85 3d a3 60 0b 3e
       -0.02194788 -0.20664766 0.06533052 0.13611083
0000c0 6e 14 1f 3e bd 78 8e bd 6a e9 15 be 7f 93 e9 3d
       0.15535137 -0.06956623 -0.14639822 0.11405086
0000d0 d2 0a ac bd 05 39 b1 bd 69 1d 1d be c6 15 0a 3e
       -0.08400501 -0.08653454 -0.1534325 0.13484868
0000e0 ff f5 4d bc 92 ef cb 3d c6 d8 20 3d 6b c4 6e 3d
       -0.012570857 0.09957804 0.03926923 0.058292788
0000f0 11 ef 38 3c f5 b2 01 3e 66 9c d9 bd cd 70 12 3d
       0.011287467 0.12665923 -0.10625534 0.035752106
000100 ca 15 4e bd 0f 02 19 be 5f bb 89 3d e3 1f 32 3e
       -0.05031375 -0.14942192 0.06725191 0.17394976
000110 af cc e0 3d d0 6c 40 3d 10 52 56 3e 91 e7 7a 3d
       0.1097654 0.04697877 0.20929742 0.061255995
000120 94 fa d0 bd 37 80 18 bd 53 eb a2 3d 51 86 3c 3e
       -0.10204044 -0.03723165 0.07955041 0.18410613
000130 17 91 03 3e ed 2b 47 3d bd 4a 63 3e 6c 77 fa bd
       0.12848316 0.048625875 0.22196479 -0.12229809
000140 6c 50 13 3c e9 d4 e4 3c bf 78 9f bc e0 52 42 3e
       0.008991342 0.027933555 -0.019466756 0.18976927
000150 62 1c 01 3e a8 60 35 be 8e 63 01 3e fb 6b 1a 3e
       0.12608483 -0.17712653 0.12635633 0.15080254
000160 4e cb 01 3e f2 a6 cc 3d 60 43 37 3e a5 82 ff 3d
       0.12675211 0.0999278 0.17896795 0.1247609
000170 92 b7 33 3e f4 d6 44 bd 40 80 2a be 34 a8 f1 3d
       0.17550495 -0.048056558 -0.16650486 0.1179966
000180 be 3f 78 3e 20 07 13 bd 8f 5d 67 3e 33 0b 24 3d
       0.24243066 -0.035895467 0.22594284 0.040049743
000190 a5 b7 0a 3e a6 fe d0 3d e7 e6 8a 3d 19 08 e5 bd
       0.13546617 0.1020482 0.067823224 -0.11183185
0001a0 87 55 b3 bd ae 89 0e 3e 96 53 3b be f1 55 28 3e
       -0.087565474 0.13919708 -0.18293604 0.16439034
0001b0 82 5d 2b 3e 92 d9 df bd e8 cc eb 3d 8c e1 86 3e
       0.16734889 -0.1093017 0.11513692 0.26343954
0001c0 90 a8 8e bd b0 8b 9e 3d 95 88 82 3c 39 8a 32 bd
       -0.069657445 0.07741487 0.015934268 -0.04358885
0001d0 6f f1 7a 3d 50 90 94 bd 57 bb 54 3c 08 05 64 be
       0.061265405 -0.07254088 0.012984118 -0.22267544
0001e0 29 5e 2a 3e fc a5 05 3e 70 1e 22 3e 07 b9 a3 bd
       0.16637482 0.130516 0.15831923 -0.079942755
0001f0 e8 d2 7e bc 73 20 9d 3d 01 e4 04 3e e2 7e 6a 3e
       -0.015553214 0.07672205 0.12977602 0.22899964
000200 5b 52 ea 3a ff bf 75 3e 25 a9 df bd 54 8c aa bd
       0.0017877327 0.23999022 -0.10920934 -0.08327547
000210 84 b9 70 bc 76 f0 64 3e 52 f3 23 bc 4f 3e 6d bd
       -0.014692668 0.22357354 -0.010006743 -0.05792075
000220 4f cf f8 bd f7 65 1c 3e 02 55 64 be e6 c3 69 bd
       -0.12148916 0.15273272 -0.22298053 -0.05707159
000230 bf e0 7d 3e 1b a5 d8 bd c5 37 20 bd e8 ce 86 bd
       0.24792765 -0.10578366 -0.039115686 -0.06582433
000240 c9 27 4b 3e 92 b5 f2 bb 62 5b 9b 3c cb 5b a9 bd
       0.19839396 -0.007406899 0.018964473 -0.08269461
000250 07 6f c6 3d 97 45 55 3e ca aa 50 bd 6d 8d 79 bc
       0.096891455 0.20827328 -0.050944127 -0.015231472
000260 3d 5d 07 be 41 39 1e 3e 83 13 a1 3d 3c 4e 5f 3a
       -0.13219161 0.15451528 0.0786505 0.0008518433
000270 b7 ea 35 bc 5b 06 57 bd f6 e2 4c 3d 73 81 03 be
       -0.011103324 -0.052496295 0.050021134 -0.1284235
000280 33 ac f1 3d 9b 86 a5 3d 63 f9 10 bd f5 05 10 be
       0.118004225 0.080823146 -0.035394084 -0.14064772
000290 48 0d a8 3d 45 22 d4 3d d2 16 55 3e d5 97 d9 bc
       0.08205658 0.10358099 0.20809487 -0.026561657
0002a0 bd 1c 7a bc 3e da 6b 3e f5 fa f4 3d 14 ac 91 3d
       -0.015265641 0.23032472 0.11961929 0.071128994
0002b0 09 59 5f 3e 46 56 a5 3e 35 ab c2 3c 2a 0e 53 3e
       0.21811308 0.32292384 0.023763278 0.20610872
0002c0 0d 41 8a 3e ce ca 4f 3d 93 51 62 3e 59 8c e4 bb
       0.27002755 0.05073052 0.2210143 -0.0069747386
0002d0 23 84 13 bd 6f 25 0b 3e 0b f9 54 3c fb 46 2d 3c
       -0.036014687 0.13588499 0.01299883 0.010576005
0002e0 cc 0a 7d 3c cf fd 81 bd ef e1 40 3d 78 1b 5a bd
       0.015444469 -0.06347238 0.047090467 -0.053248852
0002f0 45 71 bc 3d e0 2b 73 3e 72 44 97 bc 90 e6 d7 3d
       0.09201292 0.23747206 -0.018465254 0.10542023
000300 be c4 ae 3b 01 bd 00 3e 09 13 d6 3d ce 4b 8b bd
       0.005333512 0.125721 0.104528494 -0.06801568
000310 a0 37 b6 3c 53 d1 33 3c 85 53 35 3c 9f ba 33 bd
       0.022243321 0.0109752 0.011067276 -0.043879148
000320 09 15 a5 bd b0 78 1a 3e 6e 0e ba 3d da 94 65 bd
       -0.08060653 0.15085101 0.090847835 -0.05605016
000330 9a 52 58 3e 27 f2 8f 3d 73 fc a4 3c 40 d3 db 3d
       0.2112526 0.07028609 0.020139908 0.10733652
000340 3b 54 f8 3c df 52 5b bc ac 81 0d 3e 05 e0 ff 3d
       0.030313602 -0.013386457 0.13818997 0.124939
000350 bb 2a 13 3e 33 59 f0 3b 3f c2 70 bd 8a a2 13 3e
       0.14371769 0.007334852 -0.058778998 0.14417472
000360 55 19 9e bc 0b 7b c3 3d 5f d3 42 3e 49 9a c7 3c
       -0.019299189 0.09544953 0.19025944 0.024365561
000370 42 18 2f 3e 3f cd ec bd 8c b5 22 be 8a 5f b0 bd
       0.17099097 -0.11562585 -0.15889567 -0.08611973
000380 e8 8b 38 3e 2f 81 82 bd 0f 9e ff bd 90 0f 16 be
       0.1802212 -0.06372296 -0.12481319 -0.14654374
000390 83 d6 9f bd 8b f7 b2 3d 8b 73 14 3d c1 ca 12 3e
       -0.07804587 0.08738621 0.036243003 0.14335157
0003a0 dc 78 58 be 57 47 2e be 9d c2 89 3e fe ed fb bc
       -0.21139854 -0.17019401 0.2690629 -0.030753132
0003b0 2d c7 07 3e a4 5f 4f 3d 3a 1b 0e 3d 38 ad d8 bb
       0.13259573 0.05062832 0.034693934 -0.006612446
0003c0 5b 08 85 3d 86 a5 aa bd da ca a7 3d d7 23 8d 3c
       0.06495734 -0.08332352 0.08192988 0.017229004
0003d0 7a 7a 35 3e b4 97 27 3e bf 2d 29 3e a5 3f 0c 3e
       0.17722502 0.16366464 0.16521357 0.13696153
0003e0 3d 03 23 bd 77 3b 56 3b ae 12 4f 3e c4 85 14 bc
       -0.03979801 0.0032689252 0.2022197 -0.009065095
0003f0 23 d0 f5 3d 04 b0 9e bd 58 66 02 3e 4f 08 88 3d
       0.120025896 -0.07748416 0.12734354 0.0664221

fc2.weight f4 [128, 256]
000000 c0 ae ed bd 56 2a 8e bd 62 fb e6 3d 31 2d 34 3d
       -0.116055965 -0.06941669 0.11278416 0.04398841
000010 a3 66 a3 bc 83 1e aa 3d 3b 29 f8 bd 1c 07 fd 3a
       -0.019946402 0.08306601 -0.12117239 0.0019304487
000020 c9 a3 80 bd 2a d1 bb 3d a3 ba c8 3d 9c fa a1 ba
       -0.062812395 0.09170754 0.09801223 -0.0012358013
000030 a5 0f 82 3c cf c3 77 bd 9d 70 de 3b ea a8 5f bd
       0.0158766 -0.060489472 0.006788327 -0.05460445
000040 49 89 2f 3c ab 27 02 bd f5 23 af bd 18 2f 05 3d
       0.010713884 -0.03177611 -0.0855178 0.032515615
000050 2f 53 e2 bc 53 3c 6b 3d 40 20 20 3e 8c e1 ed bd
       -0.027627556 0.057430577 0.15637302 -0.11615285
000060 2b 1e 64 3c f5 d4 07 be a1 92 f9 bb 96 5f cf 3d
       0.013923208 -0.1326483 -0.0076163565 0.101256534
000070 ee 81 0e 3c 4c 73 a6 3d 40 e0 a3 bc 05 47 b9 3d
       0.00869797 0.0812746 -0.020004392 0.09046749
000080 91 e2 86 bd c1 a5 21 3d fb 2e e4 3c 41 fd 56 bd
       -0.06586183 0.039464716 0.027854433 -0.052487615
000090 18 a7 15 bd e5 dd b9 bd 45 0a 76 bd be 55 cd bd
       -0.036536306 -0.09075526 -0.060068388 -0.1002612
0000a0 30 39 24 be 70 be ae 3d 80 49 ee 3b d1 27 46 bd
       -0.1603744 0.08532417 0.0072719455 -0.048377816
0000b0 c8 9d f1 bb 11 b0 74 3d 67 8c 34 be b8 98 1d 3d
       -0.0073735453 0.059738223 -0.17631684 0.038475722
0000c0 e4 db 23 3d fe ac ba bd fb 7c d0 3d 60 49 34 3e
       0.040004626 -0.09115027 0.10180088 0.17606115
0000d0 4b 59 8e 3d 55 27 e8 3d 5f a5 05 3e 7a 3e fd 3d
       0.06950625 0.11335627 0.13051365 0.12365432
0000e0 e6 63 ab bd 28 85 da ba eb 5f 18 3d 15 11 99 3c
       -0.083686635 -0.0016671764 0.03720085 0.018684903
0000f0 a9 88 32 3d f0 0f 90 3d 36 fa f5 3d 53 fc 4f bd
       0.04358736 0.0703429 0.120106146 -0.050777745
000100 8d 96 8d 3d 2f ee 3b bd 78 ef 24 3d f4 d1 34 3d
       0.06913481 -0.045881446 0.040267438 0.04414554
000110 56 a4 06 3c 00 c5 14 3d 0f 49 a2 bd 05 ba ab 3d
       0.008217892 0.036320686 -0.07924091 0.0838509
000120 1f 0b 91 3a 55 ba 8e bd 7e 75 43 3a 31 36 58 3d
       0.0011065936 -0.06969134 0.00074561674 0.052786056
000130 5f 05 d2 bd 6d f8 88 3d 06 42 47 be 7a e1 46 3e
       -0.10254931 0.066880085 -0.1945878 0.1942195
000140 da 81 d7 bd 36 1f 82 bc 6f 0d 49 bd 97 05 f0 3b
       -0.10522814 -0.015884023 -0.049085077 0.007324885
000150 e7 4a 50 3e 54 d6 38 bd cb e5 df bd 33 b6 02 3e
       0.20341073 -0.045126274 -0.109325014 0.12764816
000160 85 2d a8 3d 23 f2 6f 3d f3 64 ca 3d a9 54 45 3d
       0.08211807 0.05858053 0.09882536 0.04817644
000170 2d 54 bb bd 6b ed ad bd 61 39 fc bd d5 c0 d7 3c
       -0.09146915 -0.084925495 -0.12315632 0.026337067
000180 46 ca 56 bc 85 cc 3f 3d 39 e9 53 bd 89 07 92 3e
       -0.013109749 0.046825904 -0.05173609 0.28521374
000190 37 af d5 3c 66 02 2f 3e d6 73 10 3d bb 3c 29 3d
       0.026084526 0.17090759 0.03526672 0.041317683
0001a0 ad 55 c2 bd fc 1c f9 bd 82 ea 2b be 2f 18 c1 3c
       -0.094889976 -0.121637315 -0.16788676 0.023571102
0001b0 f8 02 04 3c 99 15 39 bc 28 cf 83 3b c1 39 ec 3b
       0.008057348 -0.011296653 0.0040224977 0.0072090332
0001c0 d7 ec 36 bd 02 0d 68 bd c2 8f 7c 3d 1d fb b3 bb
       -0.04465946 -0.05665303 0.061660536 -0.0054925815
0001d0 a1 ad fa bc 87 3f a7 3c a6 13 88 bd 8f 72 8f bd
       -0.03060037 0.020416034 -0.06644373 -0.07004272
0001e0 37 10 c6 bc 66 33 10 3d 21 98 be bd aa 72 d0 bd
       -0.024177654 0.035205267 -0.0930636 -0.101781204
0001f0 87 d6 2b 3c 9c e4 5c 3d 62 66 a0 bd c0 f5 29 3e
       0.010488159 0.053928956 -0.07832028 0.16597652
000200 1a 90 ed 3c f7 25 62 3d e2 1b 38 3d 1c 05 b2 3b
       0.028999377 0.055211987 0.044948466 0.005432738
000210 d9 30 59 3e 3b 18 11 be 9f e5 55 be ad 85 8b 3d
       0.2121004 -0.141694 -0.20888375 0.06812606
000220 cc 38 20 bb b6 41 df bc 28 a9 b7 3d 11 79 06 3c
       -0.0024447916 -0.027253013 0.08967811 0.008207575
000230 43 66 9d bc 1a 4a fb bc 1f ee d9 3d 94 2b ff bc
       -0.019213801 -0.030674983 0.10641121 -0.03114871
000240 a9 b8 33 3d 5e 8c 2e 3d 73 63 a0 bd a6 27 a0 3c
       0.043877278 0.042614333 -0.078314684 0.019550156
000250 30 68 8d 3d 4b 7b a6 3d 31 cb 8a bd 43 e1 60 3e
       0.06904638 0.08128985 -0.06777037 0.2196093
000260 0c 4b b5 bd 4d c8 86 bb f1 62 81 3d 14 72 a7 3d
       -0.08852205 -0.004113233 0.063177 0.081760556
000270 51 81 c3 3d 5e 43 35 3e 44 9b 8c bd 5f 74 6a 3e
       0.095461495 0.1770148 -0.06865552 0.22895955
000280 b1 c7 8a bd 6a 4b 5f 3c 38 ab 85 bd c7 df 1b 3e
       -0.06776369 0.01362882 -0.06526798 0.15222083
000290 b0 7e 11 be 46 2f 03 be e5 f8 70 bc b9 ed 0b be
       -0.14208484 -0.12811002 -0.014707779 -0.13664903
0002a0 18 82 75 3d 1a 42 c6 3c 7e f5 df bc 03 8c db 3d
       0.05993852 0.024201442 -0.02733874 0.107200645
0002b0 73 52 bf bd 06 81 3f 3d 6e c9 ad 3d 76 08 86 bc
       -0.09341898 0.046753906 0.08485685 -0.016361456
0002c0 c7 0b bd 3d b3 d6 2e 3e 58 67 b3 bd 92 5e 0d 3e
       0.09230762 0.17074089 -0.08759946 0.13805607
0002d0 82 bb 25 bd 38 29 be bd 48 d3 0f 3e 67 e7 ca bd
       -0.040462025 -0.092852056 0.14045441 -0.09907418
0002e0 9c 7f 5f bc f5 59 a5 3c b2 6a e7 3d e8 37 c0 3d
       -0.013641264 0.020184496 0.112996474 0.09385663
0002f0 92 ec 5f 3c 84 d7 3c bd 29 b8 ef 3d 41 1b a7 bc
       0.013667243 -0.04610397 0.11705048 -0.020398738
000300 f8 6c 8d 3d 5c 19 95 bd ca c7 95 bd a0 a2 d9 bd
       0.0690555 -0.072802275 -0.07313497 -0.106267214
000310 bc f8 c9 3c 7e ec 2a 3d 94 92 ab 3d cd 58 1b bc
       0.024654739 0.041729443 0.08377567 -0.009481621
000320 66 8a ef bd a9 6c 9f 3d f0 c8 ae 3d 4d 89 0a bd
       -0.11696319 0.07784397 0.085344195 -0.033822346
000330 bd bb 76 3c 82 85 e7 3d 04 3c b2 bd e9 5c 1e be
       0.015059409 0.113047615 -0.08702853 -0.1546513
000340 cf b5 56 bc ab e1 81 bd 55 4c 6a 3d 12 0d bf 3d
       -0.01310487 -0.06341871 0.057201702 0.09328665
000350 89 c5 8f 3c 7d c9 32 be bc 88 e0 bc a3 04 6f bb
       0.017550247 -0.17459674 -0.02740895 -0.003647127
000360 95 2f 48 3d f5 ba b1 3c db 71 f8 bd 2b cb ca bc
       0.048873503 0.021695593 -0.12131091 -0.024755081
000370 a6 19 0c 3d b2 2f b8 3d 90 15 86 be 91 7c df bc
       0.034204148 0.08993472 -0.26188326 -0.027281078
000380 09 84 5b 3e 5c cc b7 bd bc cd 3b bd b2 d2 f0 bc
       0.21437086 -0.08974525 -0.0458505 -0.029397342
000390 6a 33 80 3d a2 5a d5 bd 0c 62 03 3e 8a 1c b6 3d
       0.062598065 -0.104176775 0.1283037 0.08892162
0003a0 98 10 9c 3d fd e8 b3 3c e2 ce 99 3c 73 2a 25 be
       0.076203525 0.021961683 0.018775407 -0.16129474
0003b0 ea 4d 1e bb db 8f c6 3d c9 2c 2f 3e ac a6 aa 3d
       -0.0024155327 0.09695407 0.17106928 0.083325714
0003c0 72 d4 78 3d 56 b9 00 be 04 f9 30 be d8 56 88 bc
       0.06074948 -0.125707 -0.17282492 -0.016642973
0003d0 9d bd b2 bd f9 5c 41 3c 77 7a 82 bd d5 db 26 be
       -0.08727572 0.011801952 -0.063710146 -0.16294797
0003e0 78 ed fa 3c 59 7c e7 3d cc 7b a5 bd c8 67 26 3e
       0.030630812 0.11303014 -0.08080253 0.16250527
0003f0 34 33 25 bc 87 af f2 3d 6b 26 b5 3d 08 3c 84 bd
       -0.010083009 0.118498854 0.08845218 -0.064567626

fc2.bias f4 [128]
000000 4c 68 5c 3c 4a 44 4b bd e3 28 2b 3b f4 da 86 bd
       0.013452601 -0.049625672 0.00261169 -0.06584731
000010 32 f2 94 bd cb 54 89 3d 2b de ad bc 3b 14 43 bd
       -0.072727576 0.06705626 -0.021224102 -0.047626715
000020 8e 2f a1 3c 40 44 3a 3d a9 b4 ed 3c 1e ff 0a bd
       0.019675996 0.045475245 0.02901681 -0.033934705
000030 ac 6e e7 bb 84 96 f5 3b 4c 60 5e bd 60 a1 12 3d
       -0.0070627537 0.0074947495 -0.054291055 0.03579843
000040 8a eb 52 3d 00 ae 9c 3c 79 29 7f bb 11 40 89 bd
       0.05149416 0.019125938 -0.0038934632 -0.06701673
000050 1f 20 24 bd 4d 86 45 bd 32 ca 82 bd 9f 41 bc 3c
       -0.040069696 -0.048223782 -0.06386222 0.02298051
000060 95 35 1f bc 03 e3 9b bc 0d 6c 0d bd dd a4 85 3d
       -0.009717365 -0.019029146 -0.034526873 0.06525586
000070 d4 49 05 3d 25 0b ac 3b 9f 20 47 bd df 68 8f 39
       0.03254111 0.005250352 -0.048615094 0.0002735322
000080 a6 ec 48 bd df 77 75 bc 82 64 9e bd 4a fd 67 3c
       -0.04905381 -0.014982193 -0.07734014 0.01415951
000090 82 ba e5 3c e7 91 1a 3d f2 e8 c3 3c 56 82 15 bd
       0.028043035 0.0377368 0.023914788 -0.03650125
0000a0 f6 ea 78 3d 5d 12 6a 3c 7f a9 7e bc 2c 36 e9 3a
       0.06077095 0.014286605 -0.015543341 0.0017792634
0000b0 02 81 5e bc b7 ef 28 3d b1 8d 7a 3d 2d 1d 1e bd
       -0.013580563 0.041244235 0.061170284 -0.038602043
0000c0 46 cd eb bb 54 45 0c 3d fb de 65 bb b2 fa 82 bc
       -0.0071961014 0.034245804 -0.0035075534 -0.015988681
0000d0 d9 d5 e1 bc c3 39 40 bc 81 39 3f 3c d8 a5 a7 3d
       -0.02756779 -0.0117325215 0.011671425 0.08185929
0000e0 bc 3f 39 3d f9 24 4a 3d c2 68 12 3d 40 70 bd 3b
       0.045226797 0.049351666 0.035744436 0.0057812035
0000f0 98 3f 9b bc 58 dd 24 3d b0 6e fa ba d3 cb 11 3d
       -0.018951222 0.040250152 -0.0019106474 0.035594773
000100 33 b4 5a bd 69 fe 5e 3d 8e e5 fd bc a2 ad 42 3b
       -0.053394508 0.054441843 -0.03099325 0.0029705544
000110 12 a3 b5 bc 6b fc 50 3c 28 c0 49 bb 07 78 a0 3d
       -0.022172485 0.012755494 -0.00307847 0.078353934
000120 c5 77 66 3c 68 5d 1d bd ad 1f 74 bc da d9 7a 3d
       0.014066641 -0.038419157 -0.01490013 0.061242916
000130 0c 42 69 bd 17 26 e7 3c da 36 5b 3c 78 2e 8f 3d
       -0.056947753 0.028216405 0.013379777 0.06991285
000140 f1 35 14 bd d9 45 4f 3c 10 d6 ca 3c db 9f fe 3c
       -0.036184255 0.01265093 0.024760276 0.031082084
000150 1e 25 ef bc 3c b4 21 bd 34 8a bb 3c f5 28 59 3d
       -0.029192504 -0.039478526 0.022893049 0.053017575
000160 9d e9 de 3c b4 91 00 3d 14 d3 56 3d 6a 8f 39 3d
       0.027211005 0.031388953 0.052447394 0.045302786
000170 d7 f3 a2 3d cb af 28 3b 0e e3 5b bd 10 e2 02 3d
       0.07956665 0.0025739546 -0.053683333 0.03195387
000180 67 b7 e4 bc dc 1d ad 3c 48 6f 39 bd 71 04 52 3c
       -0.027919484 0.021132402 -0.04527214 0.012818442
000190 d2 5b 79 bd 21 08 9a 3d f6 cb ff 3c e5 05 8e 3b
       -0.060878582 0.07521082 0.031225186 0.004334199
0001a0 dd 13 9b 3c 7b be 52 3d fa 99 40 bd b8 6d ea 3c
       0.01893037 0.051451188 -0.047021843 0.028616771
0001b0 61 cf a6 3d a4 b2 75 bd 6d 5a 1d bd c1 37 b0 bd
       0.08145023 -0.059984818 -0.038416315 -0.08604384
0001c0 93 1a 4b 3d c0 96 46 bb d6 4c 9f 3d 65 ae 8b 3c
       0.04958589 -0.0030302256 0.07778327 0.017050931
0001d0 b8 33 08 3d f6 0d 72 3c cc 89 9c 3d b2 f0 64 3d
       0.033252448 0.014773836 0.0764347 0.055893607
0001e0 b1 cf 19 bd 89 2e 2b 3a 29 10 d2 3c 87 77 5c 3d
       -0.037551586 0.00065300666 0.025642471 0.053824928
0001f0 7c 17 3c bb 0b 85 37 bd 19 47 f6 bc fa 34 57 bc
       -0.0028700521 -0.044804614 -0.030063199 -0.013135189

fc3.weight f4 [4, 128]
000000 7b 8b 10 3e 9b 65 11 bc 90 ec ab 3b ec 0a a5 3e
       0.14115708 -0.008874322 0.0052467063 0.32234895
000010 47 d0 83 be 7d d5 03 be 0b cb 23 3e e7 a3 68 3e
       -0.2574484 -0.12874408 0.15995423 0.22718774
000020 3d a8 6c 3c 3c cf 67 bc d0 f6 52 3c 60 1c 39 3d
       0.014444408 -0.01414853 0.0128762275 0.045193076
000030 87 3b 0a bd 01 70 e4 3d b7 d3 12 3e 1b 01 9a 3d
       -0.033748176 0.111541755 0.14338575 0.07519742
000040 7e 85 dc bb 91 91 4a 3c 24 33 dd ba 06 c9 10 3e
       -0.0067297807 0.012363807 -0.0016876203 0.14139184
000050 ca 54 77 3d 1c c0 11 3e 73 7a 2a be a9 5f 9f bd
       0.060383596 0.1423344 -0.16648273 -0.077819176
000060 af 56 cb bd af 7c 35 3d 76 8f 59 bd 2d 62 1d bd
       -0.09928643 0.04430836 -0.05311533 -0.038423706
000070 de 11 45 bd 1f 29 d4 3a f2 47 81 3c 01 3a 4d be
       -0.048112743 0.0016186571 0.015781377 -0.20041658
000080 6d 63 45 bd 2b 3b 06 3e 03 12 12 3d 84 38 09 be
       -0.048190523 0.13108508 0.03566171 -0.13400465
000090 6f 12 11 be 82 52 f4 bc 21 ef 6e bd d7 a2 5b bd
       -0.14167188 -0.029824499 -0.05833352 -0.053622093
0000a0 8e 11 bb bd 3b c4 2d bd eb 74 ea 3d 69 bb 7c 3d
       -0.09134208 -0.042423468 0.114480816 0.061702166
0000b0 eb 53 f3 3d 8d e3 79 3e 58 cd ad bb bb 12 aa 3c
       0.118812405 0.2440321 -0.00530402 0.020760885
0000c0 cb 74 13 be cf b1 a3 3a 56 ed 9b bd e7 6c ee 3d
       -0.14400022 0.0012488904 -0.076136276 0.11641865
0000d0 e0 4e aa bd 47 25 f7 3d 81 56 65 bc ef 32 b2 bd
       -0.083158255 0.12067657 -0.013997675 -0.08701121
0000e0 7b d8 30 b9 71 7f 31 be 96 45 58 be e8 e5 60 be
       -0.00016865313 -0.17333771 -0.21120295 -0.21962702
0000f0 88 67 be 3d f6 b5 7d bd 22 e5 d7 bb 21 17 05 3e
       0.09297091 -0.06194111 -0.006588594 0.12997104
000100 fd 35 77 3d 01 a9 cd 3d 6c 19 3e 3d 83 97 5a 3d
       0.06035422 0.100420006 0.046410963 0.05336715
000110 50 39 fe 3d 9c 7d 13 3d e8 ad ab bd e0 8b 44 bc
       0.12413275 0.036008462 -0.08382779 -0.011996239
000120 94 67 2b 3d 4d 45 4a 3e 12 bd 7d bc ea b2 02 bd
       0.041846827 0.19752999 -0.015486972 -0.031908907
000130 bf fa 13 3e 0a 9b e6 3d 6a b4 c4 3d 9f 18 5d bc
       0.14451121 0.1126004 0.09604724 -0.01349464
000140 77 cc ec bc 84 49 04 3e a4 bd 80 3d d9 21 fc 3c
       -0.02890609 0.12918669 0.06286171 0.030777859
000150 de d1 33 3c 0e 40 95 3d e2 97 a6 3d 64 95 18 3e
       0.010975329 0.07287608 0.08134438 0.14900738
000160 ad 27 06 bd 8a 81 70 bd 3c 89 af 3d 77 3a a7 3d
       -0.03275268 -0.058717288 0.08571097 0.08165448
000170 6b 9b 22 bd e9 a1 1f bd d2 eb 9e 3d 17 70 0d 3e
       -0.039699 -0.03897277 0.07759823 0.1381229
000180 53 f2 68 3e 82 8e 4e be 76 11 83 be 4b 44 bb 3b
       0.2274869 -0.2017155 -0.2559926 0.0057149283
000190 0d 21 4c be 4e 2c a3 bd c5 26 43 bd cd 95 09 be
       -0.19934483 -0.07967435 -0.047644395 -0.1343605
0001a0 49 6d f9 3d 08 2c c3 bc 4e 0b 36 bb a6 35 b5 3d
       0.121790476 -0.023824707 -0.0027777734 0.08848123
0001b0 6f 35 78 bd 3b 5c b3 bb 1b bc bb bd 58 f5 83 3e
       -0.060597833 -0.005473641 -0.09166738 0.2577312
0001c0 52 32 1b 3c 05 3a 4b bd 05 f0 78 bd 32 fa 7a bc
       0.0094724465 -0.04961588 -0.060775775 -0.01531844
0001d0 d2 56 c0 3d ce 59 17 3e b2 db 1c 3e 54 6b c4 3d
       0.0939156 0.14780352 0.15318182 0.09590784
0001e0 05 d4 e1 bc 3f 89 84 3e 7e d1 60 bd 2f 69 07 bd
       -0.02756692 0.2588596 -0.054887287 -0.033059295
0001f0 8b 68 9f bd 82 12 37 3d bf 85 7b 3d 41 fd 16 be
       -0.07783612 0.044695385 0.061406847 -0.14745046
000200 25 19 76 bd 4d 6e 8f 3d 7a 22 58 3b 4d 90 2c be
       -0.060082573 0.0700346 0.0032979534 -0.16851921
000210 45 50 4e 3d 07 d7 9b 3e 5e f7 a3 bd af d2 95 bd
       0.05036952 0.3043749 -0.08006166 -0.07315575
000220 f0 d6 94 3d e3 19 a6 bc 6f 2f bb be e9 ca 3e 3e
       0.072675586 -0.020276016 -0.36559626 0.18632092
000230 be 54 9b bc 10 2e 4c bd 61 80 ae bd 2e 7b 41 3d
       -0.018961307 -0.049848616 -0.0852058 0.047236614
000240 7c ea a5 bc 71 2c 0e 3e 64 5a 0e 3e 81 ce 20 bc
       -0.020253412 0.1388414 0.13901669 -0.009814859
000250 d0 a5 5a 3e c3 5c 2f 3d 46 fc 80 bd a5 8b 47 3d
       0.21352315 0.042813074 -0.06298117 0.04871716
000260 94 5e ec 3c 2c d8 c5 bc fd 9c cb 3d 39 58 89 3d
       0.028853692 -0.02415093 0.099420525 0.0670628
000270 a5 98 e4 3c ce 77 28 be 7f 89 c7 3d 33 be c6 bd
       0.027904818 -0.16451952 0.09743022 -0.09704246
000280 8b c5 04 bd f7 1b 09 3e a4 69 a3 be ac 37 fa bd
       -0.032414954 0.13389574 -0.31916535 -0.1221765
000290 5c f6 85 3d 18 20 28 3d 06 dc e3 bd 99 55 b4 3d
       0.0654113 0.041046232 -0.111259505 0.08805389
0002a0 d4 57 d8 bd 35 2a 76 bc 26 7e f4 bc f3 4a ab bd
       -0.10563627 -0.015024711 -0.029845309 -0.08363905
0002b0 c6 d1 a3 3d 58 93 4c bd 5f dd fa 3c 4a e1 50 3e
       0.079989955 -0.049945205 0.030623136 0.20398441
0002c0 b1 ca c9 be 38 64 9d 3c 88 e4 1f bd 31 ba d3 3d
       -0.39412454 0.019212827 -0.039036304 0.103382476
0002d0 6b cf 3b 3d 07 bd d1 bd 7e 6c 86 bb a1 14 a9 bd
       0.045852106 -0.10241132 -0.0041022887 -0.08255888
0002e0 c2 8c 03 be ae 67 82 3d 73 97 b6 bd d9 b8 06 3c
       -0.12846664 0.063674316 -0.089156054 0.008222782
0002f0 70 ed 9e bd 8c 32 5d bd 16 0b 46 bd db c7 87 3e
       -0.07760131 -0.054003283 -0.048350416 0.26519665
000300 b2 d3 3d be e4 25 0b be 74 8c 8a ba 01 a3 c0 bc
       -0.18537787 -0.13588673 -0.0010570423 -0.023515226
000310 fb 9b 2f be 6d 3d a1 bd 18 f1 4d bc 51 6c 85 bc
       -0.17149346 -0.07873044 -0.012569688 -0.016287
000320 fa ef d8 3a c7 22 fa 3c ca 8f 55 3e c2 c8 58 be
       0.0016551011 0.030534161 0.20855632 -0.21170333
000330 36 e6 f4 3d ce eb 4b 3e 34 9b 88 bd 44 a7 25 3d
       0.11957972 0.19914171 -0.06670228 0.04044272
000340 ac 67 65 bd 96 55 df 3d b4 ae 43 bd 43 df 5d bd
       -0.056007072 0.10904996 -0.04777403 -0.054167997
000350 da ce 69 3e 70 f1 6e bc c0 f6 66 be 2f 36 3d 3b
       0.22832814 -0.01458393 -0.22555065 0.0028871407
000360 66 6d 98 bd 11 04 87 3c 68 46 36 3d 51 f5 1a 3e
       -0.07442741 0.016481431 0.04450074 0.15132643
000370 a3 36 18 bc e6 89 2d be cf c7 01 3d 47 c4 31 3b
       -0.00929037 -0.16947135 0.031684693 0.0027125047
000380 b6 32 3a 3d 52 c6 d0 bc 69 c5 52 be 65 1d 08 bd
       0.045458518 -0.025485191 -0.20583118 -0.033231158
000390 b8 4b 8c be 16 61 7f 3d 07 cf 70 bd 07 2a 4f 3e
       -0.2740152 0.062348448 -0.058791187 0.20230876
0003a0 0e 7b 6c 3e 23 aa 4c bc b3 c1 41 3d 88 9b 34 be
       0.23093817 -0.012491736 0.047303867 -0.17637455
0003b0 84 d0 e3 bc 80 16 1b bb da ca 6e be d0 09 d9 3c
       -0.027809389 -0.0023664534 -0.23319569 0.026493937
0003c0 1c ec 16 be ac 0c b9 bd 2b dd f7 3c df eb cc 39
       -0.14738506 -0.0903562 0.030256828 0.0003908565
0003d0 7f e8 87 ba 84 55 24 3e d3 9b 01 be f1 90 1c 3e
       -0.0010368972 0.16048247 -0.12657098 0.15289666
0003e0 45 d8 3e 3d d9 70 03 3d c5 16 24 3b d5 82 f6 3d
       0.04659297 0.03209004 0.0025037986 0.12036673
0003f0 2c 2c ca 3c 5f 43 17 3c bf 9b 3a 3e 51 8f 4c 3d
       0.024679266 0.009232371 0.18223475 0.049941365

fc3.bias f4 [4]
000000 bd 64 b7 3c d1 5c 51 bd 99 9e 33 3d 28 f4 4a bd
       0.022386903 -0.051113907 0.043852422 -0.04954925

fc1.weight f4 [256, 33]
000000 f5 b0 d5 bc 9a 0e 7c bd e7 b7 a8 ba 29 9f d7 bb
       -0.026085356 -0.061537363 -0.001287219 -0.0065802527
000010 bc a0 fc bc d2 fd 14 3d aa 82 f8 bc 77 36 3f bd
       -0.030838363 0.036374874 -0.030335743 -0.0466828
000020 bf 4d d2 3c 81 d4 ce bc 8c ef 96 3d 4d 20 02 ba
       0.025671838 -0.025247814 0.07369909 -0.00049639196
000030 69 8f fd 3c 8a 1d d7 3d bc 92 f2 bb b1 ac b9 bc
       0.030952172 0.10503681 -0.007402746 -0.022665353
000040 19 be b2 bd ad 5c dc 3c f7 9c 6f bc e3 42 1d 3d
       -0.087276645 0.02689966 -0.014624826 0.038393866
000050 9d 20 b2 bd 45 e9 53 bd fe 35 3a 3b 3b b6 e9 39
       -0.08697627 -0.051736135 0.002841353 0.00044576995
000060 78 e2 46 bd c1 a3 29 bc 01 53 ac 3d e3 c1 2b 3d
       -0.04855582 -0.010353983 0.08414269 0.04193295
000070 f1 a8 96 3d 70 2a 01 3d 16 f1 0f bc 74 00 e9 3c
       0.07356442 0.031534612 -0.008785507 0.028442599
000080 72 9e 2e 3e 9b 5e a4 bd 23 b8 4b bd e2 fb 94 3b
       0.1705263 -0.08025857 -0.049736153 0.0045466283
000090 be 0d a1 3a 92 03 a6 3d 9e 32 21 3d 76 42 83 3c
       0.0012287421 0.0810615 0.039354913 0.016022902
0000a0 7a 34 17 3e a6 ed 32 3e f8 8c ac bd 86 80 18 3d
       0.14766112 0.17473468 -0.08425325 0.037231945
0000b0 49 3c d9 3d 80 23 21 3d 25 49 52 bc c8 2e df 3d
       0.106072016 0.039340496 -0.012834822 0.10897595
0000c0 d9 79 c4 3d 0c e2 ff bc 8d 2b 9e 3c db 19 96 3d
       0.09593553 -0.031235717 0.019307876 0.0732915
0000d0 e0 c3 81 3d d4 19 0e bd 2e 11 fc bc b1 47 18 3d
       0.06336188 -0.0346926 -0.03076991 0.037177745
0000e0 dd e8 bb bb 65 2c 60 bc ad 4e 19 3d e6 36 41 3e
       -0.0057345466 -0.0136824595 0.037428547 0.18868598
0000f0 61 08 3a 3e d8 a3 90 3d e8 5b 71 bd c3 1b 2e be
       0.18167259 0.07062501 -0.05892554 -0.17002778
000100 50 4e 54 3d e6 7a 39 3d 13 37 a5 bd 11 6e c9 bc
       0.051832497 0.04528322 -0.08067145 -0.024588617
000110 a4 75 a9 bd 2d d7 6a 3c 0f fa 3c 3c cf 3d aa 3d
       -0.08274391 0.0143335285 0.011534228 0.0831257
000120 a6 84 0f bd 4f 99 4a bc d0 39 f6 3d f8 e9 21 be
       -0.035038613 -0.012365653 0.120227456 -0.15811908
000130 5c d4 05 be db 5a fe bc 61 f4 4b 3d 68 55 af bd
       -0.1306929 -0.031049183 0.049793605 -0.08561212
000140 08 a3 68 3d 8b 1f 90 3b 3f 0c 13 3c bc c2 9d bb
       0.056796104 0.0043982915 0.008975088 -0.004814474
000150 b4 60 87 3d 12 44 96 bd 95 a4 3e 3d 9b 14 21 bd
       0.066102415 -0.07337202 0.046543676 -0.03932629
000160 27 15 8f bc e1 f8 50 bd f4 cc ee bc e1 8f ee 3c
       -0.01746614 -0.0510186 -0.029150464 0.029121341
000170 e7 13 0f be 5c 26 85 3d 88 6f 82 bd 96 41 06 3d
       -0.13972436 0.06501457 -0.06368929 0.03277739
000180 b1 5a 02 be 98 a1 12 bd d9 6e 90 bd e6 ae 2b be
       -0.12729909 -0.03579864 -0.070523925 -0.16765937
000190 fe ce ac 3d 80 2a b3 3d dd b6 ea bd 8c 0c 02 be
       0.08437918 0.087483406 -0.1146066 -0.12700099
0001a0 37 52 32 bd 87 69 99 bd 43 f5 83 bd 62 3f ad bc
       -0.043535437 -0.07490831 -0.06443264 -0.021148387
0001b0 23 ff d5 ba 5d 9e 00 be 0a b7 1c bd 87 3e c2 bc
       -0.0016326647 -0.12560411 -0.038260497 -0.023711456
0001c0 7d 52 c7 bd ff af 2b bd 4f e1 db bd 4c f8 8c 3d
       -0.0973253 -0.04191589 -0.107363336 0.06883296
0001d0 9f 20 ce bb 4c a3 b2 3d a7 2e 0c bc 9b d5 60 bd
       -0.00629051 0.08722553 -0.008556045 -0.05489121
0001e0 00 a4 49 bd 6d 76 d5 3c 29 0d 57 3d 81 10 28 be
       -0.04922867 0.026057446 0.052502785 -0.16412546
0001f0 4c 06 60 3d 12 3e 9b 3d 56 c0 55 3d a4 09 97 bb
       0.054693505 0.07580198 0.05218538 -0.0046093035
000200 1c 52 63 bd bd 1a b9 bc 38 cd 34 bd 96 11 f5 3c
       -0.055498227 -0.022595758 -0.044141024 0.029915612
000210 65 84 bb 3c 6f 08 f1 3c 09 3e e4 3d c2 aa f0 3c
       0.02289028 0.029422967 0.11144645 0.029378299
000220 1d 46 ba 3c c7 d9 d8 3d ea 6a 84 3d 06 b2 18 3c
       0.02273851 0.10588413 0.06465705 0.009319788
000230 52 27 96 bd 5b 95 49 3c fc 63 b2 3c 00 d0 6e bc
       -0.073317185 0.0123036755 0.021776192 -0.014575958
000240 fb 8e 51 3d 34 a5 a0 3d c6 3e c4 3d ae e9 61 3d
       0.051161747 0.0784401 0.095822856 0.055154495
000250 9f 30 7a bc 1a c9 3a bd 51 45 91 3d dd 8d 24 3c
       -0.015270381 -0.04560194 0.07093299 0.0100435885
000260 e1 62 09 3c 74 99 21 bd b6 92 10 bd b9 79 75 3d
       0.008385391 -0.039452985 -0.035296164 0.059930537
000270 ba 07 23 3d 86 63 04 be 5b f4 de 3d bf 86 08 be
       0.03980229 -0.1292859 0.10886451 -0.13332652
000280 16 44 07 bd b8 4f 37 3c b1 72 14 3e 28 a8 74 3d
       -0.033023916 0.01118844 0.14496876 0.05973068
000290 3d 49 b4 bd 06 20 5c bd c0 30 00 3e 66 b6 ba bc
       -0.088030316 -0.053741477 0.12518597 -0.022792052
0002a0 80 76 2d 3d fa 78 1a 3d 2f 03 3f 3d 15 54 04 3d
       0.04234934 0.03771303 0.046633895 0.03230675
0002b0 b8 68 b6 bc 74 d5 b8 bd 64 92 40 bc 92 81 0a 3d
       -0.02226673 -0.09025088 -0.011753652 0.033814974
0002c0 a8 33 ed 3d 4c 2c b1 3d ff 79 e3 bc ca ab 80 3d
       0.11582118 0.08651027 -0.027768133 0.06282766
0002d0 0e a3 94 3c 0a 74 a3 bd 99 a4 0c bd 89 4d 14 bd
       0.018144157 -0.07981117 -0.03433666 -0.036206756
0002e0 2c bc c2 bd ab a7 3d be 11 43 61 3d 5a fa 5f bd
       -0.09508547 -0.18520992 0.0549956 -0.054682113
0002f0 b8 7e b8 bd 16 a3 f3 bc 62 65 a3 3d d2 d4 c1 bc
       -0.09008545 -0.029740851 0.079783216 -0.023661051
000300 bc 1b ed bd f6 69 81 3d e8 8c bf 3c 15 52 da 3d
       -0.115775555 0.063190386 0.023382619 0.10660187
000310 b4 4c 82 3c 8b c5 9c bd 27 0e 93 bb 73 96 95 bd
       0.015905716 -0.07654866 -0.004487771 -0.073040865
000320 29 08 36 3e 27 e2 32 bd 04 24 43 bc 99 99 80 3d
       0.1777655 -0.043672707 -0.011910442 0.062792964
000330 b5 de 71 3d e8 f8 2e bd 22 c9 b9 bd dc ca a7 3c
       0.05905028 -0.042717844 -0.09071566 0.020482473
000340 34 42 10 3c 04 f8 12 bd a2 7d d0 3b d9 a1 6d bd
       0.008804847 -0.035881057 0.006362633 -0.058015678
000350 e2 8c a7 3d 81 1e d4 3c 8a d3 3b bd 72 ae 2d bd
       0.08181168 0.025893452 -0.045856036 -0.042402692
000360 26 86 47 3d 40 d8 bd 3c 37 55 55 3d ca 08 7f bd
       0.04871192 0.023174405 0.05208322 -0.06226424
000370 3b 41 cc 3c 90 bd 28 bd 5c 72 87 3b 1a 19 c4 3d
       0.024933448 -0.041196406 0.0041335057 0.095751
000380 eb 71 32 3e 12 d7 65 b9 77 a9 d9 3d be ba 22 3d
       0.17426269 -0.00021919262 0.10628026 0.039728872
000390 67 67 67 bd 38 80 46 3c 9f 0c 81 3e a9 57 ca 3d
       -0.056495097 0.012115531 0.25204942 0.09880001
0003a0 5c 25 4b bc 84 d5 cb bd 1b cf 5b 3d 0a 82 8b 3d
       -0.012399044 -0.09952834 0.053664308 0.06811912
0003b0 21 38 2a 3d 07 2a 94 3d 9e 3b 63 3c da 9d 35 bc
       0.041557435 0.072345786 0.013869194 -0.011084998
0003c0 d1 5a 52 bd dd b7 52 bb 75 fc 05 bd f5 54 a2 3c
       -0.05135614 -0.0032153048 -0.032711465 0.019815901
0003d0 6c a1 9e 3d eb e9 e9 3d bc 0c 22 be 92 b9 ac bd
       0.077456325 0.114215694 -0.1582517 -0.08433832
0003e0 d7 b4 15 bd 62 d6 88 3d 49 eb 13 3d 6c 48 9c 3d
       -0.036549415 0.06681515 0.036113057 0.07631001
0003f0 c6 9b af 3c ee e9 6e bd 56 96 10 3c 10 2c aa 3c
       0.021436583 -0.05832856 0.008824905 0.020772964

fc1.bias f4 [256]
000000 d6 65 9e 3d 3d 2b 96 3b b1 ef f2 bd f8 64 b0 3d
       0.077342674 0.004582791 -0.11862124 0.08613008
000010 b7 73 b9 3d 39 4c 60 bd 84 b7 26 be 5e 8b d4 bb
       0.09055274 -0.05476019 -0.16280943 -0.0064863404
000020 f5 e3 44 bc d5 89 28 3e 3b d5 2b bc f1 f4 74 3d
       -0.01201724 0.16458829 -0.01048785 0.059803907
000030 3c a5 80 3e 89 9f 32 3d f0 5c 23 3e 32 78 5e bd
       0.25126064 0.043609176 0.15953422 -0.054313846
000040 d2 26 9c 3d 4d 51 a4 bd e5 99 89 3e f4 8a b1 bd
       0.07624592 -0.080233194 0.26875225 -0.08669081
000050 b8 85 68 3d 75 1a 08 3e a1 f2 15 3e cc 9b 1d 3d
       0.05676815 0.13291343 0.14643337 0.038478658
000060 3f fb 26 3d 47 a4 29 bd 20 e7 d7 3d 5c 59 b1 bb
       0.04076695 -0.041416433 0.105421305 -0.005412264
000070 7a 45 95 3d 13 8a 0c 3e 67 68 3c 3e b1 07 83 bd
       0.07288642 0.13724546 0.18399201 -0.063979514
000080 27 08 44 bd b7 8f 64 3c db 53 c4 3d fd a6 f6 39
       -0.047859337 0.01395028 0.09586307 0.00047045192
000090 2b 1b 54 3e d2 c9 2b 3e 4c 53 be bd 48 10 4d 3e
       0.20713489 0.16776207 -0.09293231 0.20025742
0000a0 58 87 90 bd 5d 02 a9 bd c7 ea d9 3d 88 7d b7 bd
       -0.07057065 -0.08252404 0.10640483 -0.0895949
0000b0 43 d9 b5 bc 8c ff 51 be 27 a2 8e 3d 20 65 0e 3e
       -0.022198325 -0.2050764 0.06964522 0.13905764
0000c0 81 e4 1e 3e 92 7f 87 bd 2f 55 16 be e4 2e e6 3d
       0.15516855 -0.06616129 -0.14680932 0.112394124
0000d0 1e 6e af bd 7f bc b0 bd bb 26 1c be 2e 2f 09 3e
       -0.08565925 -0.08629703 -0.1524915 0.13396904
0000e0 fe d0 3b bc 71 6c ca 3d 7f 75 1e 3d e5 0c 6c 3d
       -0.011463402 0.09883965 0.03868627 0.057629485
0000f0 e6 f8 2c 3c b8 94 02 3e e6 96 d3 bd 28 02 15 3d
       0.010557389 0.12752044 -0.10331516 0.03637901
000100 6f ef 4c bd ec a9 18 be 20 bc 8b 3d af f4 32 3e
       -0.05003303 -0.1490857 0.06822991 0.17476152
000110 83 bf e5 3d 21 a0 46 3d c1 ad 52 3e 49 82 86 3d
       0.112181686 0.048492555 0.20574094 0.06567819
000120 c6 77 cb bd 8d 06 16 bd f6 e3 a7 3d c0 c6 3b 3e
       -0.09934954 -0.03662734 0.08197777 0.18337536
000130 2d d5 01 3e b3 06 54 3d af 48 62 3e c0 7c fd bd
       0.12678976 0.0517642 0.22098039 -0.1237731
000140 f3 ac 07 3c cb a5 e1 3c 59 51 a0 bc 8e 02 42 3e
       0.00828098 0.027544877 -0.01957004 0.18946287
000150 d1 eb ff 3d 48 6b 37 be 79 1d 04 3e 98 0e 18 3e
       0.1249615 -0.17912018 0.12901868 0.14849317
000160 05 1e ff 3d 97 65 c8 3d 51 21 37 3e 37 13 01 3e
       0.12456898 0.09785002 0.17883803 0.12604986
000170 bb 42 35 3e da f4 51 bd a3 29 2e be 13 33 ee 3d
       0.17701237 -0.0512589 -0.1700807 0.116308354
000180 d9 6e 78 3e 4d ff 06 bd 8b 46 66 3e db 4f 1c 3d
       0.24261035 -0.032958318 0.22487848 0.038162094
000190 35 52 07 3e 6d e0 cd 3d b1 93 8a 3d 14 00 e4 bd
       0.13214953 0.100525714 0.06766451 -0.111328274
0001a0 c1 aa ad bd a4 07 0f 3e f5 31 36 be 24 62 29 3e
       -0.08479834 0.13967758 -0.17792495 0.16541344
0001b0 38 72 2d 3e 39 75 e8 bd 1b 03 f6 3d d7 67 88 3e
       0.16938102 -0.113504834 0.12012311 0.26641724
0001c0 25 81 8a bd 63 dd 98 3d c3 51 42 3c fe 24 3f bd
       -0.067629136 0.07464101 0.011860314 -0.046666138
0001d0 20 87 7c 3d 6b 20 96 bd ae 08 69 3c f0 9b 66 be
       0.061652303 -0.07330402 0.014223261 -0.22520423
0001e0 9e 0d 2b 3e 04 1b 06 3e da a4 21 3e 08 07 9a bd
       0.16704413 0.13096243 0.15785542 -0.07520872
0001f0 a1 cd 34 bc 3d ad 9c 3d 84 28 05 3e ad 95 6b 3e
       -0.011035354 0.0765023 0.13003737 0.23006316
000200 e7 17 71 3b 32 06 74 3e df 6b dd bd 86 8c b0 bd
       0.0036787929 0.23830488 -0.108115904 -0.08620553
000210 37 af 6b bc c2 d9 63 3e 81 b4 17 bc fe d1 76 bd
       -0.014385036 0.22251037 -0.009259344 -0.060258858
000220 e3 17 fa bd 80 f9 1d 3e ae 31 65 be 17 2a 5b bd
       -0.12211587 0.15427208 -0.22382233 -0.053506937
000230 38 7f 7d 3e f2 b6 d8 bd 21 c9 1d bd 63 82 89 bd
       0.24755561 -0.10581769 -0.03852189 -0.067143224
000240 b7 45 4b 3e b1 6f bf bb 15 bf 9d 3c 88 84 b0 bd
       0.19850813 -0.005842172 0.019256154 -0.08619028
000250 72 2c c3 3d 67 97 56 3e 80 0f 4c bd 66 49 5c bc
       0.09529962 0.20956193 -0.04981947 -0.013445234
000260 88 12 09 be 7b b5 1d 3e dd e5 97 3d 17 b5 49 3b
       -0.13385975 0.1540126 0.0741689 0.0030778104
000270 74 3e 05 bc e9 b1 63 bd 26 40 49 3d 43 e7 00 be
       -0.008132566 -0.05558959 0.049133442 -0.1258822
000280 c0 f9 f0 3d 33 9d a6 3d 35 5b 14 bd fb e9 0e be
       0.11766386 0.08135452 -0.036219794 -0.13956444
000290 2f 5f a8 3d 11 2e d1 3d 0b 5e 55 3e 64 34 d0 bc
       0.0822128 0.102138646 0.20836656 -0.025415607
0002a0 26 7f 90 bc 9c c1 6a 3e 8e 58 f6 3d a3 cc 95 3d
       -0.017638754 0.22925419 0.12028609 0.07314422
0002b0 ce 30 5e 3e 7a 53 a4 3e fc bf db 3c 0b 0e 55 3e
       0.21698305 0.32094938 0.026824944 0.20806138
0002c0 71 f8 89 3e 13 ec 4f 3d 0e 85 63 3e c9 53 af bb
       0.26947358 0.050762247 0.22218725 -0.005350564
0002d0 f7 ff 1a bd b9 a5 0c 3e 22 1e 46 3c b4 f4 25 3c
       -0.037841763 0.13735093 0.012092145 0.010129143
0002e0 f7 97 77 3c 55 e3 78 bd 4b 37 3b 3d b6 49 55 bd
       0.015111915 -0.060763676 0.04570703 -0.05207225
0002f0 13 26 bd 3d 84 cb 72 3e c0 ae 8c bc 9d ed d1 3d
       0.09235778 0.23710448 -0.017173171 0.10250399
000300 0c aa bd 3b 52 db 02 3e bb 60 e0 3d 9a 26 8d bd
       0.0057880934 0.12778977 0.1095595 -0.06892128
000310 29 ff cc 3c 5f 02 39 3c 3f 19 2b 3c 8e 51 34 bd
       0.025024014 0.011292069 0.010443031 -0.04402309
000320 3f 55 9e bd 4f 4e 1b 3e 20 ae b8 3d 91 a9 64 bd
       -0.07731103 0.15166591 0.09017587 -0.055825774
000330 b3 5f 5a 3e 9c 25 8f 3d 1f 8f a5 3c 87 9e d8 3d
       0.21325569 0.06989595 0.020209847 0.10577112
000340 39 80 f1 3c 13 60 62 bc 94 51 0f 3e ff af fa 3d
       0.029480087 -0.013816851 0.13995963 0.122406
000350 df 69 11 3e 91 3d dc 3b be 36 73 bd 7f 65 14 3e
       0.14200543 0.0067212065 -0.059378378 0.14491843
000360 4f 6f b9 bc 0a 95 bd 3d f6 c1 45 3e 67 fb c1 3c
       -0.022636084 0.092569426 0.19312271 0.023679448
000370 91 82 2c 3e 28 42 e6 bd 88 d6 21 be d6 28 b1 bd
       0.16846682 -0.11243087 -0.15804493 -0.08650367
000380 1b d9 39 3e bd cd 83 bd 4a 51 02 be a3 c8 14 be
       0.18149225 -0.06435726 -0.12726322 -0.14529662
000390 0d 55 9d bd 35 8f b4 3d 4f 1c 18 3d 5f 34 17 3e
       -0.07682238 0.08816377 0.037136372 0.14766072
0003a0 a2 02 56 be f8 47 2d be 6f f7 89 3e 7e dd eb bc
       -0.20899442 -0.16921985 0.2694659 -0.02879214
0003b0 12 cf 08 3e a2 be 44 3d 61 63 f3 3c 5a ba ca bb
       0.13360241 0.048033364 0.029710473 -0.0061867656
0003c0 cc ac 8b 3d fc 70 a9 bd 6e a8 ab 3d 36 c8 81 3c
       0.06820068 -0.08273503 0.08381735 0.015842538
0003d0 05 35 36 3e 69 8e 25 3e 39 f4 27 3e 01 d9 0c 3e
       0.17793663 0.16167606 0.16401757 0.13754655
0003e0 61 c5 0d bd 5d c1 9b 3b 3d 59 4f 3e 15 a7 e3 bb
       -0.034612063 0.0047532753 0.20248885 -0.006947408
0003f0 44 96 f3 3d ed bd 98 bd fd f0 03 3e ee 0d 8d 3d
       0.11893895 -0.074581005 0.12884898 0.068874225
