projects/reinforcement-learning/navigation/p1_navigation/checkpoint.pth (torch, 90214 bytes, 6 tensors)

fc1.weight f4 [128, 37]
0	0x3d6690f3	0.056290578
1	0xbdefe50e	-0.117136106
2	0x3dba42c0	0.09094763
3	0xbd33e53a	-0.04391978
4	0xbe1eff68	-0.15527117
5	0x3e327627	0.17427884
6	0x3dbd7076	0.09249966
7	0xbe15dd52	-0.14635208
8	0xbdc5cac0	-0.09657812
9	0x3d227381	0.039660934
10	0xbe156ecc	-0.14593047
11	0x39f128fe	0.00045997644
12	0x3e30a44d	0.17250176
13	0xbe190665	-0.14943846
14	0x3de1627a	0.11005111
15	0x3ce94a65	0.028477857
16	0xbd077d60	-0.03307855
17	0x3ce3eaa8	0.027821854
18	0xbd6ab7a9	-0.05730406
19	0xbe30c903	-0.1726418
20	0x3d88639e	0.066596255
21	0x3ca61502	0.02027369
22	0x3ddc9da0	0.10772252
23	0xbdc01249	-0.093784876
24	0xbc93e3dc	-0.018052988
25	0xbe1d906e	-0.15387127
26	0x3dc296b8	0.095014036
27	0x3ddc86dc	0.1076791
28	0x3ce6f482	0.028192762
29	0x3dc38a05	0.095478095
30	0x3cbcdf24	0.02305562
31	0xbe17838f	-0.1479628
32	0x3df13f66	0.117796704
33	0xbdb4fdb9	-0.08837456
34	0xbdd10d4f	-0.102076165
35	0xbd04bd40	-0.032407045
36	0xbd6f2dab	-0.05839316
37	0xbd387e0e	-0.04504209
38	0xbdaec7d6	-0.085342094
39	0x3c300001	0.010742188
40	0x3cf3a861	0.029743375
41	0xbb7bb892	-0.0038409573
42	0xbe07cdba	-0.13262072
43	0x3db33a72	0.08751382
44	0x3d619b04	0.055079475
45	0xbe43e6c7	-0.19131003
46	0x3d815d0c	0.063165754
47	0xbd6cd662	-0.05782164
48	0xbe1e7dd2	-0.15477684
49	0xbdd3b15b	-0.10336562
50	0xbe5ac08e	-0.21362516
51	0xbcfa9aa1	-0.030591311
52	0xbca87150	-0.020561844
53	0x3dbcc493	0.09217181
54	0x3dbc7ee6	0.092038915
55	0x3e26ec4e	0.1630108
56	0xbe2a44fe	-0.16627881
57	0x3e0ec4b7	0.13942228
58	0xbd2a59a1	-0.041589383
59	0x3d9c6cd8	0.07637948
60	0x3dfcac56	0.12337558
61	0xbd2946d5	-0.041327316
62	0x3ccd30e9	0.025047736
63	0x3db080d7	0.08618324
64	0x3de615ee	0.112346515
65	0x3d5b28c6	0.05350568
66	0xbdfffeba	-0.12499757
67	0x3d983289	0.07431514
68	0xbd792aca	-0.060831822
69	0xbdef2d3f	-0.11678552
70	0xbd8aa381	-0.06769467
71	0x3e55985b	0.208589
72	0xbda88899	-0.08229179
73	0x3dd10abf	0.10207128
74	0x3d5ed4ee	0.054402284
75	0xbd808f27	-0.06277304
76	0xbc98ee8f	-0.018668441
77	0xbe0990ef	-0.13434194
78	0xbd69c1cc	-0.057069585
79	0x3e370f9c	0.17877048
80	0xbda5795c	-0.08079788
81	0xbe2fa4fa	-0.17152777
82	0x3d5275dc	0.05138193
83	0xbe81f1a4	-0.2537967
84	0x3d7eb5c2	0.062185057
85	0xbcf89ebd	-0.03034913
86	0xbdddf1db	-0.10837146
87	0xbdfb549d	-0.12271998
88	0xbde933c1	-0.113868244
89	0x3e0907a7	0.13381825
90	0xbdb0bfa3	-0.08630302
91	0xbd8ac1b9	-0.06775231
92	0xbdc364d4	-0.09540716
93	0xbd88f9cb	-0.06688269
94	0xbd8a1cf2	-0.06743802
95	0xbde08cfd	-0.109643914
96	0xbd3097a9	-0.043113384
97	0x3d40a6f2	0.04703421
98	0xbdfc32d9	-0.12314386
99	0x3e4f1959	0.20224513
100	0x3e1f4012	0.15551785
101	0xbe2665f4	-0.1624983
102	0x3cc115c8	0.023569956
103	0xbec412f1	-0.382957
104	0x3b2d0137	0.002639843
105	0xbd8f6407	-0.070015006
106	0x3dc583d9	0.096442886
107	0xbc9d5da6	-0.019209694
108	0xbdd2b4d2	-0.10288395
109	0xbe097bb6	-0.13426098
110	0x3d529460	0.051411033
111	0x3e0853f3	0.13313274
112	0xbde66b47	-0.1125093
113	0x3c4d6383	0.0125359325
114	0xbcca3365	-0.02468271
115	0x3d9071e0	0.0705297
116	0x3e671b8f	0.22569107
117	0xbe1fc1b1	-0.15601231
118	0xbdc83930	-0.09776533
119	0xbdf8151b	-0.121134005
120	0xbee8082f	-0.45318744
121	0x3e54781e	0.20748946
122	0x3c35202f	0.011055036
123	0x3deb5f4b	0.11492785
124	0xbcdf7278	-0.027276263
125	0x3d0f6d1d	0.035016168
126	0x3e0a88cf	0.13528751
127	0x3e486a0d	0.19571705
128	0xbd6ebf07	-0.058287647
129	0x3cedb7bd	0.029018277
130	0x398ff1e6	0.00027455314
131	0xbc6386fb	-0.013887162
132	0xbcef61c8	-0.02922143
133	0xbb4bb51b	-0.003108329
134	0x3d9f46b5	0.07777158
135	0x3dda40fe	0.106569275
136	0x3dda16ad	0.10648856
137	0xbd8763cd	-0.06610832
138	0x3b48cd3f	0.0030639914
139	0xbdb819b0	-0.089892745
140	0xbd904e77	-0.07046216
141	0xbd873a71	-0.06602944
142	0x3e187178	0.14887035
143	0xbd3a8ca6	-0.04554429
144	0xbdb30508	-0.08741194
145	0xbdacc4fa	-0.08436008
146	0x3db0fc1a	0.086418346
147	0xbc45c81e	-0.012071637
148	0xbe34de73	-0.17662983
149	0x3e272277	0.16321741
150	0x3e911a4d	0.28340378
151	0xbdbf1a9b	-0.093312465
152	0x3e38c22d	0.18042822
153	0xbe17cde7	-0.1482464
154	0x3decd591	0.11564172
155	0x3cbe2852	0.023212586
156	0x3dbba9b0	0.09163225
157	0x3cd01e6f	0.025405137
158	0x3d8e583e	0.069504246
159	0x3d422edc	0.04740797
160	0xbe1e8dfc	-0.1548385
161	0xbd1eb7ae	-0.03874939
162	0xbe070d3a	-0.1318864
163	0xbd3b0e7f	-0.04566812
164	0x3dc0e722	0.09419085
165	0xbe41aea4	-0.18914276
166	0xbd4934f7	-0.049122777
167	0xbde4e5df	-0.11176657
168	0xbe031f3e	-0.12804887
169	0x3e0cfe0f	0.1376879
170	0xbd4c56de	-0.04988753
171	0x3dbecfb0	0.09316957
172	0xbe005803	-0.12533574
173	0x3d8d5cc3	0.069024585
174	0x3d421729	0.04738537
175	0x3caf60c2	0.021408442
176	0xbbcc9a88	-0.0062440075
177	0xbc1c2bce	-0.009531928
178	0x3e447a92	0.19187382
179	0x3d9b42d1	0.075811036
180	0x3bae2cde	0.005315407
181	0xbcfae0f5	-0.030624846
182	0xbb40bb13	-0.002940838
183	0x3e14589e	0.1448693
184	0xbdda25ff	-0.106517784
185	0x3ddfb9af	0.10924088
186	0xbdba1ec0	-0.09087896
187	0x3c8c5f95	0.01713542
188	0xbd943da8	-0.072383225
189	0x3ddf82a4	0.109135896
190	0x3e0d23ec	0.13783234
191	0x3e1a0ad2	0.1504319
192	0x3d1b0555	0.037846882
193	0x3e105625	0.14095362
194	0x3d8bff85	0.06835846
195	0xbda42025	-0.080139436
196	0x3e08804c	0.13330191
197	0xbdfa9fe5	-0.12237529
198	0xbd9d4761	-0.0767963
199	0x3e0db1d6	0.1383737
200	0xbd084b5d	-0.033274997
201	0xbced9727	-0.02900274
202	0x3d26741b	0.04063807
203	0x3d56f504	0.05247976
204	0x3de06a15	0.109577335
205	0x3ddac48e	0.10682021
206	0xbce029ed	-0.027363742
207	0x3d7eb5ed	0.062185217
208	0xbe2ce55e	-0.16884372
209	0xbd1a2d5c	-0.037640914
210	0xbe1c412f	-0.1525924
211	0x3e04e981	0.129797
212	0x3df5bd46	0.11998992
213	0x3dc307b6	0.09522955
214	0xbd915439	-0.07096142
215	0xbd49f758	-0.04930815
216	0xbd8519f3	-0.0649909
217	0xbdc120ee	-0.09430109
218	0x3d7a22d0	0.061068356
219	0xbde8609f	-0.11346554
220	0x3d954686	0.07288842
221	0x3da24971	0.07924164
222	0x3c9faa25	0.01949031
223	0x3db6476a	0.0890034
224	0x3e2cb281	0.16864969
225	0x3de87e57	0.113522224
226	0x3e137759	0.14400996
227	0xbdc23972	-0.09483613
228	0xbbb5845b	-0.0055394596
229	0xbd90044c	-0.070320696
230	0x3e3589a6	0.1772829
231	0x3daee6d9	0.085401244
232	0x3d64c8ae	0.055855446
233	0x3da96b08	0.08272368
234	0x3e00b58e	0.12569258
235	0xbd8f4860	-0.06996226
236	0x3d6ae0d8	0.057343334
237	0x3e03c12a	0.12866655
238	0xbd90b3c1	-0.07065535
239	0xbdaa96c0	-0.083295345
240	0xbdd602a2	-0.10449721
241	0x3b73f479	0.0037224574
242	0x3d3ffb96	0.04687079
243	0xbd4cbadf	-0.0499829
244	0x3dc7b418	0.09751147
245	0xbe053e57	-0.13012062
246	0xbd80613d	-0.06268547
247	0x3c18e504	0.009331945
248	0x3e073fca	0.13207927
249	0xbe1c1689	-0.15242971
250	0x3e02c653	0.12770967
251	0xbe6049a0	-0.21903086
252	0x3cabb7f8	0.020961747
253	0xbd5d0fc8	-0.05397013
254	0x3cb175a4	0.02166254
255	0x3e4a3da3	0.19750075

fc1.bias f4 [128]
0	0x3db690ec	0.089143604
1	0x3dc81334	0.09769288
2	0x3dd88889	0.10572917
3	0x3ddbcf1a	0.10732861
4	0xbcc56ba6	-0.024099182
5	0x3e1c55fd	0.15267177
6	0xbce6b7dd	-0.028163845
7	0xbc50d80e	-0.012746824
8	0x3d5b836b	0.053592127
9	0xbe04f9bb	-0.1298589
10	0xbbedbd7b	-0.007255254
11	0x3c9f65ad	0.019457662
12	0x3ce0b14d	0.027428294
13	0x3e1376a9	0.14400734
14	0xbde5946d	-0.112099506
15	0x3e356a85	0.17716415
16	0x3e0890e5	0.13336523
17	0x3c18be91	0.009322778
18	0x3dd82cfb	0.10555454
19	0xbd90533b	-0.07047125
20	0xbcfe8ffc	-0.031074516
21	0xbb9073d0	-0.004408337
22	0x3e23af63	0.15984873
23	0x3d2cc59a	0.042180635
24	0x3dbd7911	0.09251607
25	0x3e275a4d	0.16343041
26	0x3e398252	0.1811612
27	0x3e3a17d9	0.1817316
28	0xbdd76e46	-0.1051908
29	0x3c7ae4dc	0.015313353
30	0xbdd697cd	-0.104781725
31	0xbd8a5191	-0.06753839
32	0x3e112ce5	0.14177282
33	0x3ccec3ff	0.025239943
34	0xbcf73db8	-0.030180797
35	0xbddc1a7c	-0.10747239
36	0xbe1adbca	-0.15122905
37	0xbe155537	-0.14583288
38	0xbe019de1	-0.12657882
39	0x3ccb8cb2	0.024847362
40	0xbe043e21	-0.12914325
41	0xbe15263b	-0.14565365
42	0xbcc06345	-0.023484835
43	0xbcd9ab5c	-0.026570968
44	0x3d5b29a3	0.053506505
45	0x3d48f5da	0.049062587
46	0xbe0bbc91	-0.13646151
47	0x3e184d8f	0.14873336
48	0x3ccb4094	0.024811067
49	0x3de6e87b	0.11274811
50	0xbdbc5260	-0.09195399
51	0x3e31ab40	0.17350483
52	0x3d9526ab	0.07282766
53	0x3c9a0fa9	0.018806295
54	0xbe275402	-0.1634064
55	0xbd9c31fc	-0.07626721
56	0x3de4797a	0.11155982
57	0xbb2d3766	-0.0026430725
58	0x3e2c453f	0.1682329
59	0x3e13c088	0.14428914
60	0xbc467b59	-0.012114369
61	0x3e0b7066	0.13617095
62	0x3d00425f	0.031313296
63	0xbda7e323	-0.0819762
64	0x3e1d7e3e	0.15380189
65	0xbd5abde0	-0.053403735
66	0x3dfef12d	0.124483444
67	0xbd9849b0	-0.0743593
68	0x3de2d194	0.1107513
69	0x3e1389c6	0.14408025
70	0xbe057913	-0.13034467
71	0xbd46dd90	-0.048551142
72	0xbd834fd8	-0.06411713
73	0x3e320290	0.1738379
74	0xbcdcdc8a	-0.02696063
75	0xbda0a56a	-0.0784405
76	0x3e2cde4d	0.16881676
77	0xbd741ab4	-0.05959578
78	0xbe229faa	-0.1588122
79	0x3d195ac5	0.03744008
80	0x3e36459f	0.17799996
81	0xbe0de33f	-0.13856219
82	0xbc0668f9	-0.008203738
83	0xbdaf85e9	-0.08570463
84	0x3e12ed19	0.14348258
85	0xbcb98a48	-0.022648945
86	0x3dc7380b	0.09727486
87	0x3e043258	0.1290983
88	0x3d706ba0	0.05869639
89	0x3d4ae549	0.04953507
90	0x3e3bc7d3	0.18337946
91	0xbca0ef5a	-0.019645382
92	0xbd6799a7	-0.05654302
93	0xbb3bbe53	-0.0028647378
94	0x3e3b2fff	0.18280028
95	0xbd33b814	-0.043876722
96	0x3d8a9cb4	0.0676817
97	0xbd252595	-0.040319044
98	0x3d3d2aca	0.046183385
99	0x3e1fb4a9	0.1559626
100	0x3e456eb7	0.19280516
101	0x3e4325ba	0.1905736
102	0x3c8b423a	0.016999353
103	0x3d72e347	0.05929878
104	0x3dbb38a9	0.091416664
105	0xbe2d977f	-0.16952322
106	0x3ddbff2d	0.1074203
107	0x3e03e76b	0.12881248
108	0x3d9e8003	0.0773926
109	0xbd2d60b1	-0.04232854
110	0x3dbf368c	0.09336576
111	0x3e286346	0.1644412
112	0xbe1b606f	-0.15173505
113	0x3d1177ea	0.03551475
114	0xbd9e4214	-0.07727447
115	0xbc9c5c18	-0.019086882
116	0xbd1a503a	-0.037674166
117	0x3ddd0642	0.10792209
118	0xbd2d0d2e	-0.042248897
119	0x3dc3ea81	0.095662124
120	0xbd9034ff	-0.07041358
121	0xbdf7b209	-0.120945044
122	0x3e3032eb	0.17206924
123	0x3dbbec01	0.091758735
124	0x3d3729e6	0.04471769
125	0xbcdc0872	-0.026859496
126	0x3e265ebe	0.16247079
127	0xbd5b7ca7	-0.053585675

fc2.weight f4 [128, 128]
0	0xbd41ae13	-0.04728515
1	0xbd14b932	-0.03630943
2	0xbdb4027e	-0.08789538
3	0xbd64324f	-0.05571204
4	0xbcc7b11f	-0.02437645
5	0xbd6955d8	-0.056966633
6	0x3c831436	0.016000848
7	0xbc859ae7	-0.016309215
8	0xbdc312d0	-0.095250726
9	0xbad281c8	-0.0016060406
10	0xbd0f40fc	-0.034974083
11	0x3d96bde5	0.07360438
12	0x3d28b716	0.04119023
13	0xbd2e10cd	-0.04249649
14	0x3d4f663f	0.05063462
15	0xbdb48edc	-0.08816311
16	0xbc865dac	-0.016402088
17	0x3e27af2b	0.16375415
18	0x3c5fdcff	0.013663529
19	0xbcdccfd5	-0.02695457
20	0xbc7eeb98	-0.0155591
21	0xba5d6dc0	-0.0008446835
22	0x3d712646	0.05887439
23	0x3d74d004	0.05976869
24	0x3d90aba4	0.07063988
25	0xbd1e637e	-0.038669102
26	0xbdf10881	-0.117692
27	0x3d31c158	0.043397278
28	0xbc49b2b6	-0.012310674
29	0x3d8f6d8d	0.07003317
30	0xbd4072a3	-0.046984326
31	0x3db7de0a	0.089778975
32	0xbdad7e8c	-0.084714025
33	0xbc0cefae	-0.008602066
34	0xbc1b269d	-0.009469655
35	0x3d5f4a0c	0.054513976
36	0x3da64339	0.081182905
37	0xbdac7f5f	-0.084227316
38	0xbcff0bcc	-0.031133555
39	0x3d7fe334	0.062472537
40	0x3d977582	0.0739546
41	0xbda9cfa8	-0.082915604
42	0x3d2a0cf2	0.04151625
43	0x3dce0feb	0.1006163
44	0xbd029e97	-0.031889524
45	0xbd14c5b8	-0.03632137
46	0xbd83abbc	-0.0642924
47	0x3d7e3b9f	0.062068578
48	0x3c498308	0.012299307
49	0x3c56cc82	0.013110282
50	0xbda77b3f	-0.08177804
51	0xbd73cf50	-0.05952388
52	0x3c33d02d	0.010974926
53	0x3dbf845c	0.093514174
54	0x3dce9121	0.10086275
55	0x3d5c7536	0.05382272
56	0x3d5eaaa6	0.05436196
57	0xbdd0fadc	-0.10204098
58	0xbaf2392f	-0.0018480177
59	0x3c1b56dd	0.009481159
60	0x3d047368	0.032336622
61	0x3d009789	0.031394515
62	0xbd56842f	-0.052372154
63	0x3d48050c	0.048832938
64	0x3cc877fb	0.024471274
65	0x3c85002e	0.016235437
66	0x3d090f03	0.033461582
67	0x3d6695b3	0.056295108
68	0xbcb7b8ac	-0.022426926
69	0x3c96d536	0.018412214
70	0x3da9ea08	0.08296591
71	0x3dc387d3	0.09547391
72	0xbd8c66bf	-0.06855535
73	0xbc786716	-0.015161296
74	0xbd78de43	-0.06075884
75	0x3d6545b5	0.05597468
76	0xbdbe28a1	-0.09285093
77	0xbdb1063b	-0.086437665
78	0xbd8f5142	-0.069979206
79	0xbddf01c8	-0.108890116
80	0x3de4f8e0	0.11180282
81	0x3d6ad189	0.057328735
82	0x3a0b2e17	0.0005309297
83	0x3d67c96b	0.05658857
84	0x3d9112f8	0.07083696
85	0xbd77ab9b	-0.06046639
86	0x3d9dad24	0.076990396
87	0x3daa757c	0.083231896
88	0xbdafadc7	-0.08578067
89	0x3d910b10	0.07082188
90	0xbd59694d	-0.05307894
91	0xbcda33b8	-0.02663599
92	0x3ce3922d	0.027779663
93	0x3d3434c4	0.043995634
94	0x3c01ed1b	0.0079300655
95	0x3d00f10c	0.03147988
96	0x3d8d91b0	0.06912553
97	0x3dc25a06	0.09489827
98	0x3c8a31d1	0.016869457
99	0x3d8f5707	0.06999021
100	0xbd8dc261	-0.069218405
101	0x3d859580	0.065226555
102	0xbd085445	-0.03328349
103	0x3dbb6972	0.091509715
104	0x3d7e7531	0.06212348
105	0x3cc3b091	0.023887904
106	0x3d4ae0c8	0.049530774
107	0x3d518f4e	0.051162057
108	0xbd6974fd	-0.056996334
109	0xbbd6105c	-0.006532712
110	0xbd3ce223	-0.0461141
111	0xbe04b626	-0.12960109
112	0x3cab7cdd	0.020933563
113	0x3bcd871a	0.006272209
114	0x3d8a7c91	0.067620404
115	0x3cc289fa	0.023747433
116	0xbb81c8af	-0.003960691
117	0x3cba55c9	0.022745984
118	0x3d98e69d	0.07465861
119	0xbdc08ae3	-0.094014905
120	0xbd2eac82	-0.042644985
121	0xbc23ba5e	-0.009993164
122	0xbd96f115	-0.073702015
123	0x3b857bb8	0.0040735863
124	0x3d6ef172	0.05833573
125	0xbd7bb228	-0.0614492
126	0x3d09af1f	0.033614274
127	0x3d023963	0.03179301
128	0x3c05b72d	0.008161348
129	0xbdb76bbb	-0.08956095
130	0x3d6bef1e	0.057601087
131	0x3dcb9f49	0.099424906
132	0xbd197469	-0.037464533
133	0x3d161020	0.03663647
134	0xbdbb6fd0	-0.09152186
135	0xbc9b43b6	-0.018953186
136	0xbb040940	-0.0020147115
137	0x3e103b21	0.14085056
138	0x3cb64715	0.022250691
139	0xbd9803b0	-0.07422578
140	0xbc1bb43d	-0.009503421
141	0x3cebf462	0.028803054
142	0xbb4ad8df	-0.003095202
143	0xbd96b316	-0.07358377
144	0xbd107b7d	-0.035274018
145	0xbd5b4944	-0.05353667
146	0xbda0b6ff	-0.07847404
147	0xbc905ded	-0.017622912
148	0xbca937d2	-0.0206565
149	0x3e1576e0	0.14596128
150	0xbcc69c5a	-0.024244476
151	0xbd9c57db	-0.076339446
152	0x3d7ad40b	0.061237376
153	0xbc6b2bd2	-0.014353709
154	0xbde80575	-0.11329166
155	0xbcea09f7	-0.028569205
156	0x3a02b5c1	0.000498619
157	0xbc6c15ab	-0.014409463
158	0xbe11bf7b	-0.142332
159	0xbd6a6927	-0.057229187
160	0x3d427c63	0.047481906
161	0xbd4eac38	-0.05045721
162	0x3dc1306c	0.09433064
163	0xbda0d817	-0.07853716
164	0x3d553515	0.052052576
165	0xbd356e61	-0.04429472
166	0x3c8a3744	0.016872056
167	0xbd0f1bc0	-0.034938574
168	0xbd72c18d	-0.059266616
169	0xbb81c78b	-0.003960555
170	0x3dacab03	0.084310554
171	0xbd00fdaf	-0.03149193
172	0x3c0ae378	0.008477084
173	0xbdd029a9	-0.10164196
174	0x3ac29409	0.0014845143
175	0x3d790705	0.06079771
176	0x3d0bc306	0.034121536
177	0xbd578fe4	-0.05262746
178	0x3d1e5928	0.038659245
179	0x3d955c78	0.07293028
180	0x3cc59996	0.024121087
181	0xbdcc0f43	-0.099638484
182	0x3ded9e76	0.1160249
183	0xbd674054	-0.056457832
184	0xbce21f4a	-0.02760281
185	0xbdc16fa4	-0.09445122
186	0x3c388af2	0.011263596
187	0x3c870c92	0.016485486
188	0x3d501ca0	0.05080855
189	0xbd85f327	-0.06540518
190	0x3c2b05d7	0.010438404
191	0x3cbe6cc8	0.02324523
192	0x3cf0c191	0.029389175
193	0xbde2da4d	-0.11076794
194	0x3e03cdd5	0.12871487
195	0x3d7b14bf	0.061299082
196	0xbd948dd0	-0.07253611
197	0xbd1aee8b	-0.03782515
198	0xbb88ab4e	-0.0041708117
199	0xbc445ee6	-0.011985516
200	0xbd70e866	-0.058815382
201	0xbd7e5dc4	-0.06210114
202	0x3ddf1359	0.10892362
203	0xbc363dad	-0.011123103
204	0x3d6cf4c8	0.05785063
205	0xbbf307bf	-0.007416695
206	0xbd6028cd	-0.05472641
207	0x3d858768	0.06519967
208	0xbd2dda0d	-0.042444278
209	0xbd6fb897	-0.058525648
210	0xbd9d586c	-0.07682881
211	0x3d72901b	0.05921946
212	0x3c402ee5	0.0117299305
213	0xbd721809	-0.059104953
214	0xbd6788fd	-0.056527127
215	0xbd934e8b	-0.07192715
216	0xbda73ad9	-0.08165521
217	0x3d4d0851	0.05005676
218	0x3c18d993	0.0093292175
219	0xbd8b461d	-0.068004824
220	0x3cffd684	0.031230219
221	0x3daaabde	0.08333562
222	0x3c9af551	0.018915804
223	0xbb0e443e	-0.0021708156
224	0xbcac0580	-0.020998716
225	0xbd31660c	-0.04331021
226	0xbd9bbe1e	-0.07604621
227	0x3d654b92	0.055980273
228	0xbd54d379	-0.05195949
229	0xbb8b0bf9	-0.0042433706
230	0x3d9df47b	0.077126466
231	0x3c89752f	0.01677951
232	0xbd66c5fd	-0.05634116
233	0x3d9996fe	0.074995026
234	0x3cee74e0	0.029108465
235	0xbbb3498a	-0.005471413
236	0x3d94c5e6	0.07264309
237	0xbddd4f76	-0.108061716
238	0x3d66c10e	0.056336455
239	0xbda869d3	-0.08223309
240	0x3d89474e	0.067030534
241	0xbd3d4f74	-0.04621835
242	0x3d988c5b	0.07448646
243	0x3c4c342c	0.012463611
244	0x3dc6953b	0.09696432
245	0x3c976bf7	0.018484099
246	0x3c80e2db	0.015733173
247	0xbdacd15a	-0.08438368
248	0xbcc5969b	-0.024119666
249	0x3c83dfe2	0.016097967
250	0x3d48ca4d	0.049021054
251	0xbd0aebcc	-0.03391628
252	0xbdea6ab6	-0.11446135
253	0x3c8af746	0.016963612
254	0x3c6ffdea	0.01464794
255	0x3d1fdf6e	0.03903144

fc2.bias f4 [128]
0	0x3ba2bf4d	0.0049666525
1	0x3d7a9d75	0.06118532
2	0x3db83630	0.089947104
3	0xbd953814	-0.07286087
4	0x3de15519	0.11002559
5	0xbdce00d7	-0.10058754
6	0xbd9e2faa	-0.07723935
7	0xbd958141	-0.07300044
8	0x3c804b77	0.015660984
9	0xbd2f4005	-0.042785663
10	0xbd44f9a9	-0.048089657
11	0x3de1267f	0.10993671
12	0xbcd5722e	-0.026055422
13	0xbd70f192	-0.05882413
14	0x3ca61298	0.020272538
15	0x3dbfe467	0.09369736
16	0xbd526a51	-0.051370922
17	0x3d2cbc16	0.04217156
18	0x3cba6d5a	0.022757221
19	0xbd3b5dc4	-0.04574372
20	0x3dcf992b	0.10136636
21	0x3cadb23b	0.021203151
22	0xbd8f3a37	-0.069935255
23	0xbd7c7708	-0.061636955
24	0xbda3be5d	-0.07995293
25	0x3c1e0ba1	0.009646327
26	0x3d210302	0.03930951
27	0xbd7b6dd3	-0.061384033
28	0xbab37dd8	-0.001369412
29	0x3b88bb13	0.0041726916
30	0x3d5790ae	0.05262821
31	0x3cdf6227	0.027268482
32	0x3ddd9fb6	0.10821478
33	0x3e01587c	0.1263141
34	0xbdc18bc5	-0.09450487
35	0xbcb619b9	-0.022229062
36	0x3c53e398	0.012932681
37	0x3d9f0b13	0.07765784
38	0x3d45f45e	0.04832875
39	0x3ca002c8	0.019532576
40	0xbb205372	-0.00244638
41	0xbd9b286a	-0.07576068
42	0x3bb82ea5	0.005620795
43	0x3d0e049c	0.034672365
44	0x3dde4dd7	0.108546905
45	0xbb9bfad7	-0.004760127
46	0x3d38280c	0.044960067
47	0x3d9d0642	0.07667209
48	0xbd888b4f	-0.06667196
49	0x3d897d43	0.06713345
50	0xbbb03c0b	-0.0053782514
51	0x3d864c7b	0.06557556
52	0x3e0cb2f4	0.1374014
53	0xbd7e2e61	-0.06205595
54	0xbd9b33e4	-0.07578257
55	0x3da667a9	0.0812524
56	0x3b513c52	0.0031926823
57	0x3de4986e	0.11161886
58	0xbdbaf18b	-0.09128102
59	0x3d13150a	0.035908736
60	0x3d38dadd	0.0451306
61	0x3d145cfa	0.03622148
62	0x3cfc7d71	0.030821534
63	0x3db8a84c	0.09016475
64	0x3d4e0edb	0.050307136
65	0x3cd696cc	0.026194952
66	0xbc18841b	-0.00930884
67	0xbd069f77	-0.03286692
68	0xbdb01472	-0.0859765
69	0x3d752b52	0.059855767
70	0x3cbb5503	0.022867685
71	0x3d8c84f9	0.068613
72	0xbcd86b4b	-0.026418349
73	0x3d74c6c6	0.059759878
74	0xbcb0993b	-0.021557441
75	0x3d59c5c4	0.05316712
76	0x3c34b4dc	0.011029448
77	0x3d023d91	0.031796996
78	0x3dda3d43	0.10656216
79	0x3d814338	0.06311649
80	0x3ca87509	0.02056362
81	0x3c8ca7f2	0.017169926
82	0x3d8657ae	0.06559692
83	0xbd2b4ae7	-0.04181948
84	0x3c5ba1b9	0.013405257
85	0x3dd03dc4	0.10168031
86	0xbb83ddf3	-0.004024261
87	0x3de82f29	0.1133712
88	0xbcf30411	-0.029665025
89	0x3e0a9838	0.1353463
90	0x3ce88786	0.028384935
91	0x3d58f092	0.0529638
92	0xbc9aebec	-0.018911324
93	0xbd8480e0	-0.064698935
94	0xbbda15ef	-0.0066554467
95	0xbcf35779	-0.029704796
96	0x3d8da519	0.069162555
97	0xbc8a64ce	-0.01689377
98	0x3cb31449	0.021860259
99	0x3db729b3	0.089435
100	0x3da75b19	0.081716724
101	0x3db43df2	0.08800878
102	0xbddd5531	-0.108072646
103	0x3db3a57c	0.08771798
104	0x3d3f355c	0.046681747
105	0xbccac737	-0.024753196
106	0xbd7b636a	-0.061374106
107	0xbc826926	-0.01591928
108	0x3dfd16ff	0.12357902
109	0xbd32d60e	-0.04366117
110	0xbc637cb9	-0.013884717
111	0xbb93cd36	-0.004510547
112	0x3e1c167c	0.15242952
113	0x3e223d1a	0.15843621
114	0x3d8c686f	0.068558566
115	0x3ce9de83	0.028548485
116	0xbd7d9f53	-0.06191952
117	0xbb73e6ea	-0.0037216493
118	0xbd21828f	-0.03943115
119	0xbcf006f4	-0.02930019
120	0x3d211cb7	0.039334025
121	0xbd3769db	-0.044778686
122	0xbcfa3d67	-0.030546857
123	0x3d4670d9	0.048447464
124	0x3d838337	0.064215116
125	0xbb539469	-0.0032284504
126	0xbc48b2f2	-0.012249695
127	0x3d85a7d6	0.06526153

fc3.weight f4 [4, 128]
0	0xbd208b91	-0.0391956
1	0x3d9ea437	0.07746165
2	0x3d414f4f	0.047194775
3	0x3e4f1eb2	0.20226553
4	0xbcb44539	-0.022005664
5	0x3b83a138	0.0040170215
6	0xbe0c2cbc	-0.1368894
7	0x3c490672	0.012269603
8	0xbd3a651f	-0.045506593
9	0x3e01ab01	0.12662889
10	0xbd81dbec	-0.06340775
11	0x3de196bc	0.110150784
12	0xbd2784a2	-0.040897973
13	0xbda56ba4	-0.080771714
14	0xbd12c1aa	-0.035829224
15	0x3c2fe3a6	0.010735428
16	0xbd2bcd2c	-0.041943714
17	0xbdd340c7	-0.1031509
18	0xbe0746ac	-0.13210553
19	0xbd35fd71	-0.044431154
20	0x3b16af72	0.0022992757
21	0xbde2350f	-0.110452764
22	0x3b6ccb49	0.003613191
23	0x3d885080	0.06655979
24	0x3c1e8658	0.009675585
25	0x3de88629	0.11353714
26	0x3daa282d	0.08308444
27	0xbc4a3315	-0.0123412805
28	0xbddfe246	-0.1093183
29	0x3dc821ff	0.09772109
30	0x3e07299d	0.13199468
31	0xbc84e1e2	-0.01622099
32	0x3cffed81	0.03124118
33	0x3c25a3cf	0.010109856
34	0xbda398dd	-0.07988141
35	0xbdfa911b	-0.12234708
36	0xbdadf27b	-0.08493515
37	0x3dedb87f	0.116074555
38	0xbdc2f3f0	-0.09519184
39	0x3d9157a2	0.07096793
40	0xbd64e428	-0.05588165
41	0x3e0aaa49	0.13541521
42	0x3e01aa95	0.12662728
43	0x3dc97b19	0.09837932
44	0xbbb14a89	-0.0054104966
45	0xbe14a1de	-0.14514872
46	0x3da079e7	0.07835751
47	0x3ea6f6cb	0.32610163
48	0x3d9e3a9e	0.07726024
49	0xbda0c364	-0.07849768
50	0xbd8a928b	-0.06766232
51	0xbcdaf490	-0.026727945
52	0x3ca70589	0.020388382
53	0xbd5bce64	-0.053663626
54	0xbd2da327	-0.042391922
55	0xbd496e05	-0.04917719
56	0x3ddb8554	0.1071879
57	0x3dde429a	0.10852547
58	0xbdd1baf1	-0.10240734
59	0xbd824f14	-0.06362739
60	0x3e33db99	0.17564239
61	0x3d00bd13	0.031430315
62	0x3cc1d081	0.023658993
63	0xbd22665f	-0.03964841
64	0x3d931eb8	0.071835935
65	0x3dbd0429	0.09229309
66	0x3de4ae43	0.1116605
67	0xbd57738f	-0.05260044
68	0x3bccf5e5	0.006254899
69	0xbd221f7c	-0.039580807
70	0xbe1b6a6a	-0.15177312
71	0x3e2bbc5d	0.16771074
72	0xbdc23734	-0.094831854
73	0x3e23466d	0.15944834
74	0x3e095824	0.13412529
75	0x3e260c38	0.16215599
76	0xbd219cb7	-0.039456096
77	0xbca0f302	-0.019647125
78	0x3de22459	0.11042089
79	0xbd9a8ae7	-0.07546025
80	0x3e2f3074	0.17108327
81	0xbd8248d7	-0.06361549
82	0x3e0b9dfb	0.13634484
83	0xbd5bf883	-0.053703796
84	0x3d927a51	0.07152236
85	0x3dcf2db1	0.10116137
86	0x3da4baf4	0.08043471
87	0x3e04466e	0.12917492
88	0xbd2ff3ba	-0.042957045
89	0x3dfca861	0.12336803
90	0x3e5a2da7	0.21306477
91	0x3d22f933	0.039788436
92	0xbd7c6723	-0.061621796
93	0xbd0580b3	-0.03259344
94	0xbd6d1607	-0.057882335
95	0xbdb06dd1	-0.08614696
96	0x3ddb3aae	0.10704552
97	0x3e15487a	0.14578429
98	0xbdbbeeee	-0.091764316
99	0x3de37312	0.11105932
100	0x3da78d06	0.08181195
101	0xbbc25637	-0.0059306878
102	0x3d83c5b9	0.06434197
103	0xbdd30f9f	-0.10305714
104	0xbd01a649	-0.031652723
105	0xbdbe2744	-0.09284833
106	0x3d8b69de	0.06807302
107	0xbb38f253	-0.0028220608
108	0x3ddaa115	0.10675255
109	0x3d9aefdd	0.075652815
110	0x3cce685f	0.025196252
111	0x3d1ae961	0.037820224
112	0xbbea41b9	-0.007148948
113	0x3de4ae1a	0.1116602
114	0x3c9fd2f8	0.019509777
115	0xbbf65a36	-0.007518078
116	0xbdac53fb	-0.084144555
117	0x3ddaa40a	0.10675819
118	0x3c62ed4f	0.013850524
119	0xbc824c24	-0.015905447
120	0xbcb34e4d	-0.021887923
121	0xbd9ec39d	-0.07752154
122	0x3e110da5	0.14165361
123	0x3cef8f1e	0.029243048
124	0x3d74e1b1	0.05978555
125	0xbdfe5dfb	-0.12420269
126	0x3df0f4fa	0.117654756
127	0xbb8227cd	-0.00397203
128	0x3ddb8fd0	0.107207894
129	0xbe150aa2	-0.14554837
130	0x3db09f12	0.0862409
131	0x3e22be87	0.15892993
132	0x3cd718b1	0.026256891
133	0xbdb834d4	-0.08994451
134	0xbdd3b4f5	-0.10337249
135	0x3daf94be	0.08573292
136	0xbce95d68	-0.028486922
137	0x3dff5059	0.12466497
138	0xbce69fd3	-0.028152382
139	0xbadc1f84	-0.001679406
140	0xbda9962b	-0.082805954
141	0xbde7a7be	-0.11311291
142	0x3e046833	0.12930374
143	0x3de5f3ed	0.11228166
144	0xbd0fae68	-0.035078436
145	0xbce21656	-0.027598541
146	0x3e734052	0.23755005
147	0x3d0a4033	0.03375263
148	0xbcc3f95a	-0.023922611
149	0xbc05d938	-0.008169465
150	0xbe116675	-0.1419924
151	0xbc98362b	-0.018580517
152	0xbdb25e2c	-0.08709368
153	0xbd1c054b	-0.038090985
154	0x3dad0722	0.08448626
155	0xbda5c892	-0.080948964
156	0xbdaa13be	-0.08304547
157	0x3aa7a585	0.0012790418
158	0xbd33df05	-0.04391386
159	0x3d859635	0.0652279
160	0x3dd45157	0.10367077
161	0x3d9a61d0	0.075381875
162	0xbde61803	-0.112350486
163	0xbde71384	-0.11283019
164	0x3c23fa81	0.010008455
165	0xbcfd3b63	-0.030912107
166	0x3d6e3d90	0.05816418
167	0x3cac4be6	0.021032285
168	0xbdaf58b9	-0.085618444
169	0x3e00cba7	0.12577687
170	0x3ca40f35	0.020026783
171	0x3bdd13df	0.0067467536
172	0x3d12ca45	0.03583743
173	0xbdeac971	-0.11464203
174	0x3d900aca	0.07033308
175	0x3e02f982	0.12790492
176	0x3cdc110c	0.026863597
177	0x3d444070	0.047913015
178	0xbd7db711	-0.061942164
179	0x3d5c3e8a	0.05377058
180	0x3c88cc7c	0.016699068
181	0x3ddffc27	0.10936766
182	0xbddad1ef	-0.10684573
183	0xbd6a1cee	-0.057156496
184	0x3df59508	0.11991316
185	0x3e112f67	0.14178239
186	0xbd56251c	-0.052281484
187	0xbd91be6a	-0.07116397
188	0x3e0af1c1	0.13568784
189	0xbbf64fcc	-0.0075168367
190	0xbd87df10	-0.06634343
191	0x3d00c713	0.031439852
192	0x3d44a287	0.04800656
193	0x3e00c19f	0.1257386
194	0x3e0bd6d7	0.13656174
195	0xbc1c7a06	-0.009550577
196	0xbb0ed5c9	-0.0021794906
197	0x3d82f257	0.06393879
198	0xbd0e0f5d	-0.03468262
199	0x3ca83265	0.020531842
200	0xbe042f04	-0.1290856
201	0x3e299848	0.16561997
202	0x3e35f90c	0.17770785
203	0x3dc704ff	0.0971775
204	0x3e3ab17d	0.18231769
205	0xbd910186	-0.07080369
206	0x3d03a4c5	0.03213956
207	0x3b9b46f0	0.004738681
208	0xbcaf8964	-0.021427818
209	0x3da11c42	0.07866718
210	0xbc927a60	-0.017880619
211	0x3d976231	0.073917754
212	0x3cf889ab	0.030339083
213	0x3d132b2e	0.03592985
214	0x3d24139d	0.040057767
215	0x3e17fe27	0.14843045
216	0xbdc2e636	-0.095165655
217	0x3d92fefa	0.07177539
218	0x3debc9a6	0.11513071
219	0xbd772611	-0.060339037
220	0x3d32794c	0.04357271
221	0xbd0cba87	-0.034357574
222	0xbdf6ed9d	-0.1205704
223	0xbc7201c0	-0.014770925
224	0x3d00cf21	0.031447534
225	0x3e3acf28	0.18243086
226	0xbdc88c17	-0.09792345
227	0xbbfdd795	-0.0077466466
228	0xbc19e20e	-0.009392275
229	0x3da795ab	0.08182844
230	0x3982aaed	0.00024922882
231	0x3e0ab7d3	0.13546686
232	0xbd93e612	-0.07221617
233	0xbde48480	-0.11158085
234	0x3df852e5	0.12125186
235	0xbc26aad3	-0.010172564
236	0x3d0a09af	0.03370064
237	0x3c19e3f0	0.009392723
238	0xbd2a6600	-0.04160118
239	0x3d8b5650	0.06803572
240	0x3d163fbd	0.03668188
241	0x3d454759	0.048163746
242	0xbd99e2bc	-0.07513949
243	0xbd7b7445	-0.06139018
244	0x3dbf496d	0.09340177
245	0xbc1f20b7	-0.00971239
246	0x3da61991	0.08110345
247	0xbc38af71	-0.011272297
248	0xbc854e19	-0.016272591
249	0x3ca0129a	0.01954012
250	0x3dc13372	0.094336405
251	0x3ddc1f4d	0.10748158
252	0x3b048ecc	0.0020226715
253	0x3bd8eb68	0.0066198595
254	0x3d860f70	0.06545913
255	0xbcc62c70	-0.024191111

fc3.bias f4 [4]
0	0x3893687a	7.0289665e-05
1	0x3d8e40cc	0.06945953
2	0x3d93ee60	0.07223201
3	0x3d45118a	0.04811243
